app/src/main/assets/model_reg5.tflite (tflite, 20404 bytes, 9 tensors)

sequential_7/batch_normalization_7/batchnorm/mul f4 [7]
000000 72 87 85 41 7e 36 93 41 49 34 29 42 5e 74 18 42
       16.691135 18.401608 42.30106 38.11364
000010 1a c1 2a 42 5d 7a 01 42 b2 6e 0d 42
       42.688576 32.369495 35.3581

sequential_7/batch_normalization_7/batchnorm/sub f4 [7]
000000 6c 38 70 c1 6d b6 75 c1 63 8d 19 c2 fc 07 10 c2
       -15.013775 -15.357038 -38.388073 -36.007797
000010 d2 d3 1c c2 45 f6 ec c1 cf 07 02 c2
       -39.206856 -29.620249 -32.507626

sequential_7/dense_28/BiasAdd/ReadVariableOp f4 [32]
000000 68 88 8a 3e 20 43 8f 3d b5 93 33 3e 36 c6 4f 3c
       0.27057195 0.06995225 0.17536815 0.0126815345
000010 52 28 9b 3d 9f 9a 31 bc 72 6d 83 3e 39 82 30 3e
       0.0757605 -0.010840087 0.25669438 0.17237176
000020 b6 8c e6 bc 2f 74 f1 bc 4f 59 17 3c bb 5c be 3d
       -0.028143268 -0.029474346 0.009237601 0.09295031
000030 09 62 39 3d 06 a9 6f bc 2a 4e 6c 3e 90 7c 9b 3e
       0.04525951 -0.014627701 0.23076692 0.3036847
000040 f8 39 93 3e 78 bd a9 3d 19 4e 17 3e 31 83 84 3e
       0.28755164 0.082880914 0.14775886 0.2588134
000050 3f 88 5f 3e 54 8c 9e 3e 3b a0 66 3d 34 44 de 3d
       0.21829318 0.30966437 0.05630515 0.108528525
000060 05 34 1d bd c9 f7 c4 3e 9a 77 eb 3d f3 09 94 be
       -0.038379688 0.38470295 0.114974216 -0.2891384
000070 49 dd ca 3d d6 39 1d 3e f9 2f 5c 3e f3 6c 0e 3e
       0.09905488 0.15354094 0.21502675 0.13908748

sequential_7/dense_29/BiasAdd/ReadVariableOp f4 [64]
000000 10 d7 30 bd db 6c e6 bc c7 1b 7b 3e 01 cd 8d 3e
       -0.04317385 -0.028128078 0.24522315 0.27695468
000010 87 fb 39 3d 69 a9 90 3e fe 7d 73 3e 00 00 00 00
       0.04540589 0.2825425 0.23778531 0.0
000020 58 3c 8a 3e ce 34 73 3e 62 4a 14 bd 48 80 82 3e
       0.26999164 0.23750612 -0.03620375 0.25488496
000030 ab 0d 1d bd 4c 14 19 bd 01 14 86 3e d6 fa 88 3e
       -0.038343113 -0.037372872 0.26187137 0.26753873
000040 0a 16 03 3d 68 c8 c4 bb 03 ac 30 bc 89 71 96 3e
       0.03200344 -0.0060053356 -0.010783198 0.29383495
000050 2a a6 85 3e fa 9f 90 3e f3 60 8e 3e 9f a7 91 3e
       0.26103336 0.28247052 0.2780834 0.28448197
000060 8e 74 5e 3e 40 d6 83 3e 7a 32 8e 3e ec cc 41 3e
       0.2172415 0.25749397 0.27772886 0.18925828
000070 bb 33 81 3e 7f 7b 96 3e 9f b8 27 bd 09 b7 8a 3e
       0.2523478 0.29391095 -0.040947553 0.2709277
000080 a3 ba 89 3e ab 99 8d 3e 42 0a 33 bd eb 30 85 3e
       0.26900205 0.27656302 -0.043710954 0.26013884
000090 94 32 8f 3e 9f 47 7c 3e 74 a3 88 3e 0b c6 01 bd
       0.27968276 0.24636696 0.26687205 -0.03168301
0000a0 30 83 4d 3e 2f 79 87 3e cf 40 92 3e a6 19 b5 bb
       0.20069575 0.26459643 0.2856507 -0.005526739
0000b0 d0 48 89 3e d4 fb 8e bc 64 89 90 3e 95 34 89 3e
       0.26813364 -0.017454065 0.2822982 0.2679793
0000c0 d9 78 82 3e d9 11 86 bc ab 60 fe bc b7 55 67 3e
       0.25482824 -0.016365932 -0.031051954 0.22591291
0000d0 3f 5d 0e bd 11 af 8f 3e 9a f3 24 3e e1 d8 bc bc
       -0.034756895 0.28063253 0.16108552 -0.023052635
0000e0 2f 3d 0d 3e ab 42 85 3e 09 9a 8e 3e 7b 7b 80 3e
       0.13792871 0.26027426 0.27851894 0.25094208
0000f0 45 65 8c 3e 8b 49 8b 3e ff cb 84 3e 4b 74 69 bc
       0.27421013 0.27204546 0.25936887 -0.014248918

sequential_7/dense_30/BiasAdd/ReadVariableOp f4 [32]
000000 7b c7 c4 bb 35 ca c4 bb 1e b6 cb 3e 1f ca c4 bb
       -0.0060052252 -0.0060055503 0.39787382 -0.00600554
000010 08 80 d5 bb 41 66 14 bc ef a8 ba 3e 40 0f d6 bb
       -0.0065155067 -0.009057582 0.3645701 -0.0065325797
000020 6f 18 02 bd 0d 64 ce 3e e7 c9 ec bb 31 ca c4 bb
       -0.031761583 0.40310708 -0.007226217 -0.0060055484
000030 80 1b c8 bb 1b ca c4 bb ca c5 ce 3e 2a 4e c5 3e
       -0.006106794 -0.006005538 0.40385276 0.38536197
000040 0a 3a c9 bb a8 ce ce 3e 7d 29 c1 3e bf c9 c4 bb
       -0.006140952 0.4039204 0.37726966 -0.0060054953
000050 a6 87 cb 3e a7 ea ae 3e 8f c9 c4 bb 00 00 00 00
       0.3975193 0.341634 -0.006005473 0.0
000060 1a 3d e3 bc 9f 0b bb 3e 49 4b ed bb 4a 65 cb 3e
       -0.027739096 0.36532304 -0.0072416407 0.39725715
000070 04 ca c4 bb c8 37 d0 3e 2a ca c4 bb d2 bf 26 bc
       -0.0060055275 0.40667558 -0.006005545 -0.010177569

sequential_7/dense_28/MatMul f4 [32, 7]
000000 c0 e9 c7 bd 11 09 d5 3d 9d 37 3b 3e 50 fe a3 bd
       -0.09761381 0.1040212 0.18282934 -0.08007491
000010 84 b2 c6 bd 38 5c 67 3d c7 12 22 3e 59 36 e6 be
       -0.09702018 0.05648443 0.15827475 -0.4496334
000020 6c 85 81 3e d1 0d bf be 1c 75 80 bc b3 03 c2 3e
       0.25297105 -0.3731523 -0.015680842 0.37893447
000030 d1 c4 f1 3e 3c a5 c2 bd f2 da 0c be 12 10 92 3e
       0.47220472 -0.09504172 -0.13755396 0.28527886
000040 a5 6e 97 be a2 ba c8 b9 8e 47 f6 3e 26 6c 8b be
       -0.29576603 -0.00038286025 0.48101467 -0.27230948
000050 41 9e fd bc c0 30 7d 3d 88 7c 9d be b6 a9 c9 3e
       -0.03095925 0.06181407 -0.30759072 0.39387292
000060 a4 e6 6b 3e 14 6b 3d bc 11 0f 4d be 77 1d 3b 3c
       0.23037201 -0.011561174 -0.20025279 0.011420599
000070 45 3c d4 3e 93 8c 92 3c 08 68 7b bf b1 78 e2 3f
       0.41452232 0.017889297 -0.98205614 1.7693082
000080 2f 23 2d bd b2 39 a8 bd 15 10 2a be 21 a9 09 3d
       -0.04226988 -0.082141295 -0.16607697 0.03360856
000090 1f 31 b4 be 42 7f 40 bd d2 63 82 3e 45 79 a5 be
       -0.35193726 -0.046996363 0.25466782 -0.32319084
0000a0 a9 3f a1 3e c0 e6 19 3f ce 0c b6 bd fe 0f fa 3c
       0.3149388 0.6011772 -0.08889161 0.030525204
0000b0 7a 83 d8 bc 14 20 8f be b4 ac 50 3e c4 22 8e bd
       -0.02642988 -0.2795416 0.20378381 -0.06940225
0000c0 42 77 ab 3e 46 97 c3 be 3f f7 85 3e 7e 9e bc 3d
       0.33489424 -0.3820135 0.26165196 0.092099175
0000d0 84 9b 3d 3e a0 c4 18 be 20 b4 6b be a0 85 86 3e
       0.18516356 -0.14918756 -0.23017931 0.26273823
0000e0 a5 3f 0b bf cc 80 e0 3d 51 03 0a 3e cf 9f 80 3e
       -0.5439399 0.10962066 0.13477828 0.25121924
0000f0 ac 12 54 3e c0 c8 ac be 6d 34 33 be 94 42 8a 3e
       0.20710248 -0.3374691 -0.17500468 0.2700392
000100 dd 7e cf be 44 ee 43 3a ab df 8a 3d 10 ec 57 bc
       -0.40526477 0.0007474164 0.067809425 -0.01317884
000110 69 ea 84 be 7d 39 ba 3e 6b df 24 be 59 c8 93 3e
       -0.2596009 0.36371985 -0.16100852 0.2886379
000120 db 8d cf bc 3a d8 9c 3c af 61 e8 3d 99 68 07 bf
       -0.025336197 0.019146074 0.11346757 -0.5289398
000130 64 44 61 3e f5 72 af 3d 46 64 76 be 8e bb d7 3e
       0.21998745 0.08566848 -0.24061689 0.4213528
000140 94 9a 23 3e af e2 85 3d 7f d3 51 3c e8 1e 0d bf
       0.15976936 0.06537377 0.012806772 -0.55125284
000150 56 f9 45 be 9f 32 0a 3f d7 6e b7 be 5f 54 24 3c
       -0.19333395 0.5398349 -0.35826752 0.010029881
000160 26 df 8a bd 30 12 8e 3e 0e 42 ae 3e 57 5c 84 bc
       -0.067808434 0.2774825 0.3403477 -0.016157312
000170 fa 9c bb 3e 1b 8f d8 bc 98 43 86 be ec b7 8f be
       0.366432 -0.026435426 -0.26223445 -0.2807001
000180 c8 28 99 3e d3 81 66 3a 03 8a e0 bd 19 70 81 3d
       0.29913926 0.0008793149 -0.10963824 0.06320209
000190 1b b3 c8 bd ab a1 9f bd fb e5 80 3e db 9c 21 bd
       -0.09799787 -0.077945076 0.2517546 -0.03945623
0001a0 cf 74 4f 3e 7b c4 11 3e f4 80 74 be fe 83 08 3e
       0.20259403 0.14235108 -0.23877317 0.13331601
0001b0 a8 a1 53 bc aa 76 dc 3d 8c b6 9a 3e 36 9f 83 bd
       -0.01291696 0.10764821 0.30217397 -0.064268515
0001c0 b7 ed 9b bd b6 6b ad 3c bd 2f ba bd d2 46 53 3e
       -0.076137 0.021169525 -0.090911366 0.20632485
0001d0 21 d2 44 be dc 8d 1f 3c bc 2d c0 3e be 52 51 be
       -0.19220783 0.009738412 0.37534893 -0.2044172
0001e0 25 e6 f1 bd 3a 44 88 3e 31 0f 03 be cd be 0d 3e
       -0.11811475 0.26614553 -0.12798764 0.13842316
0001f0 f6 4a 1d 3e 8b 1a 95 be e1 93 d6 bd 2c 87 1c 3d
       0.15360627 -0.29121813 -0.104774244 0.038214847
000200 df 3e de 3d 53 62 c2 be db 5d d8 3d 8d 65 c3 3e
       0.108518355 -0.3796564 0.105647765 0.38163415
000210 31 d5 43 3e ff cb 96 be 35 63 e8 3d a5 47 15 be
       0.19124295 -0.29452512 0.11347047 -0.14578111
000220 18 07 75 bd c5 0b cb 3e 93 fc 32 be 02 45 8d 3e
       -0.05982122 0.39657417 -0.17479162 0.2759171
000230 2f 5c 90 3c 5c 36 10 3e 0d ab 18 be 53 1e 48 3d
       0.017622082 0.14083236 -0.14909 0.048857044
000240 72 79 cf 3e bc 1d 95 3d c6 99 67 3b 3a 91 4c 3d
       0.40522343 0.07281062 0.003533946 0.049943186
000250 ee 0e 0f 3e 06 29 fe 3e cf 6b 05 bd ea 99 ff 3d
       0.13970539 0.49640673 -0.032573517 0.12480529
000260 ea 84 8d be f7 a5 dc bd 92 d9 71 be 82 6b 72 3e
       -0.27640468 -0.10773843 -0.23618153 0.23673823
000270 5e f5 03 be 1a 94 c7 3d 8d ff 47 be e6 4f f6 be
       -0.12886569 0.09745045 -0.19531079 -0.48107833
000280 da 88 fd 3e de 7a 74 bd 58 b0 4e bd 8b cc 87 bd
       0.49518472 -0.059687488 -0.050461143 -0.0663081
000290 2e 8e 09 3e 53 90 94 be c1 6c 84 be aa 02 3f 3f
       0.13433143 -0.2901636 -0.25864223 0.7461344
0002a0 e1 f8 12 be da 73 b2 3e 65 ce 34 be 17 4d 6f be
       -0.14352752 0.34854013 -0.17656858 -0.23369251
0002b0 75 9d 4f 3d ee 0c 60 be 2c 78 e3 3e 57 ac 18 be
       0.050687272 -0.21879932 0.4442762 -0.14909492
0002c0 96 86 eb 3d 2c 5a a3 3d 9e b1 29 3d ef 1f 2a be
       0.115002796 0.07976183 0.041429155 -0.16613744
0002d0 86 e9 7a 3d 86 0c 9f 3e 74 dc 63 be f6 f8 c1 3e
       0.06125786 0.31064242 -0.22252065 0.37885255
0002e0 4a 52 e5 be f0 d9 8a 3d a1 54 bf 3e 76 43 86 be
       -0.44789344 0.067798495 0.37369254 -0.26223344
0002f0 27 17 ef 3d 2f d4 a5 3e fe e6 d4 3c 55 2b 7f 3e
       0.11674338 0.32388446 0.025989052 0.24918874
000300 3b 54 59 be 6b b3 61 3e ef bf 07 bf d9 98 c1 bc
       -0.21223538 0.22041099 -0.5302724 -0.023632454
000310 c7 0f dd 3c 78 73 9b 3e 58 5b c0 3d 32 c6 0e bf
       0.026985062 0.30361533 0.093924224 -0.5577117
000320 c0 43 b9 bc c4 33 6c 3e 42 0b 4e bc 89 71 b9 3c
       -0.022615314 0.23066622 -0.012575926 0.022637146
000330 ff a8 5b 3e 61 02 c1 be 18 1f a5 3d ca e3 fd 3d
       0.21451186 -0.37697127 0.08062571 0.12396963
000340 ab dc d4 3e 18 6a d6 be 44 24 a2 3d 06 60 84 3e
       0.41574606 -0.41877818 0.07917073 0.2585451
000350 2a 3f fc be 3c e4 a2 3d 78 38 3c bc 1e 8a 1a bd
       -0.4926694 0.079536885 -0.011488073 -0.037729375
000360 12 7a 60 3e 80 ad e6 be b1 da 86 3e 97 14 e8 bd
       0.21921566 -0.45054245 0.26338723 -0.11332052
000370 55 90 9d bd 6f c5 0d 3f 5a d0 af bd 08 a4 dd 3d
       -0.07693545 0.55379385 -0.08584662 0.10822302

sequential_7/dense_29/MatMul f4 [64, 32]
000000 22 3f 9a bd 24 c9 f7 bc 6d a9 3a bd f5 f0 24 bd
       -0.07531573 -0.030247279 -0.045571733 -0.040268857
000010 dc 77 b0 bc ef 43 51 bd fb 82 46 bc 58 2f 4c bd
       -0.021541528 -0.051090177 -0.012116189 -0.049849838
000020 eb e3 95 bc a5 48 a2 bd 87 1b 6f bd d6 ca b9 bc
       -0.018297156 -0.07924012 -0.05837586 -0.022679728
000030 57 3a e0 bc 94 4a 53 bd a3 97 32 bd 48 c1 2d bd
       -0.027371569 -0.051584795 -0.043601643 -0.042420655
000040 6a c8 39 bd 44 8b 20 bd f2 e5 1d 3c e3 a2 db 3a
       -0.045357145 -0.039195314 0.009637343 0.0016756918
000050 a8 8a 82 bd d6 a3 53 bd f8 83 99 bb 98 66 41 bd
       -0.06374103 -0.051669918 -0.0046849214 -0.04721698
000060 43 bc 26 bd b8 f8 14 3d b7 7f ac bc 3a 95 94 3c
       -0.040706884 0.03637001 -0.021056993 0.018137563
000070 75 a5 7d bc 8e 16 39 bd 29 32 42 bc 64 76 a4 bc
       -0.015481343 -0.045187525 -0.011852779 -0.020075984
000080 63 05 8c bc ae 5c c0 3a 0b b6 7e 3a 89 45 c2 bd
       -0.017092412 0.0014676058 0.00097164576 -0.09485919
000090 2f 6f ff 3c 49 22 5b 3b 04 5e c5 bb d8 54 87 bd
       0.031180946 0.0033437184 -0.0060231704 -0.066079795
0000a0 b4 8a 09 bd b9 4c b4 3c de 5c 4f bd 1c c6 94 bd
       -0.033579543 0.02200924 -0.050625674 -0.07264349
0000b0 a0 5f 46 bd 5f 1f 91 bd 24 88 c6 bd 4d 20 ef bc
       -0.04843104 -0.07086062 -0.096939355 -0.029190207
0000c0 d1 3e 41 bb 56 94 1b bd 6c 70 1b bd fa 21 a8 3b
       -0.0029486904 -0.03798326 -0.03794901 0.0051310034
0000d0 9e 33 a3 bc 7a 8f 8e bd d3 b3 45 bb 3e f4 82 bc
       -0.019922074 -0.0696096 -0.0030166998 -0.015985604
0000e0 9b 49 05 bd ee e7 45 3b 06 ef 33 bd 64 be 78 3c
       -0.0325409 0.0030198055 -0.043929122 0.015182111
0000f0 e8 c1 83 bd 07 a0 1c bd dd b8 80 bd ff e2 90 bd
       -0.06433469 -0.03823855 -0.0628526 -0.07074546
000100 a1 3c 63 3b 1f 4e 2c 3e 4c 5e 58 3e c2 3b 21 3e
       0.0034673589 0.16826676 0.21129721 0.15745452
000110 71 90 c1 3e 4b 4c 1e be d6 a0 d0 3c 21 3b 57 3e
       0.37805513 -0.15458791 0.025467318 0.2101865
000120 4c fc 24 be c9 a5 39 3e b6 75 9b bd 9b 63 98 3e
       -0.16111869 0.18129648 -0.07590811 0.29763493
000130 04 0e 91 3e 1e a9 de bd bf dd 40 3c c6 3c 26 be
       0.28331006 -0.108721 0.011771618 -0.1623412
000140 69 bb f9 3d 87 c3 e5 3b 94 4d ce 3d ff be 05 3e
       0.12193949 0.007011834 0.100733906 0.1306114
000150 5b e1 be 3d f3 cf 83 be da 22 54 3e 98 05 67 be
       0.09320327 -0.2574459 0.2071642 -0.22560728
000160 e2 35 69 be f0 10 04 3e 5a 70 92 be ba 92 d7 3d
       -0.22774461 0.12897086 -0.28601342 0.10526033
000170 00 b7 81 3e b5 7d 85 bd 6b 4f 05 3d c1 39 89 be
       0.2533493 -0.06518117 0.032546442 -0.26801875
000180 e5 46 7b 3c cc b2 7c 3e 85 a9 9f 3e 86 b8 05 3e
       0.015336727 0.2467758 0.3118402 0.13058671
000190 5d 23 e5 3e 57 21 2a be 1e fb c1 bc da 7f 3a 3e
       0.44753543 -0.1661428 -0.023679312 0.18212834
0001a0 ef c6 0c be 99 1e 4d 3e 26 32 33 bd 75 e3 aa 3e
       -0.13747762 0.20031203 -0.043748997 0.3337666
0001b0 1c 2b 8e 3e a5 67 dc bd 18 80 0c 3b 22 9a 37 be
       0.27767265 -0.10761956 0.0021438655 -0.17929891
0001c0 a0 9b c8 3d aa eb 78 bb 89 18 40 3e d6 a2 74 3e
       0.09795308 -0.0037982264 0.1875936 0.23890242
0001d0 17 3e ce 3d 7e 3c a2 be cd 26 75 3e 07 b1 90 be
       0.100704364 -0.31686777 0.23940583 -0.2826006
0001e0 71 d1 8b be 92 c7 36 3e 38 75 7f be 9a 87 1c 3e
       -0.2730823 0.17849568 -0.24947059 0.15286103
0001f0 27 23 6b 3e e0 da a0 bd ac ff cf 3b 4c 4d 70 be
       0.22962628 -0.07854247 0.006347617 -0.23466986
000200 a4 45 8d be 6a 2c 96 3f a3 6e 63 be 67 19 6d 3e
       -0.27592194 1.1732304 -0.22210173 0.23154221
000210 c4 40 f2 3f c6 39 db be 46 8f ce be 34 50 98 3e
       1.8926015 -0.42817515 -0.40343684 0.2974869
000220 31 dd 97 bf df 9c 7b 3e a4 fc 26 3f 46 de fa bc
       -1.1864377 0.2457156 0.6522925 -0.030623566
000230 b8 b9 24 3f a9 df cb 3d e3 ea 08 be 50 97 27 bf
       0.64345884 0.09954769 -0.13370852 -0.6546526
000240 cb 60 c5 3e b3 ee 0c bf 69 78 8f 3e 1e 56 73 be
       0.3855041 -0.55051726 0.28021553 -0.2376332
000250 9f 95 b2 3e dd 2c a3 bd d0 ee 48 bd 19 5e b5 be
       0.34879777 -0.07967541 -0.049055874 -0.35423353
000260 32 8f 21 be 1e ac 43 3e 35 cc 32 bf 1e ed d1 be
       -0.15777281 0.19108626 -0.69842845 -0.4100122
000270 96 71 dd 3e 35 60 5c bf 0e 87 1a bf 51 2b d0 3e
       0.43250722 -0.860843 -0.6036233 0.40658048
000280 5e b8 59 3d 88 0a 78 3e b3 41 ab 3e 62 8e 4b 3e
       0.053154342 0.24222767 0.33448562 0.19878533
000290 3e cb e0 3e 2e cb 19 be 85 9a 36 3c a0 e6 4c 3e
       0.4390506 -0.15018913 0.011145239 0.20009851
0002a0 18 55 30 be f4 8e 7d 3e 6f b9 da bd 19 b9 8d 3e
       -0.1721996 0.24761564 -0.106799 0.2768028
0002b0 16 39 a4 3e da d2 cf bd 6d bc 69 3d ec fd d5 bd
       0.32074803 -0.101476386 0.057064462 -0.104488224
0002c0 82 b0 fb 3d 91 11 91 3c 7b cc 43 3e 34 f5 2c 3e
       0.122895256 0.017708572 0.19120972 0.16890413
0002d0 74 6d 24 3e 8d 5e 80 be 20 70 6f 3e a2 19 85 be
       0.16057378 -0.25072137 0.23382616 -0.2599612
0002e0 0a 98 45 be ac e1 20 3e fe 78 7e be f3 11 f9 3d
       -0.1929628 0.15711087 -0.24850842 0.12161627
0002f0 1c b8 67 3e 39 8a 0d bd 59 65 ee 3d de 78 8a be
       0.22628826 -0.034555648 0.11640424 -0.2704534
000300 42 29 ad 3c 98 66 ac 3d c2 09 d8 3e 2e 74 45 3e
       0.021137837 0.08418006 0.42194945 0.192826
000310 48 ce ad 3e 46 aa a4 be df c4 9e 3d e0 6d f3 3d
       0.33946443 -0.32161158 0.07752394 0.11886191
000320 1f 21 bf be 2c 26 a4 3e e3 3b 43 be d2 d0 a5 3e
       -0.37329957 0.32060373 -0.19065814 0.3238588
000330 ec 55 58 3e 6b 99 cd be d6 fd 7e 3c c6 c7 1e be
       0.21126527 -0.4015611 0.015563449 -0.15505895
000340 7a fd c9 3a 99 3b 92 3d b8 fa db 3d 6c d2 6f 3e
       0.0015410625 0.071402736 0.1074118 0.23420113
000350 df 4b 88 3d 42 df a4 be 71 df c8 3d f4 bb c4 be
       0.06655096 -0.32201582 0.09808243 -0.38424647
000360 2f 98 b7 be 27 68 19 3e 6d b8 78 be 44 82 cc 3e
       -0.35858294 0.14981137 -0.24289103 0.39943135
000370 d0 0c 92 3d 34 33 86 be b1 15 e5 3d 42 f1 8e be
       0.0713135 -0.2621094 0.11185778 -0.2791844
000380 d0 e5 cc 3b ad 11 b7 bc 42 21 b2 3c cd 03 9b bc
       0.0062529817 -0.022347296 0.021744374 -0.01892271
000390 06 48 12 bd e7 96 a3 bc 30 64 58 bb d0 73 1b bd
       -0.03571322 -0.019969417 -0.00330187 -0.037952244
0003a0 fa 04 df bc e7 18 41 bd a6 37 97 bc d7 21 38 bd
       -0.027224053 -0.04714289 -0.018459152 -0.044954147
0003b0 0e 33 f8 3c 8c 7c 93 bc 93 f7 43 bd 30 dc d3 3b
       0.030297782 -0.018003725 -0.047843527 0.0064654574
0003c0 90 d0 03 bd 74 7c 67 bc e0 3f 93 bc b4 70 70 bc
       -0.032181323 -0.014128793 -0.017974794 -0.014675308
0003d0 98 17 2e bc 93 41 4a bd 90 c2 33 bd 2d c8 eb bc
       -0.010625742 -0.049378943 -0.04388672 -0.028781975
0003e0 a8 77 43 bc da 50 a6 bc 1a a5 ea bc 57 a5 4a 3d
       -0.011930384 -0.020302225 -0.02864318 0.049474087
0003f0 23 1c 26 bd 03 6a 41 bd e9 44 09 3d f4 04 2b bc
       -0.040554177 -0.04722024 0.033512983 -0.010438193

sequential_7/dense_30/MatMul f4 [32, 64]
000000 3e f8 5e bd 86 46 07 bd f5 4c 5f bd 8c 1a 6c bc
       -0.05443596 -0.03302624 -0.05451675 -0.014410626
000010 e1 18 a5 3c 4c 57 4d 3c 1a 6e cc bc 46 27 82 bc
       0.020153465 0.01253302 -0.024954844 -0.015887868
000020 80 92 27 ba ff 52 21 3d 06 30 ab 3c e8 b4 96 bb
       -0.00063923746 0.039385792 0.020896923 -0.0045992024
000030 e1 f6 98 bc 00 ad e1 bb 00 ad fb 3c 1a f6 fa bc
       -0.018672409 -0.0068870783 0.030722141 -0.030634928
000040 b3 ab c4 bc d0 cd 0f 3b 1d 47 1d bd b7 8c 13 3d
       -0.024007654 0.0021942742 -0.038397897 0.036022868
000050 e3 79 0a 3d b3 95 38 bd da 34 b7 3c 20 d3 cc bc
       0.033807646 -0.04506464 0.022364069 -0.025003016
000060 39 4f 0d 3d 4b f8 33 bd cc 92 61 bc c3 3f 41 bd
       0.03449938 -0.043937963 -0.013767909 -0.04717995
000070 cf 98 e2 bc 55 c9 b1 3c f3 45 18 3d b3 40 e5 bc
       -0.027660755 0.021702448 0.037176084 -0.027984953
000080 00 95 ee 39 1f 40 06 bd 95 db 9a 3b be 7c 1e 3d
       0.0004550591 -0.032775994 0.0047258832 0.038693182
000090 31 dd 91 3c 2a 29 10 3d 93 71 32 bd 00 6b d6 3b
       0.017805668 0.035195507 -0.043565344 0.006543517
0000a0 26 2a bd bc 0e 1e a7 3c ce 3d 11 bd e8 44 c2 3b
       -0.023091387 0.020400073 -0.035459332 0.0059286244
0000b0 14 47 1f bd 4d c2 9c bc 14 4a 77 bc 68 2c 0a bc
       -0.038886145 -0.019135619 -0.015093345 -0.008433439
0000c0 20 39 8c bc b6 f4 31 bd 8c 8d 1b bc 6e b4 f3 bc
       -0.017117083 -0.043446265 -0.009494197 -0.029749122
0000d0 a4 7d 5e 3c f3 f9 22 bd 0a 4d 46 3a 82 3e 96 3c
       0.01357976 -0.03978915 0.00075645803 0.018340353
0000e0 b5 f8 a7 bc 6f 7e 42 bd ae a9 b4 3b cd 7f 39 3d
       -0.020504335 -0.047483858 0.0055133915 0.045287896
0000f0 43 27 2c bd 0d 17 24 bc d2 30 01 bd 9e 56 27 bc
       -0.04202963 -0.010015261 -0.0315407 -0.010213522
000100 a1 56 b7 bc 26 94 76 bc 4f 76 a8 bc 42 22 b4 bc
       -0.022380175 -0.01504997 -0.020564226 -0.021988992
000110 57 6b ac b9 97 bd fe 3b 0a bb 38 bd e6 79 84 bc
       -0.0003288637 0.0077740657 -0.04510025 -0.016171407
000120 e6 b0 d5 3c 8d db 1d bc 47 5a 83 bb 29 c0 49 bd
       0.026085328 -0.0096348645 -0.0040085646 -0.049255524
000130 14 09 7a bc 05 4f e3 3c b0 4b 8e bc 39 7c de 3b
       -0.015260953 0.02774764 -0.017370075 0.006789711
000140 0d 56 73 bc 3a 9f c5 3c 06 03 10 3d 28 3a 82 3c
       -0.014852059 0.024123777 0.035159133 0.015896872
000150 41 b7 b1 3b a5 c8 24 3c 88 59 c0 bb cf 0d d1 bb
       0.005423457 0.010057603 -0.005870048 -0.00637982
000160 50 5a c0 3c 3a cd fc bc 64 aa 24 bd e9 8c 10 3d
       0.023480564 -0.030859578 -0.04020156 0.035290632
000170 6e a7 cf bc d1 57 b6 3b 20 85 d6 bc ad 07 d4 b9
       -0.025348391 0.0055646678 -0.026186526 -0.0004044151
000180 18 77 bb 3b 7e 57 58 3b 78 5e 24 bd 4f c3 dd 3b
       0.005720984 0.0033011134 -0.040129155 0.0067676674
000190 c9 c1 12 3d b2 65 e3 bc 4e 96 32 bd 31 26 30 3d
       0.03582934 -0.027758453 -0.043600373 0.043005172
0001a0 27 94 e3 3c b5 94 9d 3c 8d b6 36 bd a8 8c 3a bd
       0.027780605 0.019235948 -0.044607688 -0.045544297
0001b0 4f 66 01 bd 8b 84 df bc b9 75 39 bc ca 21 89 bc
       -0.03159171 -0.027284881 -0.011319571 -0.016739745
0001c0 a9 41 9e 3b 25 80 88 bc f9 4e 20 3d 68 fb 13 3d
       0.0048296046 -0.016662667 0.039137814 0.03612843
0001d0 af 78 91 3b cf 74 9a 3c 4f 35 c2 3c 22 a0 ae 3c
       0.0044394354 0.018854527 0.02370706 0.021316592
0001e0 41 c9 af 3c 12 7a 07 bd 7c 6e de bc 13 77 3d bd
       0.02145827 -0.0330754 -0.027152292 -0.046256136
0001f0 49 a4 42 3c c4 79 90 bc e1 49 2c 3d c8 b0 87 bc
       0.011879989 -0.017636187 0.042062644 -0.016563788
000200 d3 5e 03 bd b0 37 06 3c d3 4c 95 3d cf fa 01 3e
       -0.032072853 0.008191988 0.07290044 0.12693332
000210 19 99 a7 bf da e0 3b 3e 49 3b 52 3e 8e f0 d4 3c
       -1.3093597 0.18347493 0.20530428 0.025993612
000220 f3 be aa 3d 3b c7 07 3d fb b7 34 bd 7f 70 c8 3d
       0.08337202 0.033148985 -0.04412077 0.09787082
000230 e9 dc 8b bd b5 44 4a bc e4 c5 f6 3d 45 0f 08 3e
       -0.06829245 -0.012345483 0.120494634 0.13287075
000240 51 c0 9b 3f a9 c1 40 bb f2 6e 0c bd 0e 45 4f 3e
       1.2168065 -0.0029412305 -0.034285493 0.20241186
000250 8d 5d 1a 3e 17 fa 1c 3e d7 8c 29 3e b5 c0 24 3e
       0.1507475 0.15329777 0.16557632 0.16089137
000260 77 d7 c3 3d 14 71 c3 3d 60 fd 2b 3e 40 9a 90 3d
       0.09562581 0.09543052 0.16795874 0.07060671
000270 ab 88 f3 3d 9d 78 20 3e 22 47 81 3d 90 9f a0 3d
       0.11891302 0.1567101 0.06312396 0.07842934
000280 6c 67 f0 3d 58 be e0 3d 34 9f 55 bd 30 b8 b1 3d
       0.11738476 0.10973805 -0.05215378 0.08677709
000290 08 c5 43 3e e4 91 ec 3d 24 c0 24 3e e4 35 87 bc
       0.1911813 0.11551264 0.16088921 -0.01650519
0002a0 49 cd 7e 3d 3e fa 11 3e 49 32 0e 3e bf 27 b2 bc
       0.062207494 0.14255616 0.1388637 -0.021747468
0002b0 a0 93 de 3d 41 4d 45 3d 57 f8 ef 3d f1 c4 0e 3e
       0.10868001 0.04816938 0.11717289 0.13942315
0002c0 98 0d e2 3d 53 d1 53 3d 72 c5 97 bb f4 2e c2 3d
       0.11037749 0.0517133 -0.0046316916 0.09481612
0002d0 e8 0b 2b bb b6 11 14 3e ad 71 c0 3e 72 3b c3 3c
       -0.0026099626 0.14459881 0.37586728 0.023832057
0002e0 ab 5c ee 3d 93 cf fa 3d e8 7c 1f 3e 1c ca ff 3d
       0.11638769 0.12246623 0.15574992 0.12489721
0002f0 47 bf fc 3d a7 e9 08 3e c2 df cd 3d 60 11 eb bc
       0.12341171 0.13370381 0.10052444 -0.028694808
000300 5d c3 4b bd 30 7f 4e 3c 5c be bc bc 27 4d 1f 3c
       -0.04974686 0.012603566 -0.02303999 0.009722984
000310 c6 79 1b 3d 15 87 82 bb ad 4c 8e 3c 67 2c 08 3d
       0.03795793 -0.003983388 0.017370546 0.03324547
000320 a0 30 27 bd d2 6e 5b 3c ef 1c 6b 3c 11 35 c3 3c
       -0.040817857 0.013393121 0.01435016 0.023829015
000330 4d 2f 4b bd b9 00 07 bb f5 d3 26 3d 3b 82 60 bd
       -0.049605656 -0.0020599796 0.04072948 -0.054811697
000340 cb 51 24 bc e2 8a 17 3d 56 06 9a bb bf c5 e1 3c
       -0.010029267 0.036997683 -0.0047004623 0.027560113
000350 de ca e1 ba f9 78 9b bc 2d ff 2e bb 79 d1 51 bd
       -0.0017226597 -0.018978583 -0.002670239 -0.05122516
000360 1f 69 f6 3c b0 c6 02 bc bc dc b9 bc 8b 19 10 3d
       0.030079423 -0.007981941 -0.022688262 0.03518061
000370 d9 12 58 bd a5 7b 26 bd ce 4a 20 bd 98 4b 30 bd
       -0.05275235 -0.04064526 -0.03913384 -0.04304084
000380 c4 2e 6d 3c d6 7c 3b 3c f7 8f e7 bc 04 2a 3a bc
       0.014476482 0.011443337 -0.02826689 -0.011362556
000390 cb b2 e6 3c 1d 4a 15 bd 6b 41 99 3c d3 02 3d bd
       0.028161427 -0.036447633 0.018707952 -0.04614527
0003a0 37 1d 39 bd d9 c4 18 bd 47 0f 0e bd 42 56 02 bd
       -0.045193877 -0.037297104 -0.03468254 -0.031820543
0003b0 11 1c 32 bd 2a 15 0c bc 5c f3 b7 bc 94 8e 21 3d
       -0.043483797 -0.008549968 -0.02245491 0.039442614
0003c0 75 e6 8c bc 12 db b7 3c 5a 72 ae bc a0 59 d2 3c
       -0.017199734 0.022443328 -0.021294761 0.025677502
0003d0 04 6c 85 ba 11 c9 00 bd 35 70 28 3d c7 fe 99 bc
       -0.0010179286 -0.031441752 0.041122634 -0.018798245
0003e0 e5 fe 82 bc 73 a3 9d 3c 47 60 10 3d 3a 0e 61 bb
       -0.015990684 0.019242978 0.035248067 -0.0034340755
0003f0 ce 7f ac bc b3 c9 0b bd 7f a3 68 3c 1a 32 49 bd
       -0.021057036 -0.034127902 0.014199137 -0.049120046

sequential_7/dense_31/MatMul f4 [1, 32]
000000 0c b5 0f be 6c 3b a7 be 9d 5f d9 3e f4 fa 12 be
       -0.14033908 -0.32662523 0.4245576 -0.14353544
000010 00 b0 01 be d0 4b a7 bc 7d a0 2a 3e ca 4c c7 bd
       -0.12664795 -0.020421892 0.16662784 -0.09731443
000020 45 bb cb be d7 d4 fe 3e 4b 20 17 be 52 d7 a7 be
       -0.39791313 0.4977176 -0.14758413 -0.32781464
000030 8e 2a ed bd 67 d0 b8 bd 84 df fb 3e 22 ba 96 3e
       -0.11580382 -0.090241246 0.49193966 0.29438883
000040 fb c8 b5 be c4 06 02 3f 09 8c 79 3e 95 66 09 be
       -0.35504898 0.50791574 0.24369825 -0.13418038
000050 60 7b da 3e a2 2b 5c 3e 28 32 10 bd 80 89 d3 3e
       0.42672253 0.2150102 -0.035204083 0.41315842
000060 64 25 9d be bc c8 27 3e 33 56 cc bd a6 3a d7 3e
       -0.3069259 0.16385168 -0.09977379 0.42036933
000070 6d 24 49 be 21 d5 0d 3f 7e a2 86 be 77 d3 98 bd
       -0.19642802 0.55403334 -0.26295847 -0.07462209
