app/src/main/assets/model_cla1.tflite (tflite, 420636 bytes, 19 tensors)

sequential_3/dense_25/MatMul;sequential_3/dense_25/BiasAdd f4 [256]
000000 a1 d1 39 be 36 12 ba be 55 e2 ba be 14 e9 8e 3e
       -0.18146373 -0.3634202 -0.36500803 0.279122
000010 4d 46 b2 bf 7d 8e ba bf bb 13 a2 3f 95 07 d4 3d
       -1.3927704 -1.4574734 1.2662271 0.10353009
000020 2d d0 d2 3e 10 cb 11 bf d0 59 3b 3e 76 ea dd be
       0.4117445 -0.56950474 0.1829598 -0.43342942
000030 9c 44 16 bf 11 e8 e0 be 0d 8f 29 3e f3 ee 9a 3f
       -0.5869844 -0.43927053 0.16558476 1.2104172
000040 e6 5c 72 3f 5a f4 03 3f 91 d1 cd 3e f2 97 ee bd
       0.94673 0.51544726 0.4019895 -0.11650075
000050 2b 11 48 3e cf 74 f9 3e 7e ae 48 bf 9a 87 c8 3e
       0.19537799 0.4872193 -0.78391254 0.39165956
000060 be 93 15 3f e6 81 14 3f 7f b5 27 bf a6 45 db be
       0.5842856 0.5801071 -0.65511316 -0.42826575
000070 1c 58 23 3f f6 1e 2a 3f 53 a1 01 bf 20 7e 07 bf
       0.6380632 0.6645349 -0.50636786 -0.52926826
000080 b6 cb e5 3e c3 f6 e1 3e 90 29 32 be 91 98 84 be
       0.44881982 0.44133577 -0.17398667 -0.2589765
000090 7b 9a 1a be 35 61 05 3e 02 bb 16 bd db 74 fe 3f
       -0.15097992 0.13025363 -0.03679944 1.9879411
0000a0 89 81 a0 3e 9f bd 42 3f 82 d0 ac 3e 95 bf 09 3e
       0.31348827 0.7607059 0.3375283 0.13451989
0000b0 2b 7a 26 be 3e 4f 39 3f 0f 2b be 3e 12 89 62 be
       -0.16257541 0.7238654 0.37142226 -0.221226
0000c0 20 be b3 bd c8 b9 14 bf ed 64 61 be 23 df eb be
       -0.08776498 -0.5809598 -0.22011156 -0.46068677
0000d0 fb 70 6f 3f b0 49 66 3d a3 45 29 3f 4b 79 8a 3e
       0.9353177 0.056222618 0.6612188 0.27045664
0000e0 22 5d 4a 3f 24 d7 02 3f c8 b6 d1 3c 94 5e 0c 3f
       0.7904836 0.5110953 0.025599852 0.54831815
0000f0 3f fa 24 3f 04 50 63 bc 1a ad d2 3e 4d 85 09 3e
       0.64444345 -0.013874058 0.4114769 0.13429756
000100 87 21 9e 3d 3f 90 ac be 9a 48 0f 3f 55 00 1e 3f
       0.077212386 -0.337038 0.55970156 0.61719257
000110 cd 77 9e 3e 40 bd a6 3f e1 66 aa 3e 64 be 56 be
       0.30950776 1.3026505 0.33281615 -0.20971066
000120 45 e3 eb 3f 70 85 e2 3e 1f 33 7b bf 42 d2 ac be
       1.8428732 0.4424243 -0.9812488 -0.33754164
000130 24 e4 80 bd 0c 77 6a 3d 2b b8 2f 3f c2 46 49 be
       -0.06293514 0.05724244 0.68640393 -0.19655898
000140 9d c7 4e 3e 01 fd ad be c5 36 ed be 54 f6 ad 3d
       0.20193334 -0.3398209 -0.46330848 0.08494249
000150 eb 33 10 be 0d db d3 3f f3 7b a8 be 5c f4 43 3f
       -0.14082305 1.6551224 -0.32907066 0.7654474
000160 39 cb 36 3e b1 69 cc 3e 37 13 f8 3d b2 ec 85 bf
       0.17850961 0.39924386 0.1211304 -1.0462859
000170 b7 3e 93 3d f5 62 78 be 0e bb e4 3f 52 d2 22 3e
       0.07189696 -0.24256499 1.7869585 0.15900543
000180 ba 0a 41 3f 7c 02 ac bd ca d1 8d be d8 4c e7 be
       0.7540699 -0.08398911 -0.2769912 -0.45175815
000190 8a b3 05 3f 04 1e 3e bd fa 10 0e 3c da de 97 be
       0.5222708 -0.046415344 0.00867104 -0.2966221
0001a0 a6 c4 ac bd 2b 17 ef 3f 17 c6 79 3f ad eb 00 bf
       -0.08435945 1.8678945 0.97567886 -0.5035961
0001b0 d7 75 f9 be 49 c9 bf bc b3 f9 53 3e cd f5 64 be
       -0.48722717 -0.02341141 0.20700721 -0.2235939
0001c0 fe ab 21 3e 2f 99 33 3f 1f a2 38 3e 57 90 7e 3e
       0.15788266 0.70155615 0.18030594 0.24859749
0001d0 4c fa a1 be 2d 46 30 be 6a 4a 51 3f ad 66 98 be
       -0.31636274 -0.1721427 0.8175417 -0.29765835
0001e0 15 24 16 3f bf d4 fb 3e cd ba 47 be 0c 0d 6f 3d
       0.58648807 0.4918575 -0.19504853 0.05836205
0001f0 dd 33 81 be 56 8b 83 3f 7d 84 8e 3e 80 ea 8b bd
       -0.2523488 1.0276897 0.27835456 -0.06831837
000200 ce 0b 36 3f 3b 0a 06 be 2a ad f4 be 54 b1 bf be
       0.7111176 -0.1308984 -0.47788364 -0.37439978
000210 85 67 81 be ca 65 ee 3d 16 9d d8 3d 5f 66 b3 be
       -0.25274292 0.116405085 0.10576837 -0.3503904
000220 ba 0b 03 be ed bf 40 be ba 15 b5 bd c6 ee 6c bf
       -0.12797442 -0.18823214 -0.08842035 -0.9255184
000230 c6 b7 bc 3c 00 a7 05 3f e1 d3 03 3f c6 42 d8 3e
       0.023036849 0.52207947 0.51495177 0.42238444
000240 5e f1 8f 3d 0b 2a 67 3b d8 3b fc 3e 4e 55 59 bd
       0.07028459 0.0035272862 0.49264407 -0.05305987
000250 2a a0 6d bf c9 59 2d 3f 52 8c 30 be 78 36 6e 3d
       -0.92822516 0.67715126 -0.17241028 0.058157414
000260 90 78 45 bf cf c3 44 3e e0 f4 d9 be f4 7f 5f 3f
       -0.7713709 0.1921532 -0.42569637 0.87304616
000270 bb 75 9b 3f 40 6b 92 3e c0 63 0e be 6e f1 18 3f
       1.2145303 0.2859745 -0.13905239 0.5974339
000280 d1 50 15 bf ab 6b ec be b3 de 9b 3d 05 2d 14 bc
       -0.5832644 -0.46175894 0.07610836 -0.009043937
000290 9a 61 85 be fd 47 b8 bf f5 90 8d be 45 4f 32 3f
       -0.26051027 -1.4396969 -0.27649656 0.69652206
0002a0 ad aa 04 be 1d 6d 30 be 19 bc 83 3d 70 2c 26 bf
       -0.12955733 -0.17229123 0.06432361 -0.64911556
0002b0 0a fd ed be b8 1f 3d be a8 a0 02 be 3d b7 b9 3e
       -0.46482116 -0.18469131 -0.12756598 0.36272612
0002c0 da b5 87 be f8 e0 83 3f 7b 34 35 be 7a 53 49 3f
       -0.2650593 1.030303 -0.17695801 0.78643
0002d0 0d 65 fd 3d e2 d9 6b 3d d7 22 8e 3f 8b 9a f5 3e
       0.123727895 0.057580836 1.1104382 0.4796947
0002e0 98 c5 ab 3e 05 8a a4 3e 0e c2 2e bd 20 2d 9b bf
       0.3354919 0.3213655 -0.042665534 -1.2123146
0002f0 20 b2 19 3f db 4a e1 3e fb 0d 62 3e 0b ac a7 bd
       0.6003742 0.44002423 0.22075646 -0.081871115
000300 a3 6a 10 bf af e0 14 be fd 45 a0 3f 3c 8b 13 bf
       -0.56412715 -0.14538835 1.2521359 -0.5763433
000310 78 ad da 3f 61 71 9b bd 2c ed 83 3e 84 73 9c bf
       1.7084188 -0.07589985 0.25766885 -1.2222753
000320 6c ec 86 3f e6 b8 c0 bd 9e c4 e2 3c ac 9b 4c be
       1.05409 -0.094102666 0.027681645 -0.19981259
000330 54 42 dd be 2f 54 5b bf 2f ec 18 bf 46 c4 99 3f
       -0.43214667 -0.8567533 -0.5973539 1.2013023
000340 c8 a8 0f 3f 58 3e ba 3e 76 7a 1d bf 9e b5 92 be
       0.56116915 0.3637569 -0.61514986 -0.28654188
000350 9b 7f 11 3f 13 be 01 3f 75 dd 85 3f af 8b 36 3e
       0.56835335 0.50680655 1.0458208 0.17826723
000360 b1 04 a7 3e 00 42 3e 3f 95 b7 13 3f 89 e7 3d be
       0.32620767 0.7431946 0.57702 -0.18545355
000370 69 65 ed be 42 e6 a7 3d a3 2c de be d9 de 13 3f
       -0.46366432 0.08198215 -0.4339343 0.57761914
000380 59 66 ee be 39 67 d7 bd a7 d2 b4 3e ec 1b 48 bf
       -0.4656246 -0.10517735 0.35316965 -0.78167605
000390 4b 71 d6 3d 8c fa 7c bf 8f f4 62 3f b9 8f 21 bd
       0.10470828 -0.98819804 0.88654417 -0.039443705
0003a0 6b 93 d9 bb 53 75 bc bf 65 be 7b be 2a b2 c4 bd
       -0.006639888 -1.4723305 -0.24584348 -0.096042946
0003b0 a4 ae e6 3d 30 6e 99 be 2a 35 0c 3f 65 d2 94 3e
       0.11263779 -0.2996688 0.5476862 0.29066768
0003c0 ea b1 dd be ce 52 e3 3e 5b e0 15 3d 20 85 7c be
       -0.432998 0.44399112 0.036590915 -0.24660158
0003d0 45 33 d7 3d da 15 4f bd 1d e8 94 3e 07 17 3f bd
       0.10507826 -0.05055795 0.29083338 -0.04665282
0003e0 86 91 68 3f 47 fc 7b 3f fc 3a 76 bf a0 3f 2f 3f
       0.9084705 0.9843182 -0.96183753 0.6845646
0003f0 12 b0 6c bf 22 e6 af bf 30 c2 ae bd a9 c6 ab be
       -0.9245616 -1.3742106 -0.08533132 -0.33550003

sequential_3/dense_24/MatMul;sequential_3/dense_24/BiasAdd f4 [168]
000000 ea e9 88 40 4e 3e 9d be f9 e6 bb 3f 20 9f b9 3e
       4.278554 -0.30711597 1.4679862 0.36254215
000010 e7 24 1e 3e d3 eb 05 40 db 2e 30 40 de f2 14 c0
       0.15443765 2.0925186 2.7528598 -2.3273234
000020 1d cd f6 3e 0e 8e 73 c0 2f 14 1b bf 3d b9 ee bf
       0.48203364 -3.8055453 -0.6057767 -1.865028
000030 0a ec 83 40 96 d3 77 bf ea 22 b1 c0 39 99 36 40
       4.1225634 -0.9680723 -5.535512 2.853102
000040 f0 d2 aa 3f ef 5b b6 40 00 95 00 c0 53 4e 2d 40
       1.3345623 5.6987224 -2.0090942 2.7079055
000050 ff 1d 38 40 3a 7c 26 40 2d e1 58 c0 a6 a2 01 40
       2.8768308 2.6013322 -3.3887436 2.0255523
000060 3e 2c 0a bf a8 7f 4d 3f 5a 19 7b 3f 01 e7 12 40
       -0.5397376 0.8027291 0.9808556 2.2953494
000070 e2 21 2a c0 76 2c 6e 40 bd 30 ad bf 55 61 93 3e
       -2.658318 3.7214637 -1.3530499 0.28785196
000080 ce 4e 54 3f 69 9d 5e bf 7d c9 b3 3c b9 1f 48 c0
       0.82932746 -0.8695894 0.021946663 -3.1269362
000090 bd 22 80 3e 43 16 20 c0 1d 16 0a 40 2a c2 7d 3f
       0.25026503 -2.5013587 2.1575997 0.99124396
0000a0 c6 42 ca c0 52 39 04 c0 e0 a2 fb 3f e1 3c 7d 40
       -6.320651 -2.0659986 1.965908 3.9568408
0000b0 c0 6a 9c 40 0c 2e 84 c0 83 bf ae c0 e4 c1 94 40
       4.888031 -4.130621 -5.460878 4.6486683
0000c0 70 0b 89 3e bc 3b 0b bf 16 7a 95 40 1a ec af c0
       0.2676654 -0.5438802 4.671153 -5.497571
0000d0 65 a1 ab 3e 86 23 31 40 c4 72 64 40 d4 1c 8d c0
       0.33521572 2.7677932 3.5695047 -4.409769
0000e0 f1 36 6a bf b5 fd 99 c0 72 06 96 c0 b9 8d c2 c0
       -0.91490084 -4.81222 -4.688287 -6.0798
0000f0 e9 81 ff c0 28 52 c1 bf 7c a7 4c 40 31 c4 07 40
       -7.984608 -1.5103197 3.1977224 2.1213496
000100 3f de 4b c0 52 7b c8 be 04 29 20 c0 fc 1a 38 c0
       -3.1854398 -0.39156586 -2.5025034 -2.876647
000110 ff 83 01 c1 2c 80 c6 bf 13 74 8f be d5 75 40 c0
       -8.094726 -1.5507865 -0.28018245 -3.007192
000120 fa 91 64 c0 18 ad 79 40 0e 6f 94 bf ce 7c b8 3f
       -3.5714097 3.9011898 -1.1596391 1.4413087
000130 7f f5 da 40 2d 37 4a 3f 7f c6 93 bf ba 0b 34 40
       6.842468 0.7899044 -1.1544951 2.8132157
000140 30 0d 07 c0 02 06 3d 40 b3 47 89 c0 14 0a 7a bf
       -2.11018 2.9534917 -4.2900023 -0.9767163
000150 a9 a7 07 c0 a3 ed b2 3f f8 3f ee 3e d2 c8 1f c0
       -2.1196082 1.3978771 0.4653318 -2.496632
000160 db 7e e3 bf 46 ae 26 40 d8 02 82 40 3e 68 02 bd
       -1.7773088 2.6043868 4.062847 -0.031837694
000170 ec b6 b8 c0 68 3a d9 3f 91 95 b6 c0 5f cd 2d c0
       -5.7723293 1.6970949 -5.7057576 -2.7156599
000180 a9 04 90 c0 b9 e7 7a c0 4d 73 0f 3f 1c 01 1a c0
       -4.500569 -3.9203932 0.5603531 -2.4063177
000190 45 38 95 40 6b 2a da 40 e3 32 8f c0 62 b1 f2 3f
       4.663119 6.817678 -4.4749618 1.8960383
0001a0 e4 bd 8c c0 42 b9 63 bf 0c 72 bc c0 45 34 85 c0
       -4.39818 -0.88954556 -5.8889217 -4.1626306
0001b0 63 46 ae 3e 25 7b 06 3f 58 95 0f bd f1 e4 18 40
       0.34038076 0.52531654 -0.035054535 2.3889735
0001c0 ec bc c8 be c6 db 9c 40 18 7c 9e 3f 30 a8 82 bf
       -0.39206636 4.901828 1.238162 -1.0207577
0001d0 0b e4 db 3e 98 f3 3b c0 62 f8 7e 40 8a 2b 08 c0
       0.4294742 -2.9367428 3.98391 -2.1276574
0001e0 9f 1e ef 3e 9c fb 62 c0 0b 40 dd bf af eb a1 c0
       0.4670305 -3.546607 -1.7285169 -5.06002
0001f0 b9 49 cf 3f 74 82 5e 3f 1a 7a bb be 4d 1d 7b 40
       1.6194373 0.86917806 -0.36616594 3.9236634
000200 24 b2 5a bf 39 cd 8f c0 e7 4d 96 3f 79 15 69 40
       -0.8542807 -4.4938016 1.1742524 3.6419356
000210 42 a7 39 c0 3f a0 45 c0 5e 5d 68 3f 99 7c 79 be
       -2.9008336 -3.0879056 0.9076747 -0.24363936
000220 04 51 c6 c0 57 dd 29 c0 b3 53 a2 bf a8 64 8c c0
       -6.1973896 -2.6541345 -1.2681793 -4.387287
000230 aa a7 de be 46 12 6c c0 a8 49 93 40 16 e2 27 3f
       -0.43487293 -3.6886153 4.6027412 0.65579355
000240 ba c2 f4 3e 87 15 f7 3e dd ed 69 40 51 31 8e c0
       0.47804815 0.48258612 3.655143 -4.44352
000250 38 b5 ac 3f eb 81 85 c0 26 97 34 40 5b 10 64 40
       1.3492804 -4.172109 2.8217254 3.5634983
000260 dd 27 76 40 96 5d 89 40 05 70 03 40 41 3d 3e 40
       3.846183 4.292674 2.0537121 2.9724886
000270 a2 12 d2 be 58 a8 20 c0 a4 3d f3 3d cf 7d 0c 40
       -0.4102984 -2.510275 0.118769914 2.1951787
000280 e7 20 53 c0 74 c9 26 40 2e 40 2d bf 26 59 91 bf
       -3.2988832 2.6060457 -0.67676055 -1.1355331
000290 8c f4 8d bf b0 c2 2a 40 74 d5 7b c0 c1 15 c7 40
       -1.1090255 2.6681328 -3.9349031 6.2214055

sequential_3/dense_23/MatMul;sequential_3/dense_23/BiasAdd f4 [128]
000000 21 a5 b9 3f db cb 7f bf 01 b2 d5 be 3c 62 49 3f
       1.4503518 -0.99920434 -0.4173737 0.7866552
000010 a6 32 7c 3f e7 d7 6e 3f 2e 16 26 3f 38 2f 7d 3e
       0.98514783 0.9329819 0.64877594 0.24725044
000020 b2 3e e5 be 05 d6 09 bf 41 b4 37 be e1 fa a8 3f
       -0.44774395 -0.5384219 -0.17939855 1.3201562
000030 ca 75 97 3f f4 5a 48 3f 0e 6b 5d 3f cb af 69 3f
       1.1832821 0.78263783 0.8649148 0.91283864
000040 17 6a c4 3e cb 60 50 3f 6b 01 bb 3e d0 80 dc 3e
       0.3836219 0.81397694 0.3652452 0.43067026
000050 3b c2 ca be c3 9f 28 3f f0 9f 18 3e 94 54 5a 3e
       -0.3960131 0.6586878 0.14904761 0.21321326
000060 92 2e 40 3f 04 8e a0 3d 5d 84 f3 3e 8b 3b 6a be
       0.7507106 0.07839587 0.47561923 -0.22874276
000070 18 b3 26 3f 70 69 a1 be 88 f3 8d 3f 0d 2d 0d 3f
       0.65117025 -0.31525755 1.1089945 0.5514687
000080 7f 8d 3d be 71 65 2d 3f cb 01 94 3c bf f9 79 be
       -0.18511008 0.6773291 0.018067261 -0.24411677
000090 8f 1d 54 3f 0f 3b 26 be aa 97 d8 be 4b 76 85 3e
       0.828576 -0.16233467 -0.4230321 0.26066813
0000a0 2e d7 eb 3e 70 c7 0d 3f 4c 27 c3 3e e7 88 dd 3f
       0.46062607 0.5538244 0.3811592 1.7307404
0000b0 20 4c 55 3f 8d f0 82 3e ed 79 03 3f 9f bb c6 3f
       0.8331928 0.2557415 0.5135792 1.5526007
0000c0 fb 71 ca 3f 33 ea 17 3e 07 6f 9c 3e 7d be 9c 3f
       1.5816034 0.14835434 0.30553457 1.2245632
0000d0 17 10 db 3e 1e ba 20 3f 59 28 4f 3e cd bf 11 3f
       0.42785713 0.6278399 0.20230235 0.5693329
0000e0 d6 3b 69 bf 3e a1 44 3f 75 12 26 be a9 17 a3 3e
       -0.9110693 0.76808536 -0.16217978 0.3185399
0000f0 06 c5 f5 3e b1 b1 7a 3e c0 e1 64 be 5a 9c de 3f
       0.4800188 0.24481846 -0.22351742 1.7391465
000100 4a 3e 6b bf ea da 85 3f 44 9a 3b 3f 65 28 2e bf
       -0.9189192 1.0457432 0.73282266 -0.6803039
000110 ce 31 3c 3f 58 cb 26 3c 9e 3e 73 3f 3b 65 45 3f
       0.73513496 0.010180317 0.9501742 0.7710759
000120 c2 38 ba 3f 9f ee 81 3e 67 36 c2 3e 37 74 8f 3f
       1.4548571 0.25377366 0.3793213 1.1207341
000130 a3 34 2c 3f 1e d3 51 3f 27 2b 35 3f 1a 22 62 be
       0.6726782 0.81962764 0.7076897 -0.22083321
000140 b6 e1 05 3f 7a d4 55 3e 07 c6 16 3f 73 25 ae 3e
       0.5229753 0.20881835 0.58895916 0.34012946
000150 8f 6a a9 3f fd 33 7d 3f c0 7d d6 3e d7 2c 65 3e
       1.3235644 0.9890745 0.41892815 0.22380386
000160 6c 72 07 3f 3d 05 ac be 51 94 3b be 33 3c bd 3e
       0.5290897 -0.33597746 -0.18318297 0.3695999
000170 12 4d 7f 3e ad be aa 3f 36 93 52 3e ee d1 64 3e
       0.24931744 1.333944 0.20563969 0.22345707
000180 c9 20 c3 3e 4f 84 42 3f 48 69 c8 3e 10 0b f5 3e
       0.3811095 0.75983137 0.39142823 0.47860003
000190 1c 36 db 3e 72 97 2a 3f dc 0d 2e 3f d3 8f 57 bf
       0.4281472 0.6663734 0.679899 -0.84203833
0001a0 95 e4 99 3f 3d 95 a8 3f 91 7c d3 3d db ce ba 3e
       1.2022883 1.3170544 0.103264935 0.36485943
0001b0 be 41 7b 3d 75 27 42 3f 14 15 be 3f 0a 59 d0 3e
       0.061341994 0.75841457 1.4850183 0.4069293
0001c0 0c 64 bc 3e 7f 93 12 be 83 15 c4 3e 45 79 a0 3f
       0.3679508 -0.14314078 0.38297662 1.2537009
0001d0 c2 de c0 3f 7b 85 d2 be 2e 0c a2 bf 02 6c 6d 3e
       1.506798 -0.41117463 -1.2659967 0.23185733
0001e0 68 05 89 3d 4b 1a db 3d 68 4e 21 be 0c 75 2d 3f
       0.06690484 0.10698374 -0.15752566 0.67756724
0001f0 08 64 45 bf 2d c0 d2 3e 22 60 f4 3d 7d 6c 34 be
       -0.7710576 0.41162243 0.119323984 -0.1761951

sequential_3/dense_21/MatMul;sequential_3/dense_21/BiasAdd f4 [48]
000000 f9 17 04 c0 9f 27 69 bf 17 f3 bd bf 52 d8 9a bf
       -2.0639632 -0.9107608 -1.483981 -1.2097266
000010 5a b7 d8 3e 5c 2c a9 be 94 25 11 bf 51 73 45 3f
       0.42327386 -0.33041656 -0.56697965 0.77129084
000020 97 8e ae 3f 49 e1 26 3f 8c 8b 5f 3e aa 98 b2 3f
       1.3637265 0.6518751 0.21830577 1.3952839
000030 cb fb bf be 49 15 8f 3e 94 e6 d0 3f 0f e3 e5 3f
       -0.3749679 0.27945927 1.6320367 1.7959918
000040 71 d4 a5 bf 31 d1 cc 3e 0f a0 77 3f 88 cd 70 bf
       -1.2955457 0.4000335 0.96728605 -0.94063616
000050 58 40 ec 3f d0 c1 88 3f be b1 16 3f 81 94 d2 bf
       1.8457136 1.0684147 0.58864963 -1.645157
000060 eb 19 14 be 76 c1 4d 3f a6 8c f9 3e db c8 12 3f
       -0.14463012 0.8037332 0.4874012 0.5733773
000070 b9 1b ff 3d d9 d6 44 3f 3b 55 b5 be c6 95 ae be
       0.124564596 0.7689033 -0.35416588 -0.34098643
000080 ce 9c 57 3f 8d cb 90 3f 00 14 51 3f 97 a3 af bf
       0.8422364 1.1312119 0.8167114 -1.3721799
000090 8a 1d 6e 3f 4a f8 70 3e cf 90 ea bc fc 08 b6 be
       0.93013823 0.23532215 -0.028633503 -0.3555373
0000a0 82 f2 23 3f 68 7c 8a bf ce fe 0e 40 82 57 45 bf
       0.6404191 -1.0819216 2.234302 -0.7708665
0000b0 b5 67 6a be 3f e8 9d 3e a0 77 24 40 c5 19 1c 40
       -0.22891124 0.30841252 2.5698013 2.4390728

sequential_3/dense_20/MatMul;sequential_3/dense_20/BiasAdd f4 [16]
000000 20 70 27 c1 25 6b c4 40 e3 09 c3 c0 51 e4 1f 41
       -10.464874 6.138079 -6.094957 9.993241
000010 08 20 57 c1 a3 7b fb 40 83 c1 38 3e 6f 87 8d c0
       -13.44532 7.8588424 0.18042569 -4.4227824
000020 cb 5a c7 bf f9 36 5a 40 ef 17 7b c0 6c 6b 05 c0
       -1.5574583 3.4096053 -3.9233358 -2.0846815
000030 2b 11 4f c0 fc f7 8e 40 40 29 af 3f 67 c5 30 40
       -3.2354228 4.4677715 1.3684464 2.7620485

sequential_3/dense_22/BiasAdd/ReadVariableOp/resource f4 [64]
000000 16 73 3c be b3 c2 96 bd f4 18 ce bb 29 34 b8 be
       -0.18403277 -0.07361355 -0.0062895957 -0.35977295
000010 9e a1 bc bd b4 63 31 bd ee 09 9d bd 2e 44 c0 3c
       -0.092105135 -0.043307975 -0.076679096 0.02347001
000020 86 6d 0b be be 83 a1 bd 3d bd 8c be 72 40 44 be
       -0.13615999 -0.07886456 -0.27488127 -0.19165209
000030 e0 06 3a be af a6 82 be fe 8c a6 be fa dc 58 be
       -0.18166685 -0.25517794 -0.32529444 -0.21178046
000040 3a dd 02 be 0c 33 83 be 4a 47 dd bd 4e f9 b8 bc
       -0.12779704 -0.25624883 -0.10804613 -0.022579815
000050 f8 00 a7 bd 11 5b f3 bd ee 35 85 bd a8 8f 7b bc
       -0.08154482 -0.11882604 -0.06504427 -0.015354075
000060 41 ee 41 3d 02 07 cf bd 0b e6 cd 3c 78 20 22 3c
       0.047346357 -0.101087585 0.025134107 0.0098954365
000070 e8 b1 4c be 06 74 72 bd 71 f4 db bd 0e b4 ef bd
       -0.19989741 -0.05919268 -0.10739983 -0.117042646
000080 7e 45 e5 bd 2e 05 27 3d 44 34 5a bd 97 ea b2 bd
       -0.11194895 0.040776424 -0.0532725 -0.08736151
000090 82 40 d0 bd 92 ae 5c bd 29 97 1a be 84 d7 8f bd
       -0.10168554 -0.05387742 -0.15096726 -0.07023528
0000a0 ad f4 1c be 83 25 96 3c a0 33 2d be 88 f1 9a bd
       -0.15327711 0.018328434 -0.16914225 -0.075656
0000b0 01 77 57 bd cf a6 1f bd 42 d6 23 3c a9 f3 94 bd
       -0.052603725 -0.03897744 0.0099998135 -0.07273037
0000c0 ca 60 76 be 12 c2 9a bd 46 84 b7 bd 92 b3 b5 bd
       -0.2406036 -0.07556547 -0.08960776 -0.08872141
0000d0 1d a9 a6 bd 2a 09 3c be 4d 67 86 bd 61 ee bf bd
       -0.081377245 -0.18362871 -0.06562672 -0.09371639
0000e0 d6 6b d2 3c 17 2a 71 be 7d ff f0 bc a1 01 f2 bd
       0.025686186 -0.23551212 -0.029418701 -0.11816717
0000f0 e9 66 96 bc b0 e8 92 3c 17 ac 16 bc aa 41 dc bd
       -0.018359618 0.01793322 -0.009196303 -0.10754712

sequential_3/dense_26/BiasAdd/ReadVariableOp/resource f4 [101]
000000 ac fb e9 bd 30 07 e5 bd 69 4b e0 bd c3 be e5 bd
       -0.11424956 -0.111830115 -0.10951883 -0.112180255
000010 a1 27 e3 bd 92 68 e6 bd d9 7c de bd b6 5e e5 bd
       -0.11091543 -0.11250414 -0.108636566 -0.11199705
000020 a9 06 e3 bd 4a ab e9 bd 78 70 e6 bd 0e 84 e8 bd
       -0.11085255 -0.11409624 -0.112519205 -0.113533124
000030 d6 a2 e6 bd d2 b0 e4 bd 86 88 f0 bd 1e fe e1 bd
       -0.11261527 -0.11166538 -0.1174479 -0.11034797
000040 47 22 48 be 74 08 e3 bd af 3b dc bd 4b 1f e4 bd
       -0.19544326 -0.11085597 -0.10753571 -0.11138781
000050 65 af 14 be e1 c4 fe be 57 f6 e8 bd 7b 7f 1a bc
       -0.14520033 -0.49759582 -0.113751106 -0.009429808
000060 75 c9 8d be 2c f3 e2 bd 67 af c0 bd 4d 2d ea bd
       -0.27692762 -0.110815376 -0.09408455 -0.11434422
000070 e1 bb e0 bd c6 fc 13 be b9 f0 ec bd da 18 0c 3e
       -0.10973335 -0.14451894 -0.11569352 0.13681355
000080 1c eb e8 bd f8 de 03 3e 48 50 61 3e 3f c9 c4 3d
       -0.113729686 0.12878025 0.22003281 0.09608697
000090 e0 0a 52 3e 58 61 eb bd 72 04 29 3e 47 80 37 bc
       0.20511961 -0.11493176 0.16505602 -0.011200017
0000a0 8a b0 19 be d2 fa 06 3e 95 79 df bd 21 8e ab 3d
       -0.1500875 0.13181618 -0.10911862 0.08376718
0000b0 b3 1b 4d be e9 d4 62 3e 01 25 28 3e 09 00 e8 bd
       -0.20030098 0.22151531 0.16420366 -0.11328132
0000c0 db 48 32 be 3a a1 cf bd d2 a4 7b 3e 5c ae 58 3e
       -0.17410605 -0.101381734 0.24574593 0.21160263
0000d0 b7 93 e2 bd 16 b8 0a bd c3 cd e4 bc 3a 5e 07 3e
       -0.110633306 -0.033866964 -0.027930146 0.13219538
0000e0 62 d5 50 3d 19 66 e3 bd cc 11 1e bd d1 36 14 bd
       0.050984748 -0.11103458 -0.03859119 -0.03618509
0000f0 57 6e b6 bd c4 ba 04 be 1c ed e5 bd 42 0b b6 be
       -0.089077644 -0.1296187 -0.11226866 -0.35555464
000100 91 80 e4 bd 0c 5c e8 bd dd e5 f0 bd 1b 18 3b be
       -0.111573346 -0.113456815 -0.11762593 -0.18270914
000110 76 91 e9 be a3 83 df bd b3 d6 29 bd db 7d e0 bd
       -0.4561879 -0.109137796 -0.04146452 -0.10961505
000120 f2 71 e6 bd 90 a0 e5 bd 3b ed 7b be 96 9a e7 bd
       -0.11252202 -0.112122655 -0.24602215 -0.11308782
000130 b6 9d e3 bd c1 80 e7 bd fc e1 81 be 4d a0 e4 bd
       -0.11114065 -0.11303855 -0.25367725 -0.111633874
000140 42 3d e5 bd fa e2 de bd ee 38 e5 bd f5 ee e4 bd
       -0.111933246 -0.10883136 -0.11192499 -0.1117839
000150 94 38 e1 bd 24 2d 24 be 45 55 ed bd 31 10 e6 bd
       -0.109971195 -0.16032845 -0.115885295 -0.11233557
000160 90 54 e6 bd 67 f6 e2 bd 76 32 eb bd 7f 88 e2 bd
       -0.11246598 -0.11082154 -0.11484234 -0.11061191
000170 0d e4 e6 bd 67 29 e8 bd 4d a5 ea bd 4a 22 e9 bd
       -0.11273966 -0.11336022 -0.1145731 -0.11383493
000180 bf 1a e3 bd 7b b4 e3 bd d8 42 e7 bd af d0 e0 bd
       -0.11089086 -0.11118408 -0.11292046 -0.10977303
000190 04 86 e5 bd
       -0.11207202

sequential_3/batch_normalization_14/batchnorm/mul f4 [7]
000000 51 89 8d 41 3c 61 70 41 41 97 d9 41 63 4e ce 41
       17.692049 15.023739 27.198854 25.788275
000010 d2 c6 e7 41 8e 4e e7 41 24 bf f2 41
       28.97208 28.913357 30.34333

sequential_3/batch_normalization_15/batchnorm/mul f4 [16]
000000 79 b6 20 41 d5 3b a3 40 59 53 a3 40 d8 16 e9 40
       10.044549 5.1010537 5.1039243 7.2840385
000010 e9 0e 29 41 5f 7e e9 40 f2 ce 23 41 46 0c 2f 41
       10.56614 7.296676 10.238024 10.940496
000020 e5 d4 2e 41 c5 62 0b 41 73 79 aa 40 a8 93 d5 40
       10.926976 8.711614 5.3273253 6.6742744
000030 b9 4b 06 41 b3 d0 19 41 f8 da 3d 41 45 60 a9 41
       8.393487 9.613452 11.865959 21.172007

sequential_3/batch_normalization_16/batchnorm/mul f4 [64]
000000 55 75 d7 3f b1 2b 56 3f 87 7a 9e 3f d5 fd 9f 3f
       1.6832682 0.8366042 1.2381142 1.2499338
000010 8e 94 8c 3f 06 1d 8c 3f fd 2a b0 3f 90 85 5a 3f
       1.0982835 1.0946357 1.3763119 0.8536005
000020 27 cc 8a 3f 01 5f 82 3f 61 34 af 3f 6c 78 8f 3f
       1.0843552 1.0185243 1.368786 1.1208625
000030 5a 34 9a 3f 16 b2 a5 3f 29 d5 8e 3f 8a cb 8b 3f
       1.2047226 1.2944973 1.1158801 1.092149
000040 70 d9 b1 3f 89 c4 93 3f 56 13 b5 3f fb 9f 56 3f
       1.3894482 1.1544353 1.4146526 0.8383786
000050 00 30 67 3f 47 0c d3 3f 85 de 7f 3f c0 c1 73 3f
       0.9030762 1.6488122 0.9994891 0.95217514
000060 83 98 77 3f 86 20 72 3f 19 ee 62 3f 10 e2 8c 3f
       0.9671709 0.94580877 0.8864456 1.1006489
000070 fa 5d 7b 3f e6 18 8b 3f 7f d2 ec 3f 41 38 69 3f
       0.9819027 1.0866973 1.8501738 0.9110146
000080 3a 7c 9b 3f d8 e3 97 3f f8 a7 83 3f cd 43 88 3f
       1.2147286 1.1866407 1.0285635 1.0645691
000090 20 a1 cb 3f 42 f5 87 3f e8 76 8d 3f 0f 0b 83 3f
       1.5908546 1.0621722 1.1051912 1.023775
0000a0 46 e8 ae 3f 4b 3f bb 3f 91 4e 8a 3f 08 be 63 3f
       1.3664634 1.462869 1.0805227 0.8896184
0000b0 5f 72 97 3f b0 06 a4 3f cb 89 e3 3f 08 16 ad 3f
       1.1831778 1.2814541 1.7776426 1.3522348
0000c0 7d da 74 3f 97 b3 97 3f b6 e1 8e 3f c8 eb 9a 3f
       0.95645887 1.1851681 1.1162632 1.2103205
0000d0 29 b2 9e 3f f7 04 bb 3f 02 7b 68 3f ce 24 81 3f
       1.239812 1.461089 0.90812695 1.0089357
0000e0 ed 76 aa 3f 44 99 af 3f 88 f2 a6 3f 23 b1 88 3f
       1.3317543 1.3718648 1.3042765 1.0679058
0000f0 4a e8 84 3f d6 c3 63 3f dc 0e 9f 3f 1f d5 aa 3f
       1.0383389 0.88970697 1.242641 1.3346289

sequential_3/batch_normalization_17/batchnorm/mul f4 [128]
000000 82 20 dd 3e 06 09 13 3f 63 d3 ee 3e 41 d1 c4 3e
       0.43188864 0.57435644 0.4664565 0.38440898
000010 b2 0a d2 3e de c6 ea 3e 88 39 00 3f ab 0f b4 3e
       0.41023785 0.4585485 0.50087786 0.35168204
000020 45 d8 c3 3e b7 f4 17 3f 7b 52 db 3e b8 27 de 3e
       0.38250938 0.5935778 0.42836365 0.43389678
000030 4c 9b ba 3e 19 40 b5 3e 31 74 18 3f f2 e6 bd 3e
       0.36446607 0.35400465 0.59552294 0.3709026
000040 9a 7a 1f 3f 8e cb b8 3e c0 3d 08 3f dc fc e3 3e
       0.6229645 0.360928 0.53219223 0.44528854
000050 ad 3e fb 3e 64 6a ef 3e d9 c3 b5 3e 25 5c c6 3e
       0.49071255 0.46760857 0.35500982 0.38742176
000060 42 db d9 3e 96 be b7 3e ff 19 d8 3e 01 4b 0f 3f
       0.42550093 0.35887593 0.42207333 0.5597382
000070 02 21 df 3e 98 57 d6 3e de d9 e3 3e ab 08 dc 3e
       0.4357987 0.41863704 0.44502157 0.42975363
000080 54 d2 e5 3e 39 a7 d9 3e 95 9f fc 3e 23 46 f1 3e
       0.4488703 0.42510393 0.493405 0.47123823
000090 33 4f b4 3e d4 fa d0 3e 79 5d c9 3e eb af b5 3e
       0.35216674 0.40816367 0.39329126 0.35485777
0000a0 e9 39 d3 3e 29 cf f4 3e 29 bb c2 3e f4 c9 cd 3e
       0.4125512 0.478143 0.38033417 0.4019314
0000b0 db 91 b8 3e fb 7d fa 3e 89 a3 a8 3e 03 08 e4 3e
       0.3604878 0.4892424 0.32937267 0.44537362
0000c0 3b b8 05 3f 4b e9 9f 3e 1a 77 02 3f a6 ec df 3e
       0.5223424 0.31232676 0.50962985 0.43735236
0000d0 ae 48 ec 3e 65 e8 bb 3e ff 5c 19 3f 3e 1c df 3e
       0.461492 0.3670074 0.59907526 0.43576235
0000e0 0a 78 f9 3e 16 4e d1 3e 80 8a d6 3e cb 58 a9 3e
       0.48724395 0.40879887 0.41902542 0.33075556
0000f0 50 dd 06 3f 16 19 b2 3e 36 3f d1 3e 23 3f f1 3e
       0.52681446 0.34784764 0.4086854 0.47118482
000100 ed 71 18 3f b2 a9 f8 3e cd 84 e9 3e d5 fe d9 3e
       0.59548837 0.48566967 0.4560913 0.42577234
000110 68 06 02 3f 01 21 f7 3e 5f 98 c6 3e c3 7c c2 3e
       0.50791025 0.48267367 0.38788125 0.3798581
000120 09 2a 04 3f d9 bb dd 3e 56 26 ee 3e cd 1d bf 3e
       0.5162664 0.4330738 0.46513623 0.37327424
000130 b6 cd d6 3e 76 bc e3 3e 58 76 19 3f bc cb dd 3e
       0.4195382 0.44479722 0.59946203 0.433195
000140 b3 00 c4 3e a1 c1 d2 3e 2d fd de 3e 91 5e cf 3e
       0.38281783 0.41163352 0.43552533 0.40501836
000150 9c d5 f8 3e 6c 4d e2 3e 12 8a 01 3f 6d 34 0a 3f
       0.4860047 0.44199693 0.50601304 0.53986245
000160 92 ca b5 3e 7b 76 ba 3e 85 04 c0 3e 5d c2 d8 3e
       0.3550611 0.36418518 0.37503448 0.42335787
000170 c0 61 c2 3e ae 8b e1 3e af bb 05 3f 03 77 b2 3e
       0.37965202 0.4405188 0.5223951 0.34856424
000180 d8 9e c5 3e 42 f3 05 3f b7 5f b4 3e 55 c2 df 3e
       0.3859775 0.52324307 0.35229275 0.4370295
000190 c0 0a d3 3e f3 49 b8 3e 60 7c e5 3e f1 3a ea 3e
       0.4121914 0.3599392 0.44821453 0.45748094
0001a0 96 21 fa 3e 1f 20 d2 3e 00 ba ea 3e 1d 29 b0 3e
       0.4885375 0.4104013 0.45845032 0.34406367
0001b0 3e 9a 04 3f 35 ea fc 3e 5d 39 d5 3e 26 28 eb 3e
       0.51797855 0.49397436 0.41645327 0.45929068
0001c0 6e e6 e4 3e 9a 0c ab 3e 17 a5 0c 3f ad 4b f9 3e
       0.44707054 0.33408052 0.5493941 0.4869055
0001d0 43 96 f0 3e 5e 5a ff 3e 84 30 06 3f aa 27 94 3e
       0.4698964 0.49873632 0.5241778 0.2893651
0001e0 62 e4 de 3e 69 69 e3 3e 26 00 04 3f bb ff b1 3e
       0.43533617 0.4441636 0.51562726 0.3476542
0001f0 9c 93 1a 3f b5 f3 0f 3f e0 63 e0 3e 6a 96 9b 3e
       0.60381484 0.5623124 0.438262 0.30388194

sequential_3/batch_normalization_18/batchnorm/mul f4 [168]
000000 c1 9b 28 3e db eb 5b 3e d7 1b b9 3d e9 99 2d 3e
       0.16465665 0.2147669 0.09038513 0.16953243
000010 96 35 40 3e 32 6f e2 3d eb ee 09 3e 6d 39 88 3d
       0.18770441 0.11056365 0.13470046 0.06651578
000020 32 d7 04 3e 0f 8f eb 3d 3a 03 cc 3d d7 ea 85 3d
       0.12972715 0.11501896 0.09961553 0.06538933
000030 32 03 20 3e 81 1b 51 3d f9 a0 1a 3e eb ef 09 3e
       0.15626219 0.05105162 0.15100469 0.13470428
000040 c9 81 1c 3e f0 a0 c9 3d 02 a1 ce 3d f6 3b 00 3e
       0.15283884 0.098451495 0.100893036 0.12522873
000050 88 46 14 3e 87 8a 11 3e ad dc bf 3d 9c fd 11 3e
       0.1448003 0.14213 0.093682624 0.142569
000060 31 bd 85 3d f2 8b f8 3d 38 ff 7e 3d f5 41 2b 3e
       0.06530226 0.121360675 0.062255114 0.1672438
000070 3f d1 f5 3d 2e bc 03 3e bd 1b c3 3d 48 81 87 3d
       0.12002801 0.12864754 0.09526775 0.06616455
000080 76 39 b3 3d ba 3e a2 3d 8a da 07 3e 00 f8 e3 3d
       0.08751194 0.079221204 0.1326696 0.111312866
000090 b8 27 97 3d 26 0e b8 3d a0 b0 0b 3e 18 ae 11 3e
       0.073806226 0.089870736 0.13641596 0.14226568
0000a0 d9 99 03 3e 71 8d 15 3e 50 94 fd 3d a9 6e f5 3d
       0.12851657 0.14604737 0.12381804 0.119839974
0000b0 ff 62 7a 3e c9 eb eb 3d 95 82 a8 3d 1b 3f c6 3d
       0.24451827 0.11519582 0.082280315 0.09680005
0000c0 61 81 88 3d b7 85 03 3e ec 19 77 3e 5f c9 23 3e
       0.06665302 0.12843977 0.24130982 0.15994786
0000d0 a8 34 dd 3d f6 d4 b9 3d 9d 6f b8 3d 70 c9 b3 3d
       0.10801059 0.09073822 0.090056635 0.087786555
0000e0 60 fe 89 3d e8 b5 03 3e d1 e0 8a 3d 7c 6d 34 3e
       0.06737971 0.1286236 0.067811616 0.1761989
0000f0 fa 21 ec 3d 0e 18 fd 3d 47 c1 93 3d 7c 4f 09 3e
       0.11529918 0.12358104 0.07214599 0.13409227
000100 dd bc d1 3d 5a 92 1e 3e 47 f8 18 3e 8d 29 c3 3d
       0.10241101 0.15485516 0.1493846 0.095294096
000110 e2 7f 00 3e c4 c8 b9 3d c8 b5 e1 3d 28 f3 d8 3d
       0.12548783 0.09071496 0.11021 0.105932534
000120 cb c5 cd 3d 20 43 7e 3e fa f5 10 3e a6 71 03 3e
       0.10047492 0.24830294 0.14156333 0.12836322
000130 7c 75 2b 3e ae 46 2e 3e 9d e8 d1 3d f2 bc 8a 3e
       0.16744035 0.1701915 0.102494456 0.2709728
000140 0b f9 85 3d 55 95 6c 3d 12 94 b0 3d 47 71 1a 3e
       0.06541642 0.0577596 0.08621992 0.15082274
000150 31 ea af 3d 6e 90 21 3e 9a c2 b6 3d d4 09 fb 3d
       0.0858959 0.15777752 0.08923836 0.12257734
000160 cb 20 e7 3d f9 c0 92 3d 95 87 55 3e 53 5b 1c 3e
       0.11285552 0.07165713 0.20852502 0.15269212
000170 d0 a9 27 3e 62 71 12 3e d0 b2 c9 3d 5d 9a 1d 3e
       0.16373372 0.14301065 0.09848559 0.15390916
000180 3c 58 fe 3d 90 bb 11 3e 59 20 d8 3d f1 f4 ab 3d
       0.12419173 0.14231706 0.10553045 0.08396328
000190 e3 4c 62 3e 2a 02 58 3e 8d 7e a7 3d 8c f8 6b 3e
       0.22099642 0.21094576 0.081784345 0.23044032
0001a0 75 30 df 3d df f8 20 3e d5 97 2c 3e 63 59 07 3d
       0.10897914 0.15719937 0.16854794 0.03304423
0001b0 fe 26 2d 3e c7 df be 3d bf fa 65 3d 0a d8 3f 3e
       0.16909406 0.09320026 0.056147333 0.18734756
0001c0 bf ef 0c 3e a6 5c 59 3e cb 13 b3 3d 8a 46 bf 3d
       0.13763331 0.21226749 0.087440096 0.09339626
0001d0 22 86 b4 3d 05 e5 b9 3d 28 55 f3 3d 86 4f cb 3d
       0.08814646 0.09076885 0.11881477 0.09927277
0001e0 97 cb 5b 3d 0e 21 11 3e c3 76 f7 3d ac eb 19 3e
       0.053660955 0.14172766 0.12083199 0.15031308
0001f0 7d f3 da 3d dc 19 f8 3d 6e 40 b9 3d f5 36 2c 3e
       0.10690973 0.12114307 0.09045492 0.1681784
000200 e7 86 af 3d 3f b0 4b 3e 98 71 11 3e 00 f6 d9 3d
       0.085706525 0.19891451 0.14203489 0.10642624
000210 1b 3f c6 3d 6b 18 df 3d 73 35 ad 3d 9e a2 34 3e
       0.09680005 0.10893329 0.0845746 0.17640159
000220 b7 0c 07 3e 67 a6 bc 3d 13 5e de 3d 44 9b b1 3d
       0.13188444 0.09211426 0.10857787 0.08672193
000230 5f df 96 3d 3c 67 25 3d e0 9f d1 3d d8 ba b5 3d
       0.073668234 0.040381655 0.10235572 0.08873528
000240 36 71 85 3e 55 27 fa 3d ba 54 82 3e 6c 2c 03 3e
       0.26062936 0.12214533 0.25455266 0.12809914
000250 22 6c ed 3d ed 91 e1 3d b7 88 94 3d 6b 20 c9 3d
       0.1159289 0.11014161 0.07252639 0.09820636
000260 d0 e4 b1 3d f1 91 16 3e 34 e4 d0 3d 4b 05 77 3e
       0.08686221 0.1470411 0.10199776 0.24123113
000270 fc 20 cb 3d 8c 6f 17 3e c3 b9 da 3d 51 36 69 3e
       0.09918401 0.14788646 0.106799625 0.22774626
000280 45 94 0a 3e 4f 3c e4 3d d2 33 f6 3d ea 01 bd 3d
       0.13533123 0.111443155 0.12021603 0.09228881
000290 bf f7 b2 3d b5 83 17 3e 67 ba 90 3d 27 5b 30 3e
       0.0873866 0.14796336 0.070668034 0.17222272

sequential_3/dense_20/MatMul f4 [16, 7]
000000 8f a2 55 be 66 c5 d4 3c 4b 3c 80 3e c7 27 0f 3e
       -0.20862792 0.025973033 0.25046 0.13980018
000010 85 f6 34 3e a7 8d b9 bd d8 4e 51 3d 50 8a b5 3c
       0.17672165 -0.09060221 0.051100582 0.02216068
000020 ca ea 7c 3e 64 89 c6 3d 06 33 00 be 40 c4 6a bd
       0.2469894 0.09694174 -0.12519464 -0.057316065
000030 1c 76 22 be 40 0a c6 bd 46 7c 0f 3f 7d b1 a0 bd
       -0.15865368 -0.09669924 0.56049 -0.07846353
000040 18 bb 1e be 6f 36 94 3d 6c 18 13 be 9d 40 86 3b
       -0.15501058 0.07236945 -0.14364785 0.004097058
000050 98 65 0b 3e 14 6e d7 3d 8f 5d b2 be c5 dd 8f be
       0.13612974 0.105190426 -0.34837005 -0.28098884
000060 60 ed e4 bd 4e 1f a5 3d e8 a1 9a bd ca 74 8d 3d
       -0.11178088 0.080626115 -0.075504124 0.06907041
000070 b1 db 58 be 6d aa 90 3d 9b d0 d1 bd 41 2a c4 bd
       -0.21177556 0.07063756 -0.102448665 -0.09578372
000080 f0 d6 bf 3e 22 8f cd 3c 61 48 b6 3e e4 21 0e be
       0.37468672 0.025092665 0.35602096 -0.13880116
000090 59 40 76 3c 32 39 77 3e 7f 15 31 3e 03 55 71 be
       0.01502999 0.24142912 0.17293356 -0.23567586
0000a0 9c 10 ec 3d 2e 86 e8 be 6a 2a 15 be cb d7 97 3e
       0.115266055 -0.4541487 -0.14566961 0.29656824
0000b0 36 8a cd bd f3 47 d0 3d 63 d3 ef 39 2f ed 5f be
       -0.10036127 0.10169973 0.00045743128 -0.21867822
0000c0 58 f3 24 3e 2b f0 f2 3d bd cb 5a be 48 ef 50 3e
       0.16108453 0.11862215 -0.21366782 0.20403779
0000d0 7e 93 e3 bd bf 5c 3d 3d a7 50 87 3e f8 fa 3d be
       -0.11112116 0.046231028 0.2642872 -0.18552768
0000e0 1d a5 5d 3e a4 de 1b 3e 13 9b cb be f4 16 11 bd
       0.21645017 0.1522165 -0.3976675 -0.03542228
0000f0 d3 8e 75 3e be 84 ff 3d 1c c8 d1 bd a3 9f 04 3b
       0.23980264 0.124764904 -0.10243246 0.0020236752
000100 34 67 d8 bd 7a 00 ec 3c ef 4b f2 3d 33 a0 15 be
       -0.105665594 0.028808821 0.118308894 -0.14611892
000110 19 cf d4 be be 9f a8 3e 06 7f de 3e c9 1b c0 3d
       -0.41564253 0.32934374 0.43456286 0.093802996
000120 9a 3a a3 3d ed e1 88 3d 3a 77 03 be fb 19 ea bd
       0.07970162 0.06683717 -0.1283845 -0.11430737
000130 b6 39 75 bd 40 39 8a 3e 70 c2 ad bd 18 71 9c 3e
       -0.05986949 0.26996803 -0.08484352 0.30555034
000140 2f 3e 18 be c9 7e 48 bd 93 c0 e1 bc a6 00 eb bd
       -0.14867471 -0.048949037 -0.027557647 -0.11474733
000150 93 e8 a8 3d b6 21 57 be f0 6f db 3d d7 ba be 3e
       0.08247485 -0.21008953 0.1071471 0.37251922
000160 d1 82 1a bc fc 44 74 be a2 19 5e bc 1d 66 f3 bd
       -0.009430603 -0.2385444 -0.013555916 -0.11884711
000170 b1 72 c6 3d f9 fd 8a 3e c5 ba 0b be 8b 65 59 be
       0.096898444 0.2714689 -0.13645466 -0.21230142
000180 69 04 7f bd 4a 71 81 3c e6 d4 d3 bd fc 6e 82 3d
       -0.062260065 0.01580109 -0.103433415 0.06368825
000190 e2 87 3e 3d 14 a0 66 3a d2 d0 b2 3e 01 9e 5e be
       0.046516307 0.0008797657 0.34924942 -0.21739961
0001a0 38 b1 3b be 63 12 29 3e 22 54 3a bd 5a 7f c8 bd
       -0.18329322 0.1651092 -0.04549039 -0.097899154
0001b0 7b 29 91 be c4 d3 74 be 95 29 da 3d 7e bd 90 3e
       -0.2835196 -0.23908907 0.106524624 0.2826957

sequential_3/dense_21/MatMul f4 [48, 16]
000000 35 a3 7c bd b4 08 55 3e 52 94 69 be 2b c7 0c be
       -0.061679084 0.20804101 -0.22810486 -0.13747852
000010 62 b1 2c be 18 b1 8b 3e d5 6b cc 3c df 98 50 bd
       -0.16864541 0.2728355 0.024953762 -0.05092704
000020 81 c9 17 3c 34 75 f1 bc 69 ed c7 bc 37 61 1b bc
       0.009264351 -0.029474832 -0.024405198 -0.009483627
000030 63 ca ce 3d 19 1c 82 3d 26 b6 de 3d 9c 7e 15 be
       0.10097196 0.063530155 0.10874586 -0.14599079
000040 d2 94 fa 3b 88 ff 66 3b 5e 93 58 3d 75 17 5e 3e
       0.0076471353 0.0035247523 0.052874915 0.21688636
000050 a6 9e 1d 3d 0f e3 18 3e fc 64 c8 bd 69 3b 42 3e
       0.038481377 0.14930366 -0.09784886 0.18967976
000060 d2 b3 15 3d 45 37 d7 3c b8 41 b1 3e b2 5f 51 3e
       0.036548443 0.026271472 0.34620452 0.20446661
000070 89 97 07 3e 00 08 b1 bd e1 2b 76 3e b9 e3 9a be
       0.132414 -0.08644104 0.24040176 -0.30251864
000080 44 77 36 3e 3f 65 97 bc ae 28 f8 bd e6 c5 97 bd
       0.17818934 -0.018480895 -0.12117134 -0.07410793
000090 a9 a3 d4 3d 6e 01 22 3d 9c e9 c3 bd de 4f c0 3e
       0.10382778 0.039552145 -0.09566042 0.37560934
0000a0 f4 af 7f be c4 b4 0c be a3 40 10 3e 4a 74 3a 3e
       -0.24969465 -0.13740832 0.14087157 0.18208423
0000b0 0b 8b 0f 3e f2 2a 61 3d 73 0e 6c 3e 9d 0c a8 be
       0.14017884 0.054972596 0.23052387 -0.32822123
0000c0 8e 70 19 3e 2b b3 05 3e b7 23 85 3d 1c 91 b0 3e
       0.14984342 0.13056628 0.06500953 0.3448571
0000d0 a5 f1 93 3d fc 9e 53 3e 92 d0 37 3e 48 02 1d be
       0.072238244 0.20666116 0.17950657 -0.15332901
0000e0 06 e3 18 3e f0 89 91 3e 6f 32 f2 3e 46 41 24 3e
       0.14930353 0.2842555 0.47304103 0.16040525
0000f0 02 cc c9 bc bc a1 ab 3d 1b da 2c 3e 01 f4 c2 bd
       -0.024633411 0.08380458 0.16880076 -0.09519196
000100 1e 6a 23 be 75 0c fd bd dd 9f c4 3e 13 a1 8c 3e
       -0.15958449 -0.123558916 0.38403216 0.2746664
000110 79 d9 f7 bc 37 87 24 3d 7c b6 1e be 77 9f d4 3d
       -0.030255066 0.040168013 -0.154993 0.10381978
000120 ac 2a 8b 3e ff 0a 29 3e f5 90 f8 3e c0 e7 a0 3e
       0.27180994 0.16508101 0.48548093 0.3142681
000130 d1 09 0d 3e 7e 02 70 be 64 4e 8d 3d f0 ed 6e bd
       0.13773276 -0.2343845 0.068997175 -0.058332384
000140 26 08 04 3e c6 62 03 bd 5d fc 96 be 9f 69 a6 be
       0.12893733 -0.03207662 -0.29489413 -0.32502457
000150 45 c3 dd 3d b7 ee 8b 3d 7e d1 40 be 13 e2 04 3f
       0.1082826 0.068326406 -0.18829915 0.5190746
000160 2e 03 bc be 26 59 aa be bd 56 84 bd ea 67 7e 3e
       -0.36721176 -0.3327114 -0.064618565 0.24844328
000170 79 30 6e be 86 01 34 3e 24 fb 96 be 20 35 21 3d
       -0.23260678 0.17578706 -0.2948848 0.039357305
000180 78 45 4b 3d b8 4b 62 3d f7 b2 41 3e c0 95 f7 3b
       0.049626797 0.055247992 0.18915926 0.0075556934
000190 4a 40 20 bd 9c 9a e5 bd 62 1b 67 bd d7 91 7f 3e
       -0.03912381 -0.1121113 -0.0564226 0.24957977
0001a0 07 4f c4 bd 1d 9a fc 3c 62 af 81 3e a7 21 9a 3e
       -0.09585386 0.030835206 0.2532912 0.301038
0001b0 c6 9d c3 bd e5 01 e0 3d 46 1e 19 bd 6d e9 13 bd
       -0.09551577 0.10937861 -0.037382387 -0.036111284
0001c0 5a d4 ef bc 86 a5 33 be ac e7 03 3e 9d e4 19 3e
       -0.029276062 -0.17543611 0.12881345 0.15028615
0001d0 8c 8e eb bc dd 71 b4 bd 52 da dd 3d d6 82 e6 bd
       -0.028754495 -0.0881078 0.10832657 -0.11255424
0001e0 76 70 ac 3c 8f a4 22 3e db 09 84 3e 30 47 41 3e
       0.02104972 0.15883087 0.2578877 0.18874812
0001f0 e1 c1 07 3e 9c a0 51 be e8 0a 3e be bb f9 2b be
       0.13257553 -0.20471424 -0.18558848 -0.16794483
000200 86 f0 37 3e 96 6b 36 be c7 70 80 be 7a 49 60 bd
       0.17962846 -0.17814478 -0.25086042 -0.054757573
000210 00 7a b9 3e d9 24 2c be 8d da 92 3c 4a e2 6b bd
       0.3622589 -0.16810931 0.017926479 -0.057588853
000220 a5 7b 7c 3d dd e7 3c 3d 2f 2f bd bd df 21 8c bd
       0.061641354 0.04611956 -0.09237515 -0.06842398
000230 d5 cd e1 bd cd a7 c4 bd c7 f5 43 3e 20 16 d4 bd
       -0.110255875 -0.09602318 0.19136725 -0.103557825
000240 30 1d b8 3d d6 fe 4a be f7 0a 38 be ba 5c ff 3c
       0.08989942 -0.19823775 -0.17972933 0.031172145
000250 2e ef c0 3d 9a 8d 43 3d 77 de 88 be c7 f5 8c 3e
       0.0942062 0.047742464 -0.26732227 0.27531263
000260 bc 49 11 be ba 79 1d be b6 7e c7 3c 4a 50 b6 3d
       -0.14188284 -0.15378466 0.024352413 0.08902033
000270 79 9e 26 3e 13 93 a1 bd 5f ea de 3d db 07 8e be
       0.1627139 -0.0788938 0.108845465 -0.27740368
000280 b1 64 af 3d 4f 78 fe 3c 61 da af bd 03 04 15 3e
       0.08564127 0.031063227 -0.08586574 0.14552312
000290 59 3e 0d bd c4 40 8f 3e 1f 4c d6 bd e7 44 07 be
       -0.034483287 0.279791 -0.10463738 -0.13209878
0002a0 0d 99 b5 bd c1 fb d3 bd c8 12 86 bd 63 0e 5f bd
       -0.08867083 -0.103507526 -0.06546551 -0.05445708
0002b0 9a 78 2f be 65 69 f9 3c 28 8e d7 3d a5 89 8b be
       -0.1713585 0.030445764 0.10525161 -0.27253452
0002c0 cc 8c 3b 3d 7b 52 b0 bc 72 1b 40 be ac 3e 93 be
       0.04578857 -0.021523705 -0.1876047 -0.28758752
0002d0 d3 73 45 3e 4d a9 89 be 95 46 83 3d 4e e0 69 3c
       0.19282465 -0.2688698 0.06409947 0.01427467
0002e0 f3 f0 69 3e ab 64 9c be 84 d0 27 be ca ee 2a be
       0.22845821 -0.30545554 -0.16388136 -0.16692653
0002f0 d0 8b 7b be 5b b1 28 be 20 56 bb 3d 27 4d 92 be
       -0.24565053 -0.16473906 0.091472864 -0.28574488
000300 2a cf 12 3e 9c f8 16 3d 75 8b 5c 3d d3 93 4b 3e
       0.1433684 0.036858186 0.053843934 0.19880609
000310 b3 4e 47 be ca cf 86 3e 40 6a 85 be 76 d9 a1 3d
       -0.19463615 0.26330405 -0.26057625 0.079028055
000320 54 60 9e be 59 a8 dd bc 43 f4 0f 3e 60 df 2e 3e
       -0.30932868 -0.027057813 0.14058022 0.17077398
000330 5a 85 bf bd e5 f9 81 3e 92 6a 5b bd cb 42 91 bc
       -0.09351607 0.25385967 -0.05356843 -0.017732045
000340 e5 5a 9e bc d0 79 89 bd de c5 25 3d 60 c7 e7 3d
       -0.019330451 -0.06712687 0.040471904 0.11317325
000350 32 1e d8 bd 9f ac be 3c 4b 47 86 be f0 56 ee 3d
       -0.10552634 0.023275672 -0.26226267 0.11637676
000360 78 18 25 be 42 bc b3 3e de b6 44 be f4 7e 6b bd
       -0.16122615 0.35104567 -0.19210383 -0.05749412
000370 70 90 2f 3e 55 1e 0c 3e d4 e0 9c be be 89 05 3f
       0.17144942 0.13683446 -0.3064028 0.521633
000380 7a da 87 3d a3 3e 3a be e1 46 9a 3d 59 65 d5 3e
       0.06633468 -0.18187957 0.0753305 0.41678885
000390 99 f5 4c 3e 29 33 ab 3e 48 29 0e be 76 cd 1a 3c
       0.20015563 0.3343747 -0.13882935 0.0094484
0003a0 e1 4e af 3a d1 ec 04 be 33 c0 1d be 66 74 e2 bc
       0.0013374948 -0.12980963 -0.1540535 -0.027643394
0003b0 91 d0 e5 be 6a b1 f9 3b 94 ed b5 bd 6f bf 0c 3e
       -0.44885686 0.0076200264 -0.08883205 0.13744901
0003c0 50 0a 09 3e fc 54 dc be 7d ae a3 bc 2d ec 7f 3b
       0.1338284 -0.43033588 -0.019980663 0.0039050684
0003d0 e0 9f 19 3e 10 62 ba ba 38 31 01 be 7c 40 f2 3d
       0.15002394 -0.0014219899 -0.12616432 0.11828706
0003e0 40 94 84 3c 58 c4 63 3e b7 e5 12 be 20 be e7 bc
       0.016183972 0.22242868 -0.14345442 -0.0282889
0003f0 4e 4f 96 3e 0e 2c 9c be ad f6 51 be f0 aa ab 3d
       0.2935738 -0.3050236 -0.20504256 0.08382213

sequential_3/dense_22/MatMul f4 [64, 48]
000000 96 46 56 bd c5 35 c9 3d 61 2e d0 bd 57 e1 45 be
       -0.05231341 0.09824709 -0.10165096 -0.19324242
000010 3d ab be 3d d6 d7 63 be ea 1d 19 be 25 24 a3 bc
       0.09310005 -0.22250304 -0.14952818 -0.019914696
000020 bc 31 10 bc e4 cf 52 be b7 ce 6d bd 50 2f 40 be
       -0.00880092 -0.20587116 -0.058058467 -0.18768048
000030 58 2f 24 bc 33 10 6a 3c 3c b4 d9 3e 13 34 35 be
       -0.010021053 0.014286089 0.4252032 -0.17695646
000040 5d 6c ed bd ec 18 4c be de fb 33 3d d6 fd 63 3d
       -0.11592934 -0.19931382 0.04394137 0.055662
000050 ee 67 60 3d ab 1a 01 3f 4e ad 3b be dd 7f 63 be
       0.054786615 0.5043132 -0.18327829 -0.22216745
000060 2b 58 f4 3d 99 68 13 be 5d 66 4b 3e 4e 14 77 bd
       0.11930879 -0.1439537 0.19863267 -0.0603221
000070 40 2b 84 bd 8c 8d 06 3c 9a 3d 66 be a9 c5 10 be
       -0.06453562 0.008212458 -0.22484437 -0.14137901
000080 c3 9a 0c be 09 4b 1b be 4c 70 af be d0 ef 4b 3d
       -0.13730912 -0.15165342 -0.34265363 0.04978925
000090 15 94 9b be 0c 78 fd bd 7e df 75 be 73 49 73 be
       -0.30386415 -0.12376413 -0.24011037 -0.23758487
0000a0 fd 9e 8f 3d 4a ef bc 3d 71 10 f1 bd cc 39 8e be
       0.070127465 0.09225328 -0.11770714 -0.2777847
0000b0 33 52 54 3d 9d 26 93 bc 78 84 23 3d a2 43 3d 3e
       0.051836204 -0.017962748 0.039921254 0.18482831
0000c0 22 fb 48 3e bf fe 5f be cc f3 5f be 9d 15 38 be
       0.1962705 -0.21874522 -0.21870345 -0.17976995
0000d0 5f 16 a0 be 59 fc ee bd d4 91 71 3d 4b ff 54 be
       -0.31267068 -0.11669225 0.058976963 -0.20800512
0000e0 3a c8 80 be 55 8d 9d be 35 2d 8f 3e 5b d5 02 bd
       -0.2515276 -0.3077189 0.27964178 -0.031941753
0000f0 59 16 83 3e fd 4a 8d be f6 7b ae bd af 2b 03 bf
       0.25602987 -0.27596274 -0.085197374 -0.5123853
000100 bb 9d 68 3e 68 88 42 bd 54 b5 07 3b 6a 0d 16 3e
       0.2271642 -0.04749337 0.0020707445 0.14653555
000110 3d 8a fc bd 40 24 85 3d 33 02 98 be 1e df f0 3d
       -0.12331054 0.06501055 -0.29689178 0.11761306
000120 df 6a ea bd b0 fa b2 3c e2 af 80 bd ff f7 43 3d
       -0.11446165 0.021848053 -0.06283547 0.04784393
000130 cf ec 80 be 9c bd 9a bd c0 bb 16 be 4c cd 50 be
       -0.2518067 -0.07555696 -0.14720058 -0.20390815
000140 b9 7c 62 3d 6e ef c1 be 57 9b da bd d6 2a 3f 3e
       0.055294726 -0.37877983 -0.1067416 0.18668684
000150 e8 3f 2d bd 85 f2 ba bd 46 d8 43 be a4 b0 8e be
       -0.042297274 -0.09128288 -0.1912547 -0.2786914
000160 06 a1 a6 bc c6 13 ce bd 44 e3 bb 3d 07 9f 7f 3d
       -0.020340454 -0.10062365 0.09174207 0.06240752
000170 21 64 e5 3d 16 ff 87 3e e0 93 c9 be d9 6e 42 bc
       0.11200739 0.26561803 -0.39370632 -0.011867248
000180 77 79 21 3e 8f 0b 42 be 6f b6 75 be 03 59 94 3b
       0.15768991 -0.18949722 -0.23995374 0.0045272126
000190 b7 72 00 bf 79 b8 78 3d 3d 24 a6 be 19 f8 68 be
       -0.5017504 0.0607228 -0.32449523 -0.22750892
0001a0 05 57 3a 3d e9 50 9c bd 5d c5 26 be 17 f7 51 3e
       0.045493145 -0.0763262 -0.16286226 0.20504414
0001b0 7a 62 3c 3d fa 9b 86 3e cd b9 6c bd 1a 74 88 3e
       0.045992352 0.26290876 -0.05779438 0.26651078
0001c0 0d cc 5f be 6b 7c 83 be 94 6d 26 bd 00 f2 45 3e
       -0.21855183 -0.2568086 -0.040631846 0.19330597
0001d0 65 6c f1 3d be a2 2a be 25 c2 f7 bc 1a 8d 47 3e
       0.11788253 -0.16663644 -0.030243943 0.1948742
0001e0 47 ac 09 3e 3f 10 97 be b0 7e a6 bd 4d a5 02 bf
       0.13444625 -0.29504582 -0.081296325 -0.5103348
0001f0 3c 86 67 bc 16 c2 0c bd e6 4a 59 bd 99 05 84 3b
       -0.014131125 -0.034364782 -0.053049944 0.0040289876
000200 46 35 b8 be c5 0b f0 3d 59 86 37 be ef 91 c4 bc
       -0.35978144 0.11720995 -0.17922343 -0.023995368
000210 12 13 25 be d9 65 07 3e 1d 06 f3 3c fc 10 f5 bd
       -0.16120556 0.13222446 0.029666001 -0.1196613
000220 3b a0 42 bd 98 fe 9a 3d 94 38 0b be 21 3a 48 3e
       -0.04751609 0.07568091 -0.13595802 0.19553424
000230 97 79 32 be 02 03 2a be c1 53 fa bd 51 8b 58 3d
       -0.17429195 -0.1660271 -0.12223006 0.052867237
000240 86 e3 8a 3e db c4 83 3e 5b 56 02 3e 75 aa a2 3e
       0.27126712 0.25736126 0.12728254 0.31770673
000250 3c f1 33 3c 7a 9c a5 bd 68 d0 23 bd 79 3f a5 bc
       0.010982808 -0.08086486 -0.039993674 -0.020171868
000260 00 49 c7 3c 64 11 ae 3b 78 7f fd bd 16 5c c9 3d
       0.024326801 0.0053121317 -0.12377828 0.09832017
000270 3c aa 34 bd 29 a9 a6 bd 9d ff 44 be 34 53 83 3d
       -0.04410766 -0.081377335 -0.19238134 0.06412354
000280 b0 61 3e be cf 32 14 bf 26 a4 46 3e 3d 4f 77 3e
       -0.18591952 -0.5789003 0.19398555 0.24151321
000290 83 a8 f4 3c 0a fe f8 bd 29 4b 92 3c 02 02 e1 3d
       0.029865509 -0.12157829 0.017858105 0.10986711
0002a0 fe 63 d4 3e 08 69 fc 3c da 4e 80 3e f9 26 b8 be
       0.41482538 0.030811802 0.2506016 -0.35967234
0002b0 e8 c8 02 3e 26 cc 6c bd dd 49 f1 3d ff d7 29 3e
       0.12771952 -0.05781188 0.117816664 0.16586302
0002c0 c5 50 3a 3e 58 71 89 3c d7 19 74 bd 71 38 b4 bd
       0.18194874 0.01677768 -0.059594955 -0.08799828
0002d0 81 bd aa be 7c 73 3e 3e d8 43 8b 3e e7 2b 54 3e
       -0.33347705 0.18598741 0.27200198 0.20719872
0002e0 d2 a1 18 bd 17 6a 29 3e 5b 0c fb bd d1 c2 85 3e
       -0.0372637 0.16544376 -0.12258216 0.26125196
0002f0 9f d0 06 bd e1 6b 75 be de 01 bb bc 8b 0a e1 3d
       -0.0329138 -0.23966934 -0.022828039 0.10988339
000300 fd 38 15 be e4 5e 50 3d 66 e9 ca be 01 56 a9 3d
       -0.1457252 0.050871745 -0.39631194 0.08268357
000310 b2 9d 28 3e 9c fe 0f bf f5 64 a6 bd b3 1e 26 3e
       0.16466406 -0.5624788 -0.08124725 0.16222648
000320 dc a9 2e bd 09 09 e0 be ca 37 5c be 89 be f6 bc
       -0.04264246 -0.43756893 -0.21505657 -0.030120151
000330 9e 02 0c bd bd 3e 17 3d d4 9f c5 3d c3 17 a7 3d
       -0.034182183 0.036925066 0.096496254 0.08158829
000340 e5 b4 b8 bc d5 33 b8 bd 84 41 0c 3e 81 51 9f 3d
       -0.022547195 -0.08994261 0.13696867 0.077792175
000350 59 89 8e 3d 96 1d 83 3d 30 fb a0 3d d8 31 e1 bc
       0.06959791 0.064021274 0.0786041 -0.027489588
000360 75 40 c7 bd cc a3 2d be d0 1b a1 3d 2e a2 41 3d
       -0.09729091 -0.16957015 0.07866633 0.047273807
000370 73 c8 99 3d 67 20 d3 bc a5 67 13 bc 81 33 69 be
       0.07508936 -0.025772287 -0.008996879 -0.22773553
000380 eb a6 a4 3d 64 ba b1 bd 91 d1 63 3d cf 5c ee be
       0.080396496 -0.08678129 0.05561978 -0.46555182
000390 84 84 f8 be 3a b5 83 3d 79 43 68 bd 6c 6e cd bc
       -0.485386 0.064310506 -0.056704972 -0.025077067
0003a0 3b e8 e9 bc 4a ec 6a 3a 24 89 0a 3e ca 1b 32 3e
       -0.028553119 0.00089616014 0.13528877 0.17393413
0003b0 75 ab 9d bd b2 a6 c4 be 2f 85 87 bd 3d d8 d8 3e
       -0.076987185 -0.38408428 -0.066172 0.42352477
0003c0 36 7e 3f be 98 cc 74 be 30 7e 86 be aa 02 5f be
       -0.1870049 -0.23906171 -0.26268148 -0.2177836
0003d0 18 fc 12 3e fc 68 be 3a b7 3d b6 be 17 25 7e 3d
       0.14353979 0.0014527137 -0.3559396 0.06204709
0003e0 8c 0a 9d bd 27 53 b8 bd 58 1d 80 be a6 7d e2 3d
       -0.07668027 -0.09000235 -0.25022388 0.11059122
0003f0 ae 68 04 bf 54 3b 9f 3e 13 63 e1 3c 1a 4c 6d 3e
       -0.5172223 0.3109995 0.027513063 0.23173562
