app/src/main/assets/model_reg.tflite (tflite, 105388 bytes, 14 tensors)

sequential_4/batch_normalization_19/batchnorm/add_1 f4 [64]
00000000: 6247 c13e 9878 053f 1e54 2f3f 2c21 9fbf
00000010: ef74 0ebf d0d9 06bf 7696 413f 6c1e 20bf
00000020: 794a 8ebf 88e5 8d3f b372 c8bf 841d d9bf
00000030: 8471 623f 3501 65bf b93e c9be c4ec e1bf
00000040: 999f 34bd 1f8e 823f 2da5 35bf f521 973f
00000050: 5a05 c8bf 4b7c f03e b98a c23f 4cd1 8e3f
00000060: 4a5d 0a3f 309c 213e e69b a6bd 0f73 8a3f
00000070: a5d2 313f 3897 4dbf 3910 f03e ba2a 81bf
00000080: 464f 30bf 25c6 78bf ee7a b03f 10b7 babe
00000090: 6bcd b63f 391f 6a3f 8e5f 163f 88b5 d3be
000000a0: bf65 76be 96d9 07bf 7cbc 92be 6d34 6f3f
000000b0: b5c3 6d3f ac5f 9abf 4fbb bd3e 38fc 9b3f
000000c0: e806 653f 56b6 a03f 181c 663e e9c1 283f
000000d0: 9ff8 b5be ddb8 7ebf ac8e 0ebf ca92 6f3f
000000e0: 9aad 12bf 8a1b c23f a154 b5bf 1899 bc3d
000000f0: b685 bebe 6217 adbe d847 9e3d 0c00 3bbe
0.37749773 0.52137136 0.6848773 -1.2431998 -0.55647177 -0.52676105 0.7562021 -0.6254642
-1.1116477 1.1085672 -1.5660003 -1.6962132 0.8845446 -0.89454967 -0.39305666 -1.765038
-0.044097517 1.0199622 -0.70955163 1.1807238 -1.5626633 0.46969828 1.5198585 1.1157622
0.540486 0.15782237 -0.08135204 1.0816363 0.69462043 -0.80308867 0.46887377 -1.0091164
-0.6887096 -0.97177345 1.3787515 -0.3646779 1.4281439 0.9145389 0.58739555 -0.41349435
-0.2406225 -0.53066385 -0.28659427 0.9343937 0.9287675 -1.2060447 0.37056968 1.2186346
0.89463663 1.2555645 0.22471654 0.65920883 -0.35541245 -0.9950083 -0.5568645 0.9358336
-0.57296145 1.5164654 -1.4166452 0.09208888 -0.37211388 -0.33806902 0.07728547 -0.18261737

sequential_4/batch_normalization_19/batchnorm/mul_1 f4 [64, 48]
00000000: fc22 3d3d 98ab 7bbb eb8f f1bb caa5 303d
00000010: efc8 6b3c 5299 2d3c 240d 61bc 9c75 9d3d
00000020: 3ed8 d03c f08c 2d3c 55b7 efbb ce23 0ebd
00000030: 7166 a13b dec8 15be 2c7d 443c c802 4dbe
00000040: 4b26 c1bb e7f5 17bd 73cf 08bd 1cc0 81bc
00000050: 6a2b 3fbc 1347 7b3d 84f3 9dbb d1ff 803d
00000060: 53d8 a6bc 6878 103d dace 22bc 0719 5f3c
00000070: 83c0 d7bd 74a7 153d 0a80 9d3d 901b 053d
00000080: 4751 e23c 5b5e 9abd 97e1 acbd ce16 863a
00000090: 71a5 a93d c447 3fbd 8573 4dbd 42d3 4f3d
000000a0: 42cb 1e3e 9316 313d a579 a33c 82e4 a23c
000000b0: 4636 d33d 0796 51bd 60c1 5ebb 6e95 d1bd
000000c0: 2d62 fb3c 3e9e 803c 1c5e c2bc 0ae6 283d
000000d0: fba9 233c 81fd 273c 35c3 9c3c d1f5 2e3d
000000e0: 2765 04bd dd66 c4bc 4ed5 60bd 7746 3cbd
000000f0: 44c1 503d bde3 f3bd fd83 c73c 7d6a 17be
00000100: 6fb5 45bd a215 febc a052 99bc ead5 6fbc
00000110: ce8e 1bbd 5f97 3a3d b2a5 4cbd 7d26 123b
00000120: 4b65 283d 2ac0 cc3c 8445 f8bc 1c10 0b3d
00000130: 2f2c c2bd 0d32 32bc 6142 30bc 618d b93c
00000140: c208 973b 83da 84bd fce3 b3bc 2e43 333b
00000150: 4b43 173d b04c 1dbd 7804 f5bc 3f8f 523d
00000160: 1b81 963d e9c9 18bc 5747 9b3c 4cf4 bcbb
00000170: b6c2 9e3d 9b7a dbbc d976 173d b39a 25bd
00000180: 6599 28bd f51b d9bd c40f 0d3c 7fb3 0abe
00000190: 429c 20be 42fd 2f3d 6451 443e 20b5 a3bd
000001a0: 9b15 ddbe dbc6 80bd 0954 61bd 7b5c afbd
000001b0: d158 e6bd 1e15 81be c0a6 60bd 68ff a53e
000001c0: 2ef0 843d 2950 13bd 70d5 fb3c c205 34be
000001d0: fd56 65bd aa07 bfbe 2897 59bc eaa8 77be
000001e0: dcbc fbbd 61a2 a23d db3c b1bd dad4 5cbd
000001f0: 5424 ce3d cb6a b73d 5adc 993e 2c9f a5bd
00000200: 517b e8bd 8117 dfbd 18a5 e3bd 6e74 993c
00000210: 06e7 53bc b5f1 74be dca5 153e f811 28be
00000220: b13a f8be 8151 93bd 5215 aabc fe9c 943e
00000230: 2dc1 12be 1f63 12bd 1039 bcbd 74c8 2a3e
00000240: b7a2 e83c fc5c 163d 169a 9cbc e8fc 1a3d
00000250: 8c86 6e3d 345f cb3c 99a6 543d 11c6 8c3d
00000260: c3b2 593d 5efc 023d 0f53 2a3d d6ae 323d
00000270: e1de 473d 05e3 ca3d c54a 223d cf5d 213e
00000280: 503b 1bbc e8fe 4bbb 5bc4 813d 6c3c c63d
00000290: 3645 0cbc 412a 90b9 ab53 b63c 7bfb e23d
000002a0: 48d2 f9bc 1dc9 423c f7a6 65bd 36bd b73d
000002b0: 254d d83c 1877 35bc 0e8c aabd d8cc f63c
000002c0: cc07 5d3d f898 e63d f4cc e03d 057a 053d
000002d0: bd90 723d 2b5a 84bc 8018 aa3c 83b2 e73c
000002e0: ac12 c6bc cfee ec3c b0a8 863d 0698 2bbd
000002f0: 1911 233d e7c4 ac3d 6b58 9b3c 88c8 cbbc
00000300: 9e80 babc 1894 b6bd eb92 b93b 3dbf 1cbd
00000310: b27e 4dbd 1e55 b8bc 0c6b c4bc aba7 2dbd
00000320: afa1 a2bb 373e fb3c e528 9abc 82cd 8a3c
00000330: e990 44bd e76b ee3d f411 dabc 63ec 0f3e
00000340: 13eb 1dbc bcf1 993c c0de 3b3c 6eee cebc
00000350: 9143 ea3c a124 75bd 8188 c03c a132 f0bc
00000360: 70b5 713c 266c eebc 4daa d53c e53c f13c
00000370: 61ee e83d 4fd9 d1bc 7670 23bb c063 85bc
00000380: 67d0 25bd 5918 ecbb 0401 703c a604 d1bc
00000390: 8348 ad3a e42c b63b 607c 013d 2148 78bd
000003a0: a851 11be 0a68 98bc 0ec6 18bd c85b ee3d
000003b0: 690a 77bd acf4 d7bc d096 cc3b eeb2 9b3d
000003c0: 303e 073d 2cb1 2f3d 4a01 4d3d 4e03 ca3d
000003d0: bd75 de3d 9b11 2abd 06fd a9bd 65cd 053e
000003e0: 9836 833e 338c a0b8 0b68 4c3d c1dc b1bb
000003f0: 15fa 0b3e 1857 fb3c 050a 783d a0d2 99be
0.04617594 -0.0038401838 -0.0073718927 0.04312686 0.014391168 0.010595636 -0.013736043 0.07688448
0.025493737 0.010592684 -0.007315556 -0.034702115 0.004925542 -0.14627406 0.011992734 -0.20020592
-0.0058944575 -0.037099745 -0.033400964 -0.015838675 -0.011668066 0.06134708 -0.004820289 0.06298793
-0.020366823 0.03527108 -0.009937013 0.013616807 -0.105347656 0.03653665 0.07690437 0.03249699
0.027626647 -0.07537528 -0.08441465 0.0010230185 0.082835086 -0.0466993 -0.050158996 0.05073858
0.15507224 0.04323442 0.019955466 0.019884352 0.10313086 -0.051168468 -0.0033989772 -0.102335796
0.030686462 0.015700456 -0.023726515 0.041235007 0.009989257 0.010253311 0.01913605 0.042714898
-0.03232303 -0.02397483 -0.054890923 -0.045965638 0.050965562 -0.11908672 0.02435493 -0.14786716
-0.04826873 -0.031016175 -0.018716156 -0.014638403 -0.037977986 0.045554515 -0.049962707 0.0022300773
0.041112226 0.024993975 -0.030306585 0.03395091 -0.094810836 -0.010876191 -0.010758013 0.022650423
0.0046091983 -0.0648699 -0.021959297 0.0027353275 0.03692941 -0.038403213 -0.029909357 0.05140614
0.07348844 -0.009325483 0.018954916 -0.005766427 0.07751982 -0.026791861 0.036978576 -0.040430736
-0.041161913 -0.106010355 0.008609716 -0.13545035 -0.15684608 0.042966135 0.19171673 -0.07993531
-0.43180546 -0.06287929 -0.055011783 -0.08562561 -0.11247409 -0.25211424 -0.054846525 0.32421422
0.06491123 -0.03596512 0.030741423 -0.17580321 -0.05599116 -0.37310535 -0.013280667 -0.2418553
-0.122918814 0.079411276 -0.086541854 -0.05391393 0.10065523 0.08955916 0.30050927 -0.08087
-0.11351646 -0.10893155 -0.111154735 0.018732276 -0.012933498 -0.23920329 0.14614052 -0.16413105
-0.48482278 -0.0719328 -0.02076212 0.29026026 -0.14331503 -0.03573906 -0.09190571 0.1667803
0.028397901 0.03670977 -0.019116443 0.037838846 0.058233783 0.02482567 0.051916692 0.06873716
0.053148996 0.031978957 0.041583117 0.043623768 0.04879654 0.09906582 0.039622087 0.15758441
-0.00947459 -0.0031127278 0.0633628 0.09679493 -0.008561423 -0.00027497302 0.022256693 0.11083122
-0.030495778 0.011888769 -0.056067433 0.08971636 0.026403973 -0.011075757 -0.083274946 0.030126974
0.053962514 0.11259645 0.10976592 0.03258707 0.059220064 -0.016156277 0.020763636 0.028283363
-0.024178825 0.028922467 0.06575143 -0.041893028 0.039811227 0.08435994 0.01896306 -0.024875894
-0.022766408 -0.089149654 0.005663266 -0.038268317 -0.050169654 -0.022501525 -0.023976825 -0.04239623
-0.004963122 0.030669315 -0.018818328 0.016943697 -0.04798976 0.116416745 -0.026619889 0.14055018
-0.009638566 0.018792026 0.011466682 -0.025260177 0.028596671 -0.059849385 0.02350259 -0.029321017
0.014752731 -0.029104304 0.026082182 0.029447982 0.11373592 -0.025616316 -0.0024938858 -0.016282916
-0.04048195 -0.007205051 0.01464868 -0.025514912 0.0013220463 0.0055595506 0.031612754 -0.060615662
-0.14191306 -0.018604297 -0.037298255 0.116386 -0.060312662 -0.026361786 0.006243564 0.076024875
0.03301829 0.042893574 0.050050057 0.098639116 0.108623005 -0.041520696 -0.083002135 0.13066633
0.2562759 -7.655509e-05 0.04990391 -0.0054279272 0.13669617 0.030681178 0.06055643 -0.30043507

sequential_4/dense_24/MatMul;sequential_4/dense_24/BiasAdd f4 [48]
00000000: 3339 683d 120b 86be ea99 533b cd06 9e3d
00000010: 0c17 d93e 29aa b7bc 06c4 ee3e 0f87 293f
00000020: ed6a 23bf 6713 593e f8b6 f9be dc50 98be
00000030: b74c f1bd 9f9f 9e3a 13c7 7e3d ceb2 ac3e
00000040: c47d b0be 65d9 2a3e 51ac a23e ca10 a4be
00000050: f431 453d 9623 fd3e 6c6e 753e 78e5 023e
00000060: 1dea 1b3f 2dbf 2f3f 3643 4f3d 1a90 3f3e
00000070: ac96 8b3e c91a 90be b3d2 373f 9747 ab3e
00000080: 4852 9fbd 07e0 4d3d 635f d43e 1e23 b73d
00000090: d439 243f aab0 213e 0be4 bc3e 9134 2e3f
000000a0: b2fa 723e 95d4 573c 9521 493e 8c6e f53e
000000b0: 95e1 50be e650 5a3e 500a 243e b0f3 f93e
0.056695174 -0.2618032 0.0032287785 0.07716141 0.42400396 -0.022420006 0.4663393 0.6622171
-0.6383503 0.21198808 -0.48772407 -0.2974919 -0.1178221 0.0012102014 0.06220157 0.33730167
-0.34470952 0.16684492 0.31772092 -0.3204406 0.048143342 0.49441212 0.23967904 0.12782848
0.60904104 0.68651086 0.050601207 0.18707314 0.2726339 -0.28145435 0.71805876 0.33453056
-0.07779366 0.050262477 0.41479024 0.08942245 0.6415074 0.15790048 0.36892733 0.6804896
0.23728445 0.013173242 0.19641717 0.47935903 -0.20398553 0.21319923 0.16019559 0.4881873

sequential_4/dense_23/MatMul;sequential_4/dense_23/BiasAdd f4 [32]
00000000: e070 04c0 bb6b aebf 5120 e9c0 91a5 01c1
00000010: 6b78 70c0 3602 aa40 fd43 5341 8f58 25c0
00000020: 86c0 1ac0 2036 83bf f912 84c0 02aa 2441
00000030: 9011 97c0 0620 1cc0 2abf e9bf b5cd abbc
00000040: 3879 0ec1 f1f1 a2c0 6768 f2c0 ce1b 52c0
00000050: 1086 563f 95b1 bcc0 fac2 c23f 129e 153f
00000060: fd96 0f40 b40b 2b40 089b 8f3f e6c6 1ec0
00000070: 6f90 95c0 06d1 6c40 5612 d8c0 1fc2 c8bf
-2.0693893 -1.3626627 -7.285195 -8.1029215 -3.7573497 5.31277 13.204099 -2.5835302
-2.4180007 -1.0250893 -4.127316 10.291506 -4.720894 -2.4394546 -1.8261464 -0.020972112
-8.904594 -5.092034 -7.5752444 -3.282947 0.83798313 -5.8966775 1.5215752 0.5844432
2.2435906 2.6725893 1.1219187 -2.4808898 -4.673881 3.7002578 -6.7522383 -1.5684241

sequential_4/dense_26/BiasAdd/ReadVariableOp/resource f4 [128]
00000000: e3b2 643e 8f18 7f3e 2c12 ac3e ef6f 413e
00000010: bc69 a43e aed3 8c3e 6e42 973e e771 433e
00000020: b152 913e 9420 423e 3adb ad3d 6def 773e
00000030: 400d 833e eace 9a3e 9841 a63c b167 6b3e
00000040: 686b 613e a757 8f3e 73fb 2b3e 39cd 7b3e
00000050: 33ec 823e 575b 5f3e 8e0e 8a3e b78b 523e
00000060: 4f04 0b3e 87ea b83d 9940 693e 48f9 1e3e
00000070: 02a9 613e 569c 963e 132d 803e 326f 483e
00000080: 08ed 873e 3105 ad3d 6044 7f3e 6149 0c3e
00000090: 722f b33e 5f5d 823e b081 153e 931a 143e
000000a0: 87a5 663e c53f 683e b282 633e 32a9 553d
000000b0: 746b 0c3e 308d 7e3e a2bd 7f3e 7794 c93e
000000c0: c9a5 533e ed1c a43e ab76 283e ed18 cb3c
000000d0: cb2b 6a3e ba90 8b3e 7138 553e 7f46 833e
000000e0: a944 0e3d 5bee 813e 7fad 553e 4381 e53d
000000f0: 62d1 2e3e c21d 953e 1de9 4b3e ec32 033e
00000100: 1de7 7d3e 9a87 803e d49a 553e 7e36 8b3e
00000110: b390 8f3e 3a57 bf3d 7f1d 2b3e c9bb 6e3e
00000120: c1eb 913d 456a 4b3e 7517 393e 102c 043e
00000130: 5b9a 37bd 837c 323e f063 a63d 7697 b83e
00000140: e6d5 3b3e 980c 6f3e e148 973d 047b 30bd
00000150: d8c2 5b3e 24d6 673e 52c7 863e e469 793e
00000160: 9ef3 813e 1f1f 833d b8b9 713e 5763 763e
00000170: 053a 823e 8a0a 6b3e fcad 873e ecdb 483e
00000180: e111 913e 66ec 633e e2a7 193e 9069 4b3e
00000190: a528 623e d186 883e eabb 743e 8646 8c3e
000001a0: f793 893e 015c 803e 86e9 823e 8afa a43e
000001b0: 0e36 7c3e 0284 583e e60e b93e 2679 5e3e
000001c0: f7a9 8f3e 6801 873d 1d58 1c3e c326 483e
000001d0: 7d19 813e d59a 253e ba0e 9b3e 4298 703e
000001e0: 11a9 9f3d dfb8 853e 0cd6 3e3e d78d 743e
000001f0: 1a8d 873e a71b 763e dbef e03d c4f0 213e
0.22333865 0.24911712 0.33607614 0.18890356 0.3211192 0.2750525 0.2954287 0.19086419
0.283834 0.1895774 0.0848908 0.24212427 0.25596046 0.30235988 0.02029495 0.22988774
0.22013628 0.2799656 0.16795139 0.24590005 0.2557083 0.21812187 0.2696423 0.2056111
0.13575862 0.090291075 0.22778548 0.15524781 0.22037128 0.2941615 0.2503439 0.19573668
0.26548028 0.08448256 0.24928427 0.13699867 0.34997135 0.25461861 0.14600253 0.14463262
0.22524081 0.22680576 0.22217825 0.05216331 0.13712865 0.24858546 0.24974683 0.39371082
0.20668711 0.3205332 0.16451518 0.024792159 0.22868268 0.27258855 0.20822312 0.25639722
0.03473345 0.25377163 0.20866965 0.11206295 0.1707206 0.29124266 0.19913144 0.12812394
0.24795194 0.25103456 0.20859843 0.27190012 0.28040084 0.09342809 0.1671047 0.23313822
0.071250446 0.19864757 0.18075354 0.12907434 -0.04482494 0.1743031 0.0812453 0.36053056
0.18343315 0.23344648 0.073869474 -0.043086067 0.21461046 0.22640282 0.26323944 0.243568
0.25381178 0.0640242 0.23606002 0.24061333 0.2543489 0.22953239 0.26499927 0.19615144
0.28333953 0.22258148 0.15005448 0.19864488 0.22085817 0.26665357 0.23899809 0.27397555
0.268707 0.25070193 0.2556879 0.32222396 0.24629995 0.21144107 0.3614418 0.21725902
0.2805936 0.06592065 0.15267988 0.19546036 0.2521476 0.16172345 0.30284673 0.23495582
0.07795919 0.26117608 0.1863634 0.23882233 0.2647484 0.24033986 0.10983249 0.15814501

sequential_4/dense_27/BiasAdd/ReadVariableOp/resource f4 [91]
00000000: ee6c 24bd f2f3 bfbc caa3 20bd 7da1 823e
00000010: 9b8b 303e 645e 773e 9dfb 41bd d7a0 9d3e
00000020: 9919 613e 908f 5e3e 5a31 31bd 9dc3 853e
00000030: 4933 37bd bbc4 16bd 7f51 843e daf6 29bd
00000040: 1d35 5dbd e577 813e 804e 8c3e 2b6e 3abd
00000050: f9fd 823e e81d 3b3e 16e8 833e 1066 793e
00000060: 8d1b a03e 2a25 26bd 44c3 733e e1de 573e
00000070: 3469 043e 1d72 6e3e 456e 343e 4a38 693e
00000080: 2558 c73d b5d7 6c3e 83f7 883e b5af 673e
00000090: 1873 8c3e 3b97 4bbd 37bd 803e b828 0ebd
000000a0: 224b 8b3e 8526 05bd 403f 203e e662 57bd
000000b0: d532 27bd 7c92 893e def8 21bd e3d0 4dbd
000000c0: a16c 913e 4bc9 21bd 7840 843e 91b1 c63d
000000d0: 01cb b13e 2756 41bd 1757 8e3e 8817 883e
000000e0: e5e7 503e 8676 193e 785e 73bd 4d3c 663e
000000f0: cafd 16bd 1bb7 cabb adb6 07bd 3b03 2bbd
00000100: f967 013e 67e9 24bd d297 06bd 0d50 4cbd
00000110: 8f83 2fbd c7f2 913e fb57 773e 792a 853e
00000120: f890 843e 0c80 5a3e 8a07 933e 4e71 eb3d
00000130: 939f 1bbd 6738 2dbd 38e9 28bd 587e 573e
00000140: 6d9e 2bbd 9660 44bd 376c 4b3e f6cb 853e
00000150: a144 44bd e1c9 14bd 3978 8a3e 6885 823e
00000160: 0ab7 4ebd 894a 6e3e 83a7 6ebd
-0.040142946 -0.023431752 -0.0392187 0.2551383 0.17240755 0.24157101 -0.047359098 0.30786774
0.21982421 0.21734452 -0.043259956 0.26125804 -0.044726644 -0.03680871 0.25843427 -0.04149518
-0.05400573 0.25286785 0.2740364 -0.04551522 0.2558439 0.18273127 0.25763005 0.2435534
0.3127102 -0.040562786 0.23804957 0.21081115 0.12930757 0.23285718 0.1762019 0.22775379
0.09733609 0.2312916 0.26751336 0.2262562 0.2743156 -0.04970477 0.2514436 -0.0347068
0.2720576 -0.03250744 0.15649128 -0.05258455 -0.04081996 0.2686957 -0.03954398 -0.050248038
0.2840319 -0.03949861 0.25830436 0.09701837 0.34725192 -0.047201302 0.2780082 0.26580453
0.2040096 0.1498662 -0.059416264 0.2248394 -0.036863126 -0.0061863787 -0.033133198 -0.041751128
0.12637319 -0.040261652 -0.03285963 -0.04988103 -0.042850073 0.28505537 0.24154656 0.26008967
0.25891852 0.21337909 0.2871669 0.114962205 -0.03799398 -0.042290118 -0.04123804 0.2104429
-0.041899133 -0.047943674 0.198655 0.26132172 -0.047917012 -0.03632534 0.27044848 0.25492406
-0.05046753 0.2327062 -0.05826522

sequential_4/batch_normalization_16/batchnorm/mul f4 [8]
00000000: fd46 0e3e d5c9 6c3e 6e5d 953e 7627 b03e
00000010: 57a0 553f 56ad 193f 93dc 363f 25bb 043f
0.13894267 0.23123868 0.29172844 0.34405106 0.83447784 0.60030115 0.7143032 0.5184806

sequential_4/batch_normalization_17/batchnorm/mul f4 [32]
00000000: 87b6 ca40 efda 4c41 ea03 f740 84a4 a740
00000010: 4f64 1841 b5fd a140 47be 7040 f47d fc40
00000020: db5f 2141 7d8f 1641 67bc 3d41 c326 a940
00000030: b7d1 a540 58d5 0b41 7b4e c240 b829 9e40
00000040: a250 0441 3a60 da40 e013 ce40 3d6f 5441
00000050: 574b 3f41 9a14 e640 0fd9 f940 0eb1 fb40
00000060: 0cc1 e240 9f57 f340 c277 0a41 c143 0841
00000070: 65d2 b340 57a5 3341 6c3c d840 a743 0341
6.334781 12.803451 7.719228 5.2388325 9.524489 5.06222 3.7616136 7.890375
10.085902 9.410031 11.858497 5.2859817 5.18185 8.739586 6.07208 4.9425926
8.269686 6.8242464 6.439926 13.277158 11.9558935 7.190015 7.8077464 7.865363
7.0860653 7.604446 8.654238 8.5165415 5.619433 11.227866 6.7573757 8.204017

sequential_4/batch_normalization_18/batchnorm/mul f4 [48]
00000000: 304f ab40 4215 2b41 5509 6240 62f9 9340
00000010: 16f8 8340 48f6 0041 869c 7840 de73 ba40
00000020: 41ac 0640 f57d 3a40 75b6 2740 e730 6c40
00000030: 30b0 e640 dba1 6940 7542 a640 2f7c bd40
00000040: 0639 5440 f620 4d40 0ff4 8c40 c82d 3d40
00000050: d345 8540 6649 8040 1314 3b40 b41f 8640
00000060: e276 5b40 826d 7240 1c94 9f40 5d46 a140
00000070: 01fc 8940 6dfc 6340 90ee b940 f2ba 5340
00000080: 669e 9440 1326 af40 f8e0 5f40 7c79 8840
00000090: f89a 9d40 a6d3 8b40 7c2c 2c40 f6d0 6240
000000a0: 87f7 c540 1785 4e40 7a32 9d40 e5fc b040
000000b0: f008 bd40 34cf 4a41 54cc 7a40 68f0 8f40
5.3534164 10.69269 3.5318196 4.624192 4.124034 8.060127 3.8845534 5.826644
2.1042635 2.9139378 2.6205113 3.6904848 7.2090073 3.6505039 5.1956124 5.921409
3.3159804 3.2051368 4.4047923 2.9559193 4.1647735 4.00896 2.9231002 4.19137
3.429131 3.7879338 4.9868298 5.0398393 4.312012 3.5622818 5.8103714 3.3082852
4.6443357 5.4733977 3.498106 4.2648296 4.925167 4.369586 2.690215 3.544004
6.1864657 3.2268732 4.9124117 5.530871 5.907341 12.675587 3.9187212 4.4980965

sequential_4/dense_23/MatMul f4 [32, 8]
00000000: e7de 3e3e f2ed febb 416a 893b a5fd 9f3c
00000010: 4eb7 263d e76c b7bb 1690 6fbd 439f d53c
00000020: ae81 04be 3e0f abbc d0be 4d3c 7d27 003c
00000030: e613 a13c ec44 50bd 4344 fe3d c4f3 82bd
00000040: 3a57 90bb 67e5 d1bd fe07 cf3d 1c06 43bd
00000050: 2eda f13d 239c 89bd 0c9c 0a3d 7c41 ce3d
00000060: 1f8f 803d 1499 7b3d 6061 313a 10ce a33c
00000070: e73c ddbc 8700 a43d 8392 223d 6de1 b53d
00000080: 7a83 36bd 1786 bb3d 3180 23be a454 00be
00000090: 0198 06bd b73e f63d bbbe b43d cf65 5e3d
000000a0: f653 a7bd a623 59bd 9613 e5bd 1875 abbd
000000b0: 0d52 36bd d879 4b3d 160e dabc 645d 703d
000000c0: f919 09bd ef6d 94bc 2165 3f3d 7cfb 5dbd
000000d0: cb0d 89bd 9278 cebd 81d9 75bc a9f0 06be
000000e0: 47b4 763d 2051 063e d886 8dbd bee4 443d
000000f0: 405c 233b 8967 f4bc e62f 16bc f24a 653d
00000100: c94e 0bbe eb69 3c3d 4027 21b9 52b5 7dbd
00000110: 9771 4b3c 1a0f ea3d fe10 32bc ba1b 9cbc
00000120: 29c3 1f3e deab bcbc 788d 333d 34c8 54bd
00000130: 869d 7e3d db72 79bd 6f71 1bbd faae 1b3d
00000140: 29f4 26bd f826 273e c3d6 343d 0277 e1bb
00000150: 11a2 793d 43aa 9a3a 2356 43bd e0a2 cfbb
00000160: 1242 55bd 448d 66bc 57d3 b73d b39e dfbd
00000170: 3145 a3bd a832 82bd 807b a9bd f0b9 2a3d
00000180: f56b 8dbc 0c77 583e c639 393d 8529 fb3c
00000190: 5422 3fbe fefc ba3d 1864 0a3d 333e 153e
000001a0: 24ca 9bbd 6589 1bbc c08d acbd 8963 9abd
000001b0: e0d1 5fbd 77d2 b23d de1e 8a3d a43e cb3d
000001c0: 154f 8b3d 3f70 813d dd63 9abc 9fe4 233d
000001d0: 731f 69bd 2003 6dbd ed96 993c b664 0c3e
000001e0: f604 37be 2f3d 1abe cf27 383d 5022 833d
000001f0: 2a88 323d 8a2b 91bc 8ad5 ddbb 2a64 763c
00000200: 9a12 a93c f3be d7bc 85e6 a6bd 0f0d fb3d
00000210: 822c dd3d b781 c53d e353 85bc 6815 c9bc
00000220: c993 dc3d 923b cf3c f654 66bb 07f9 9f3d
00000230: aee4 78bd b6f4 803d 6fb9 ce3c c145 553d
00000240: 2152 613c c70c cc3c 17e4 42bd 5f53 09bc
00000250: 31d0 983d 7fda c03d 170c e6bd cebc 343e
00000260: 5b04 40bc 53c7 163e 2b53 e2bb 2b85 c3bd
00000270: 46b7 773d 8917 b23c 0e5d 813c f713 52bd
00000280: 79b1 8dbd 28f2 b9bd a3fc ea3b bc49 c0b9
00000290: ce4e b93d d14b 15be ca9c 203d bee5 303c
000002a0: 6ca6 f6ba 3f04 603d 3e59 03be 9eed b13d
000002b0: 0a2b c13b 6ea0 db3d fa48 45bd 6e56 d63d
000002c0: 872d 0a3e 45ba ca39 20b1 033d 3f10 bc3d
000002d0: afe0 1dbe 751a ac3c f487 b53d ab57 78bd
000002e0: 8c56 cb3c 9ec9 9f3b 1995 a23d 8e5d 7a3d
000002f0: 1a29 d03c e0d5 a9bc fbe9 323d f821 4cbe
00000300: 8c66 1ebe d1ed 86bc 24b2 ec3d 82a4 0a3c
00000310: 9abc 5c3d 1017 c6bd aa2a 1b3c ffec 9fbd
00000320: 0d69 8b3c 455e cfbc aaa0 903c ca3d edbd
00000330: c427 42bc 356f 223e 9ca0 cfbd 7e6c 56bd
00000340: 7113 623d 6e1c 4e3d 0b3b 10bd 2b67 893d
00000350: bd50 b9bb b37e 7bbd 8f97 a3bc c66f 903c
00000360: 1a45 4dbd 57ac f3bd 59ca 873d 1265 3bbd
00000370: f957 b93d af80 39bc 508f 563d efb1 80bd
00000380: b0ba e63d dee6 1e3e 74fc 3ebd 94a0 3dbb
00000390: 8a37 9b3d be45 9abd f05a 093d ccfc 9abb
000003a0: 0db7 2d3e 1eae 6fbd cb82 083b ea9b 41bc
000003b0: 0338 3d3d a6e5 cfbc e0d1 79bd c5f1 b9bd
000003c0: 28ee 9db8 0273 653e 5a26 1c3c bc07 5cbd
000003d0: cea2 c33d c91e 4a3d efce a2bc 5276 8dbd
000003e0: 6841 9c3d 7ab2 a33d 26d2 103d 9682 8ebc
000003f0: 6d66 1fbd 71eb ebbc 7299 233d ea64 bd3c
0.18639718 -0.00777983 0.0041935747 0.019530127 0.040702157 -0.005597699 -0.05848702 0.026076918
-0.12940094 -0.020881291 0.0125577 0.007821915 0.019662809 -0.05084698 0.12415364 -0.06394151
-0.0044049295 -0.10248833 0.10108946 -0.04761325 0.118091926 -0.06719234 0.033840224 0.10071084
0.06277298 0.061425284 0.0006766524 0.01999572 -0.02700658 0.08007913 0.039690506 0.08880887
-0.04455898 0.09156435 -0.1596687 -0.12532288 -0.032859806 0.12023681 0.088254414 0.05429631
-0.08170311 -0.053012513 -0.11185376 -0.08371943 -0.044511843 0.049676746 -0.026618045 0.058682814
-0.033472035 -0.018118827 0.046727303 -0.054194912 -0.06692084 -0.10081591 -0.01500547 -0.13177742
0.06023052 0.13116884 -0.06910485 0.048069708 0.0024926811 -0.029834526 -0.009166693 0.055979677
-0.13604273 0.04599945 -0.00015368778 -0.0619405 0.012417219 0.11428662 -0.010868309 -0.01905619
0.15601791 -0.023031171 0.043836087 -0.05194874 0.062161945 -0.06090055 -0.037949976 0.038008668
-0.040760193 0.16323459 0.044150125 -0.006880642 0.060945574 0.001180001 -0.04768957 -0.006336555
-0.052064963 -0.014071766 0.08975857 -0.10918941 -0.079721816 -0.06357318 -0.08275509 0.04168123
-0.017263392 0.21139163 0.045221113 0.030659446 -0.18665439 0.09130286 0.033786863 0.14574508
-0.07606915 -0.009493207 -0.08425474 -0.07538516 -0.05464351 0.08731549 0.06744169 0.09924057
0.06802193 0.06320237 -0.018846447 0.040012952 -0.056914758 -0.05786431 0.018748725 0.13710293
-0.17872986 -0.15062402 0.04495984 0.06403029 0.043586887 -0.017720956 -0.0067698406 0.015038529
0.020638753 -0.026336169 -0.08149437 0.1225835 0.10799505 0.09643882 -0.016275352 -0.02454634
0.10770375 0.02529696 -0.0035145856 0.0781117 -0.06076496 0.06296675 0.025234906 0.052068476
0.013752491 0.024908436 -0.047580805 -0.008381694 0.07461584 0.09416675 -0.11232775 0.17650148
-0.011719788 0.14724474 -0.006906887 -0.09546884 0.060477518 0.021739738 0.015791442 -0.05128857
-0.06918616 -0.09079391 0.00717123 -0.0003667603 0.09048234 -0.14579703 0.039212026 0.010796962
-0.0018817908 0.05469155 -0.12827012 0.086879 0.0058950232 0.10723959 -0.0481653 0.10465704
0.1349393 0.00038667224 0.03215134 0.09182786 -0.15417741 0.02100871 0.088638216 -0.06063048
0.024821542 0.0048763296 0.07938594 0.061124377 0.025410224 -0.020731866 0.043680172 -0.19934833
-0.15468806 -0.016470822 0.11557415 0.008462073 0.053890802 -0.096723676 0.009470621 -0.07808875
0.017017866 -0.025313506 0.017654736 -0.11584051 -0.011850301 0.15862735 -0.10138056 -0.05234956
0.055194322 0.05032008 -0.035212558 0.06709131 -0.0056553767 -0.061400127 -0.01996973 0.017631423
-0.05011473 -0.118981056 0.06630392 -0.045750685 0.090499826 -0.0113221845 0.052382767 -0.06283938
0.112660766 0.15517756 -0.046627477 -0.0028934823 0.075789526 -0.075328335 0.03353399 -0.0047298428
0.1696436 -0.05851566 0.0020829912 -0.011816958 0.046195995 -0.02537806 -0.060991168 -0.09079317
-7.5307034e-05 0.22407153 0.009530628 -0.053718314 0.09552537 0.049345765 -0.019874064 -0.069073334
0.07629663 0.07993026 0.035356663 -0.017396253 -0.03891604 -0.02879879 0.03994126 0.023119409

sequential_4/dense_24/MatMul f4 [48, 32]
00000000: cf5d 493c efcf 023d c0be 99bb 9065 4f3b
00000010: 502a 3d3c 5fde 1a3d f578 db3c 084e 84bb
00000020: cfbb f9bb 7404 aa3c bcb9 28bc 05d6 3c3c
00000030: 5b85 12bc 8693 243d 8ab2 55bc cab1 563c
00000040: 351d 47bb 52c7 bd3b 9540 b0bb 4a80 a6b9
00000050: 217a 59bc fc01 d6bc 0bf1 da3a d100 b4bc
00000060: 6e6a 5e3c 403a 67bb c97c 13bc b6b4 213a
00000070: 53e1 0bbc 851f d43c 0897 0abd a206 ce38
00000080: aeb1 8e3c 6225 9e3d ef23 a73c ef68 2f3c
00000090: fae8 263d aaee 2a3d 51f1 0e3d d31c 463c
000000a0: bb2e efbb 7e07 ae3c a10a 123d 8c32 8f3c
000000b0: 3605 2a3c dea5 4f3d c33f 04bb 1416 803d
000000c0: f2bf 853b 568f f53c d8f8 09bd 5973 2e3d
000000d0: e897 57bd c51e 82bd 4969 623c 2db6 bd3c
000000e0: b690 3b3d 91bf 16ba 40df 2dbc 451c 92ba
000000f0: 4c6f 8f3c 73c3 cd3c b96b 4e3c 80cb bc3c
00000100: 956e b43c 70ca 1cbd ee01 98bb ae6a d93c
00000110: b57e 32bd 0c90 06bd 37d5 a7bc 6f4e 1b3d
00000120: 6c6f 48bd 5d0a d13c 61ba cabc af7c a0bc
00000130: 8dbe ee3c a2f2 6cbc 8522 00bc 97eb 7b3c
00000140: 0d31 a6bc d383 f33c 244e 853d a578 7dbc
00000150: 5640 153d 6b31 f73c d946 c83b cf7a 02bd
00000160: 5b24 5e3b aec6 0ebd f684 103d 3756 bebb
00000170: 3d58 673c fb17 2f3d 6128 8a3b 8a05 62bc
00000180: 2bdd 7e3b f97c 933d a5e5 2f3d 5588 2abd
00000190: 0a86 2bbc 18f2 bc3c b315 2a3c d4f9 96bc
000001a0: 68b3 babb 70bc a43c 3032 8e3c 934f 2bbd
000001b0: c69e d6bc f467 923d f0c2 163b 44ec 983c
000001c0: b0d0 85bd 4c4b 393b 96f8 ba3c 00b1 403d
000001d0: 2422 fabc 92b6 93bd 3a18 12bd 810e 883b
000001e0: ee1b 983c fbe8 dd3c 35d9 c5bc 7e25 443d
000001f0: 83d7 a2bc d247 953c fecc 7e3c a384 6c3c
00000200: 4f55 bfbd f201 f23b e645 13bb 2693 94bd
00000210: be3d d53c eab3 243d 6475 7cbd 5b9a c338
00000220: a39f 3fbc 4948 b1bd 27c2 7b3a 8a4b 09bc
00000230: 96db 43bd 8eca c53b 1152 85bd 26a7 443c
00000240: f482 003e b90c b23c 0a22 70bd e635 0dbd
00000250: 0848 edbd d079 0c3d 9664 ec3a f32a 533d
00000260: ed86 49bd c88d d7bd e11d c63c db03 23bd
00000270: 7c2a 64bd b3a6 e3bd b4bb 81bd 57b1 a4bd
00000280: daaa 1b39 d769 3abc 55cb afbc 90b0 d8bb
00000290: 9475 9a3c a38c fc3c 9eb4 b7bc b349 f238
000002a0: 3f53 f03b 55fb d4b8 1add 3abc 0c85 f53a
000002b0: 0844 383a 95d7 aa3c acf4 09bd 3a68 523b
000002c0: 8145 1c3c 6482 433c 15aa c33c a509 30bd
000002d0: 5d2d 09bd 1025 0e3c bcbd 70bb 94f2 4d3a
000002e0: 1a67 65ba bf39 7d3b bc9f 2cbc e150 21bb
000002f0: 9de8 3fbc 0a0b a93b 8a80 f3bc 201d 4fbc
00000300: f6db 50bd 8b97 d3bc af97 a0bc cc22 2abd
00000310: 1a3a 0d3c a2d7 62bc 5f54 aabc dc3d 4cbd
00000320: d029 c2bb 6756 56bc 2059 45ba df28 3c3d
00000330: 5656 95bd f758 393d b338 edbc 94a7 ebbc
00000340: 54b3 26bc 2208 863b 1461 d2bc ea71 15bd
00000350: 2c06 82bd 32cd a7bc ec79 d2bb 3a2f d33b
00000360: 2482 e2bc f5be 86bb b573 aebc 5b64 c6bc
00000370: 9865 21bd eda4 18bd 67e1 f7bc 8d79 05bd
00000380: 0fb0 53bd cb45 17bd 3192 b03b 20c8 55bd
00000390: fde5 0fbc c60b 48bd d8eb a93c 1176 b3bd
000003a0: 554f 2ebc f303 05bd 99df 5a3d 3efc c53b
000003b0: 58bb a1bd 93fa 7d3c 4f7e b7bc e3cf 96bc
000003c0: 5260 b63c 8842 143d cb83 a2bd 134f 88bd
000003d0: bae3 abbd 3d79 8abd 320a 1a3d 7632 dcb5
000003e0: 5642 6ebd 139a b8bd 1deb a7bb edc4 15bd
000003f0: baf3 4cbd f2d2 01be 91c3 33bd 5516 883d
0.012290432 0.031936582 -0.0046919286 0.003164623 0.011545733 0.037809726 0.026791075 -0.0040376224
-0.0076212655 0.020754077 -0.010298189 0.011525636 -0.008942927 0.04017975 -0.013043055 0.013103912
-0.00303824 0.005791583 -0.0053787925 -0.0003175757 -0.013273747 -0.026123993 0.0016703916 -0.021973046
0.0135751795 -0.0035282522 -0.009001919 0.00061685906 -0.008537608 0.025893936 -0.03383544 9.824081e-05
0.017418709 0.07721974 0.020402877 0.01070617 0.040749528 0.041731514 0.034898106 0.012091833
-0.007299272 0.021243807 0.035654668 0.017480157 0.010377219 0.050695293 -0.0020179607 0.06254211
0.0040817196 0.029975574 -0.03368458 0.042590473 -0.052635103 -0.06353525 0.013819047 0.023158157
0.045792304 -0.00057505915 -0.010612309 -0.0011147341 0.017509125 0.025117612 0.012598925 0.023046255
0.022025386 -0.038278997 -0.004638902 0.026540127 -0.04357787 -0.032852218 -0.020487411 0.037916597
-0.048934385 0.025517637 -0.024747076 -0.019590704 0.029143596 -0.014462145 -0.00782073 0.015375993
-0.020287061 0.029725945 0.06509045 -0.015470658 0.03643831 0.030174932 0.0061119613 -0.0318554
0.0033896181 -0.034857444 0.03528305 -0.0058086175 0.014120159 0.04274748 0.0042162393 -0.013795266
0.003888915 0.07201571 0.042943615 -0.041633923 -0.010468969 0.023064658 0.01038115 -0.018429674
-0.0056976564 0.020109385 0.017357916 -0.041823935 -0.026198756 0.07148734 0.0023004375 0.018667348
-0.065339446 0.002827364 0.022823613 0.0470438 -0.030533858 -0.07212557 -0.035667636 0.0041521196
0.018568005 0.027088633 -0.024151424 0.047887318 -0.019878155 0.018222723 0.015551804 0.01443592
-0.09342443 0.007385486 -0.0022472083 -0.07254629 0.026030418 0.040210642 -0.06163539 9.3270755e-05
-0.011695775 -0.086563654 0.0009603821 -0.008379826 -0.047816835 0.0060361093 -0.065097935 0.012002742
0.12549955 0.021734582 -0.058626212 -0.03447523 -0.115860045 0.034295857 0.0018035348 0.05155463
-0.04920094 -0.105250895 0.02418417 -0.0397986 -0.05570458 -0.1111578 -0.0633463 -0.080416374
0.00014845599 -0.011377773 -0.021459261 -0.0066128448 0.018854894 0.03082878 -0.022424992 0.00011553187
0.0073341425 -0.00010155762 -0.011405254 0.0018731668 0.00070291804 0.02085475 -0.033680603 0.003210558
0.009538055 0.011932943 0.023884812 -0.042977948 -0.033490527 0.008675829 -0.0036734184 0.00078562764
-0.000875102 0.0038639156 -0.0105361305 -0.0024614858 -0.011713174 0.0051587867 -0.029724378 -0.012641221
-0.05099102 -0.025829097 -0.019603578 -0.04153709 0.0086198095 -0.013845356 -0.020792184 -0.04986368
-0.0059253946 -0.013082123 -0.0007528234 0.045937415 -0.07291858 0.04525086 -0.0289577 -0.02876643
-0.010174591 0.004090325 -0.025681056 -0.03648559 -0.063488334 -0.020483587 -0.0064232256 0.006444839
-0.027649947 -0.0041121193 -0.021295408 -0.024217775 -0.039403528 -0.03726666 -0.030258847 -0.032586623
-0.051681574 -0.036931794 0.005388521 -0.052192807 -0.008782861 -0.048839353 0.020742342 -0.08762754
-0.010639031 -0.03247447 0.053435896 0.0060420325 -0.07897061 0.015501636 -0.022399096 -0.018409675
0.022262726 0.03619626 -0.07935294 -0.06655707 -0.08393045 -0.067614056 0.03760738 -1.6405963e-06
-0.05816873 -0.09013762 -0.0051244632 -0.036564756 -0.050037123 -0.12678126 -0.04388768 0.066448845

sequential_4/dense_26/MatMul f4 [128, 64]
00000000: 5cf9 52bd 7f5f 31bd b614 b43c 24f1 05bd
00000010: 11b9 4e3c 97a4 4dbb 5b02 d53d 0f96 f03d
00000020: 5970 11be 981b fc3d 1499 f7bd 267b ebbd
00000030: 8310 053d f26c 2abd 9114 da3c e51f 5ebd
00000040: fdbc c4bc 7085 ec3d 0617 e8bd 08b0 803b
00000050: b571 18be 3c80 903d c5e5 993d 60d3 1d3c
00000060: 5917 94bd 0a97 073b 88f5 2abd 3d58 87bc
00000070: f2d8 b23c cefc e0bc 82da 1bbd 6a1e b93c
00000080: c003 a0bd 4112 7dbd e2a2 a33d 83e8 923d
00000090: 34c8 593d a4aa 3fbc ad05 fcbc dce9 2fbb
000000a0: 154a a33d c9b6 78bc 8a6b ecbd de38 febb
000000b0: 03c3 8b3d 7a8d c4bd 1126 a13c 24ff ef3b
000000c0: 1de8 1e3c 0223 1f3c 8ce3 d63d 7383 033d
000000d0: 9729 6c3d 8afc e039 e2b0 e0bc 68e2 46b9
000000e0: 970b 16be c265 cdbd 38a9 bbbc 2ff6 4abd
000000f0: 59d9 773b 194e 2c3d 789b 9d3c 747a c03c
00000100: c3f7 1fbd 7f5d 183d f8f3 d7bd cdc2 f63c
00000110: d815 84bb 7611 8f3d d0b1 22bd 4e8b 7b3d
00000120: 7a25 6e3d 72a9 17be ae4d 54be 92b7 7dbd
00000130: 7f56 ff3c 285b 9e3d 5763 3b3e 6db3 e0bd
00000140: 3538 18be a183 773b d80f 9a3c e60f 1f3c
00000150: 94c7 13bd a12b 073e 384d cabc 67ed 503c
00000160: 99c6 c2bd 0ed4 9f3d 2464 f43d 4c1f bebd
00000170: 4987 df3c 9570 30bc d54e 693c cdb8 fe3d
00000180: 2999 273d 0978 143e 12cd cc3d ff30 f5bd
00000190: be13 f33c 996b 1abe 954b 13be 59c2 aa3d
000001a0: 284a 423e aa1d 0f3d 5799 e2bc 4c9e b03d
000001b0: e557 873c c55d 0ebd cd2a 663d 0ab1 41bd
000001c0: 5692 61bd 161e 3e3e 169e 323d d179 a1bd
000001d0: 122d bf3c be64 03be 2418 a53d d1cb 01be
000001e0: e0f2 283d 0459 20be e51b 913d 676a a3bb
000001f0: f6d2 033d 3eed 053d 1729 e1bd 6057 cc3c
00000200: 5e8f 643d 3ca9 a33d 9378 a73d 4831 07be
00000210: 8d80 ddbc 2957 043d c4f2 0d3e 74fa 353d
00000220: bdeb 58bc 2c7c e53d f99c 06be ae4b 6dbe
00000230: ec88 133e 2755 bbbd c216 b1bd 77a0 00be
00000240: 360a 733d 2fc2 213e 44b2 05bd beed eb3b
00000250: 9c66 70bd 4197 153e 6cb3 9cbb 2508 a83d
00000260: f8ac 47ba 938b 283d 270e dbbc b896 793d
00000270: 0fc9 debb 7c1c 9fbd 8e55 24bd 212d 9b3b
00000280: 14a4 eebc 90e8 afbc 8224 623d 6664 fcbc
00000290: 691b 133e 2836 0f3d 993d 533d 9179 053d
000002a0: a5aa 10be 7e1d 0abc 000e 873d a39c 843e
000002b0: dbb6 373d d49c 3dbe 29d5 c03d a6de fc3d
000002c0: 3045 d63c 1b87 8e3d 769e b8ba 470c fe3d
000002d0: 8766 70bd 2454 4cbd 96af abbc 7139 823c
000002e0: c634 003d 2766 053d f9ed 4cbe 23ff d8bd
000002f0: f27b fd3b cc8f aabd 9f9d 93bc 9127 b0bd
00000300: 02e0 b6bd a286 14bd 45bb e43d 6e8b a43c
00000310: d476 453d 03b6 fbbd 1b41 c33d 6c8b 6c3c
00000320: 8230 8cbd b677 773d f3d7 98bd 0e16 5ebe
00000330: b971 b83c 1dfd 1c3c 788a 803d 5ae4 89bd
00000340: 9fea 57bd fa27 353d d700 d83d 346d f5bc
00000350: b23e 81bd 7c1d 90bc 0b75 c5bb d7d2 efbb
00000360: a665 b8bd dc36 c0bc 43a2 be3c 0786 503d
00000370: e69c 493c d753 163d 572e 8a3d bd12 8abd
00000380: 22af 96bd 6279 90bc 2ef8 933d d221 623d
00000390: 7267 103d cc2f 8c3d 21bc 21bd 144b 0539
000003a0: 6f1f b2bc e07a d0bb ce00 9c3b 0186 d3bc
000003b0: 6175 8a3d e70c 363d 4930 593d 128d 183d
000003c0: 0f97 89bd 3cd2 cd3d 0c56 be3c e273 603d
000003d0: 046c 2abd d417 72bd 61d0 ca3a 4c02 f5bc
000003e0: 4952 ccbc 8f5a acbd 16cf e13d 364f 983c
000003f0: e7ae bd3d 0431 d33d 3e69 29be 27fe 8f3b
-0.05150734 -0.043303963 0.021982532 -0.032700673 0.012617365 -0.003137862 0.1040084 0.117473714
-0.14203013 0.123099506 -0.12089744 -0.11498098 0.03248645 -0.041607805 0.026621135 -0.054229636
-0.024015898 0.11548889 -0.11332516 0.0039272346 -0.14887126 0.07055709 0.07514528 0.009632915
-0.07231016 0.0020689392 -0.041738063 -0.016521567 0.021831963 -0.027464297 -0.038050182 0.02259751
-0.07813215 -0.061784986 0.07990052 0.07173254 0.053169444 -0.011698399 -0.030764425 -0.0026842272
0.079731144 -0.015180298 -0.11543949 -0.007758244 0.06824305 -0.09597297 0.019671472 0.0073241163
0.009698895 0.009712936 0.1049262 0.03210778 0.05765685 0.00042912766 -0.027428094 -0.00018967094
-0.14652859 -0.100291744 -0.022907838 -0.049551185 0.0037818758 0.042066667 0.019239172 0.02349589
-0.039054643 0.03719854 -0.1054458 0.030122185 -0.0040309243 0.06985752 -0.039720356 0.06141215
0.05814121 -0.14810732 -0.20732757 -0.061942644 0.031169174 0.077322304 0.18299614 -0.10971723
-0.14865191 0.0037767666 0.018806383 0.00970838 -0.036079004 0.13200237 -0.024695024 0.012751914
-0.09510536 0.07804118 0.11933163 -0.09283313 0.027286189 -0.010769029 0.014239986 0.12437592
0.04091755 0.14498915 0.100000516 -0.11972236 0.0296725 -0.15080108 -0.14384301 0.0833785
0.18973601 0.0349404 -0.027661009 0.08623943 0.016521404 -0.034757394 0.05619316 -0.04728798
-0.055071197 0.18566164 0.043607794 -0.07884563 0.02333692 -0.12831399 0.08061245 -0.12675406
0.04124725 -0.15658957 0.070853986 -0.0049870494 0.03218361 0.032696955 -0.109941654 0.024944007
0.055800788 0.07991263 0.081772946 -0.13202393 -0.027038837 0.032309685 0.13862139 0.044428304
-0.013239798 0.112053245 -0.13145818 -0.23173401 0.144077 -0.09147101 -0.08646919 -0.12561212
0.05933591 0.15796731 -0.03264071 0.007199972 -0.058691606 0.1460848 -0.004782131 0.082046784
-0.0007617022 0.041148733 -0.026740147 0.060934752 -0.0067988704 -0.07769105 -0.040120654 0.0047356044
-0.029130973 -0.0214732 0.055210598 -0.030809592 0.14365925 0.034963757 0.051572416 0.032586638
-0.14127596 -0.008429883 0.06594467 0.25900754 0.04485212 -0.18516856 0.09415657 0.12347154
0.026156038 0.06959363 -0.0014085311 0.124046855 -0.058691528 -0.04988493 -0.02095775 0.01589653
0.03130033 0.032568123 -0.20012654 -0.105955385 0.0077357227 -0.08328208 -0.018019496 -0.08601297
-0.08929445 -0.03626121 0.11168531 0.020086017 0.048209026 -0.12290575 0.09533902 0.014437538
-0.0684519 0.0604169 -0.07463064 -0.216881 0.022515165 0.009581831 0.06276411 -0.06733008
-0.052713986 0.044227578 0.10547035 -0.029959299 -0.06310786 -0.017592184 -0.0060259155 -0.0073188352
-0.09003763 -0.023463659 0.023270732 0.05090907 0.012305474 0.03670105 0.0674712 -0.06741855
-0.07357623 -0.017636005 0.07225071 0.055208035 0.035254903 0.06845054 -0.039486054 0.00012711837
-0.021743504 -0.006362304 0.004760838 -0.025820734 0.067606695 0.0444459 0.053024564 0.03724391
-0.06718265 0.10049865 0.02323439 0.054798014 -0.041606918 -0.059104756 0.0015473479 -0.029908322
-0.02494158 -0.0841571 0.11025827 0.018592458 0.092618756 0.10312083 -0.16544053 0.004394311

sequential_4/dense_27/MatMul f4 [91, 128]
00000000: 8654 e887 212d 6087 0e16 3b87 2b99 9c07
00000010: eb4a 9189 e543 e6a3 3ed7 9309 4e3f a807
00000020: 7cef ad86 b7c8 c62d 3a88 581d b87f 2095
00000030: 9ea5 ba87 81ec 8d08 df59 c907 0bcf 9f92
00000040: 6cf5 170a a2b3 2d9e bf01 8587 f19f 6007
00000050: 466b 15a1 a960 0708 90b3 3898 75ab d605
00000060: 7d81 f791 6649 aa8a eeed bba2 67dd cb07
00000070: e98a 0907 4c02 0e05 3b2b f096 3e51 8e08
00000080: 5024 2308 e087 4187 083e d307 5827 a987
00000090: 0c56 1209 9f9e a307 7745 8287 c9ff ad07
000000a0: 8afa cc87 ee88 9a8b e7b9 2809 6b5f 1f0a
000000b0: 2b36 9c90 6abd 9289 d030 d707 c32e c49a
000000c0: c341 aaa3 1013 5b07 cfe3 529a e7a8 259a
000000d0: e582 9a07 08bf df07 f209 8e98 1818 9c86
000000e0: c9a3 1f10 bbaa a098 e5f9 2d07 6d48 0807
000000f0: 506b ee07 fb82 c707 37c0 c287 6005 0108
00000100: 3821 ba07 7a89 c0a1 e53b b896 ba93 a707
00000110: 7afa b505 27d9 8387 9387 1308 5358 9b8c
00000120: 3b38 83a3 80cc 8828 b8ff 8688 dd74 5207
00000130: 9bfe 2f07 963f c187 d7e0 3687 a404 998c
00000140: 5043 8e87 d21b 4107 3247 2c97 b02e a707
00000150: 6501 8987 d3a1 3387 d5db 97a0 cfc1 e887
00000160: 05bb 1d08 168e 9207 f49d 5919 ebd3 a907
00000170: ae15 e607 47fa 5907 2ff1 c80b b382 cc17
00000180: c81f caab b778 7b99 26ae 9209 a402 8207
00000190: b546 9887 4406 41aa 0a6c 4907 8055 ac03
000001a0: 004d 0407 5822 6e87 5da9 8395 fd3b 069b
000001b0: 5222 4307 80e6 7205 217f 9aa3 fba0 4e07
000001c0: ed60 450a e5db 088f 81db 8017 eaca d207
000001d0: cbe2 0590 638d 4e07 1b77 0ba5 67ca e287
000001e0: e7a6 a407 be5a 990a 2a47 a887 1475 8708
000001f0: f587 bc07 b55a 0f09 77ee 9687 c2fc 13a7
00000200: 96f5 f7af 680a 190b 8630 11b0 2998 1fae
00000210: a6cf 7d88 6d7f d0a3 2ce0 bda1 0058 9cb0
00000220: a4a0 57af c1bc 2595 e9ac 17a6 80b5 8e95
00000230: b830 e92f 2a82 bf12 a6ec 2688 be6b 1d9c
00000240: 0859 d3af d1e9 869b f7b5 5e2a 120c 2532
00000250: f576 980a c1b6 102b 4fcf 11a9 04f7 241f
00000260: dccb 178a c172 3906 7cc3 9b8d 47a6 6517
00000270: 8bdd 11b3 82ad c3ac aa4d 3717 0f21 0a89
00000280: 3ca6 d331 557e 8788 bfff 4b32 b6b4 7aaa
00000290: c46d 84a3 ff7f 1cb2 faf8 e087 9da4 daaa
000002a0: a176 8b2f 09ab c1a9 6617 1aad b804 448d
000002b0: 88cd 5993 c3fb 0b09 c132 7e9c df53 dea8
000002c0: 4295 c48d 73c3 1191 edd0 afaf 8e1f 0108
000002d0: 00ec 0fb1 8acb 0333 84d4 340b 239b 939c
000002e0: 59ad 8708 c3c8 f4af f520 9a0b 389b 4fa6
000002f0: 9440 d687 f39b 980a 1a99 16ae b7aa 9289
00000300: 6683 4c33 26ba 0187 d60b 5b0a 1968 ea31
00000310: 746f 40ae 0b4f 2a16 3de4 3aab 2bc4 398f
00000320: f4d4 638f dd88 039e 3550 8788 dff8 c721
00000330: 4ecf ac07 4c44 9109 15d8 8497 a3e0 160a
00000340: d95d 9489 1d83 d531 96e9 099f ebc9 d007
00000350: da2c 39af accb 0d30 707d d89e df1b fea8
00000360: 596f 1d30 1542 ca07 8907 709b 00ae 198b
00000370: accb 8f2e 7854 39a6 6b2d 3390 7c38 3999
00000380: ecb9 34a1 6e07 8f91 8671 df22 5646 b32c
00000390: 2701 9389 6ca9 869c b6c9 0eb3 8638 a2ac
000003a0: cf9f 9333 21db 80b2 f338 8a91 f193 8788
000003b0: dee1 c031 e6a7 12ab f12e 8708 89b6 5aaf
000003c0: 5432 9589 eb67 fb07 58ba 0a09 6624 85a9
000003d0: aa38 c107 343d 6006 9574 829f 0125 44b1
000003e0: 4269 3a0a d632 fb9b b4ee 8489 b76c fd87
000003f0: 0e7f 619f 8066 8ab0 a0fa 6d88 3e11 960a
-3.4957159e-34 -1.6865149e-34 -1.4074798e-34 2.3562295e-34 -3.4977933e-33 -2.4965404e-17 3.5591376e-33 2.5315038e-34
-6.542726e-35 2.259913e-11 2.865779e-21 -3.2412495e-26 -2.808351e-34 8.541731e-34 3.029594e-34 -1.0085351e-27
7.316544e-33 -9.195691e-21 -2.0012642e-34 1.689889e-34 -5.062514e-19 4.073871e-34 -2.3872099e-24 2.0187447e-35
-3.9049532e-28 -1.6398014e-32 -5.093837e-18 3.0674174e-34 1.0347556e-34 6.67723e-36 -3.8801373e-25 8.565414e-34
4.9093713e-34 -1.4559636e-34 3.178421e-34 -2.5451418e-34 1.761457e-33 2.4618743e-34 -1.9601054e-34 2.6180484e-34
-3.0841762e-34 -5.952467e-32 2.0309675e-33 7.673518e-33 -6.161461e-29 -3.5326346e-33 3.2378294e-34 -8.113925e-23
-1.8459288e-17 1.6481331e-34 -4.3611004e-23 -3.425764e-23 2.3248278e-34 3.3665589e-34 -3.671618e-24 -5.871608e-35
3.1483396e-29 -4.1531424e-24 1.3088511e-34 1.0252787e-34 3.5873333e-34 3.0019176e-34 -2.930285e-34 3.8825844e-34
2.8005694e-34 -1.3046816e-18 -2.9764602e-25 2.5214193e-34 1.7113169e-35 -1.983832e-34 4.439557e-34 -2.393469e-31
-1.4226863e-17 1.5187721e-14 -8.124951e-34 1.5832987e-34 1.3240359e-34 -2.9076785e-34 -1.3758233e-34 -2.3576175e-31
-2.1405348e-34 1.4527882e-34 -5.566606e-25 2.5154808e-34 -2.0614289e-34 -1.3514019e-34 -2.5725868e-19 -3.502139e-34
4.746531e-34 2.205115e-34 1.12505354e-23 2.5552848e-34 3.4619296e-34 1.6398815e-34 7.740009e-32 1.3216184e-24
-1.4361784e-12 -1.3000774e-23 3.531199e-33 1.9561778e-34 -2.2911976e-34 -1.7144017e-13 1.5153309e-34 1.0128881e-36
9.953205e-35 -1.7915223e-34 -5.3177687e-26 -1.1103603e-22 1.4680255e-34 1.14211215e-35 -1.6750555e-17 1.5545025e-34
9.503435e-33 -6.747668e-30 8.327217e-25 3.171655e-34 -2.640434e-29 1.5539267e-34 -1.2096683e-16 -3.4123662e-34
2.4774074e-34 1.4767497e-32 -2.5319657e-34 8.152542e-34 2.8367004e-34 1.725565e-33 -2.2709649e-34 -2.0537368e-15
-4.5103538e-10 2.9474557e-32 -5.281965e-10 -3.628756e-11 -7.6378508e-34 -2.2605372e-17 -1.2866476e-18 -1.1375505e-09
-1.9611207e-10 -3.3470385e-26 -5.2622986e-16 -5.76397e-26 4.241707e-10 1.2085883e-27 -5.0231987e-34 -5.2086196e-22
-3.8443937e-10 -2.231954e-22 1.9780693e-13 9.6070085e-09 1.4681814e-32 5.14127e-13 -3.237628e-14 3.4932677e-20
-7.308727e-33 3.487894e-35 -9.599674e-31 7.420376e-25 -3.3961935e-08 -5.5614966e-12 5.9228515e-25 -1.662669e-33
6.159807e-09 -8.1547175e-34 1.1874305e-08 -2.2267157e-13 -1.4357956e-17 -9.109498e-09 -3.385011e-34 -3.8838803e-13
2.5368244e-10 -8.6005916e-14 -8.759082e-12 -6.0402843e-31 -2.7490585e-27 1.6849894e-33 -8.410715e-22 -2.4683324e-14
-1.2115365e-30 -1.149871e-28 -3.1980765e-10 3.885662e-34 -2.094339e-09 3.0685932e-08 3.4826618e-32 -9.767746e-22
8.165771e-34 -4.452599e-10 5.936823e-32 -7.202791e-16 -3.2237097e-34 1.4695729e-32 -3.4242033e-11 -3.530876e-33
4.7616957e-08 -9.759585e-35 1.05466925e-32 6.822131e-09 -4.3754736e-11 1.3757432e-25 -6.639722e-13 -9.158985e-30
-1.1232977e-29 -6.963385e-21 -8.1438735e-34 1.355064e-18 2.6001526e-34 3.4971706e-33 -8.584847e-25 7.264487e-33
-3.5717958e-33 6.2140217e-09 -2.9204096e-20 3.1415038e-34 -1.6841586e-10 5.1584936e-10 -2.292177e-20 -2.8211752e-14
5.72745e-10 3.0432421e-34 -1.985477e-22 -2.959763e-32 6.5390665e-11 -6.4299245e-16 -3.5336514e-29 -9.575683e-24
-6.123244e-19 -2.2566e-28 6.056447e-18 5.095295e-12 -3.5390046e-33 -8.911171e-22 -3.3245406e-08 -4.6105923e-12
6.87429e-08 -1.500081e-08 -2.1807659e-28 -8.159798e-34 5.6136136e-09 -5.2102626e-13 8.136053e-34 -1.9891834e-10
-3.5917774e-33 3.782736e-34 1.6698764e-33 -5.9127006e-14 2.9072717e-34 4.2174682e-35 -5.525001e-20 -2.8542788e-09
8.975371e-33 -4.1557319e-22 -3.200232e-33 -3.8131106e-34 -4.77507e-20 -1.0069954e-09 -7.16142e-34 1.445096e-32

sequential_4/dense_28/MatMul f4 [1, 91]
00000000: bbd9 54b7 0578 e43a 4cbc 2535 08ab 893d
00000010: 5b1f 193d 28a2 8d3d a991 6d3a b715 2c3e
00000020: ce01 c43c cc78 c23d be4a 7fb8 afff 993d
00000030: 7653 1dba a3ec 3ab7 c551 bd3d a9c8 12ba
00000040: 4792 9d39 666e 023e 44f9 d43d 79f0 383a
00000050: c646 bf3d 9bb0 aa3c 56a7 e23d e955 233d
00000060: 4494 013e 4354 06b9 c814 223d 7efe 113e
00000070: f310 2e3b 529c a13d 0728 f93c 0dda c63c
00000080: 65da cd3a beef 1c3d f2d7 053e a1dc 003e
00000090: 1c58 8c3d 5957 44bb 4be8 823d c68a 5dba
000000a0: 920d 183e 0c5f 8ab3 8fd5 053c 7371 40ba
000000b0: a2f0 bba8 5ab1 823d 0c14 22b8 fdfb 233b
000000c0: 8eb0 b43d 6a09 6437 f89b 193d 7596 c73a
000000d0: e133 913d b2be 6839 17b1 a43d cb25 9b3d
000000e0: 9120 873d 3e0a c43b a95e cbbb 124f 2f3e
000000f0: 81c9 93ba 287f cc3a b4c1 e9b6 6c66 d2b9
00000100: d1f0 193b 05d9 b9b9 6a13 c3b8 6407 d739
00000110: 7855 0abc 8f95 fc3d 2e34 be3d 73e8 893d
00000120: 035f 893d f414 e73c ed12 f03c 3241 333b
00000130: 9093 0db2 570f 08bb 1f53 2bb7 0bae a73d
00000140: 30a4 8736 ee01 abba 3b52 4c3d 3081 c13d
00000150: b556 2aba 2119 b3b1 7696 ba3d 827f 4a3d
00000160: 84e7 0cbc 25a7 803d 5d7f 6839
-1.2686879e-05 0.0017430788 6.17413e-07 0.06722075 0.03738342 0.069156945 0.00090625376 0.16805159
0.023926642 0.094956964 -6.0866347e-05 0.07519471 -0.00060015114 -1.114156e-05 0.09244112 -0.00055993587
0.0003005436 0.12737426 0.10399106 0.0007054876 0.09339671 0.020836165 0.11067073 0.039876852
0.12654215 -0.00012810626 0.0395706 0.14257237 0.0026560395 0.07891144 0.030414594 0.024273897
0.0015705345 0.038314573 0.13070658 0.12584163 0.06852743 -0.002995929 0.063919626 -0.000845116
0.14848927 -6.443415e-08 0.008168592 -0.0007341124 -2.0865528e-14 0.063814834 -3.864248e-05 0.0025022023
0.08822738 1.3592051e-05 0.03750226 0.0015227335 0.07089973 0.00022196284 0.0804159 0.07575568
0.065980084 0.0059826663 -0.0062063527 0.17120007 -0.0011275263 0.001560186 -6.966491e-06 -0.00040130632
0.0023489485 -0.00035447642 -9.301941e-05 0.00041013502 -0.008443229 0.123332135 0.09287296 0.06733789
0.06707575 0.028208233 0.0293059 0.0027352092 -8.240832e-09 -0.0020761096 -1.0211747e-05 0.08187493
4.0424275e-06 -0.001304684 0.04988311 0.09448469 -0.00064979057 -5.2124425e-09 0.091107294 0.049438007
-0.0086001195 0.0628188 0.0002217269
