app/src/main/assets/model_cla_red.tflite (tflite, 20408 bytes, 9 tensors)

sequential_7/batch_normalization_7/batchnorm/mul f4 [7]
000000 a3 d3 ac 41 a5 58 d6 41 c7 8b 5d 42 5d 5f 37 42
       21.603338 26.793283 55.3865 45.84313
000010 91 9e a1 42 47 72 4b 42 21 d1 45 42
       80.8097 50.8616 49.454227

sequential_7/batch_normalization_7/batchnorm/sub f4 [7]
000000 22 39 9b c1 74 f9 b1 c1 75 a5 49 c2 d3 2f 2d c2
       -19.402897 -22.246803 -50.41158 -43.296703
000010 3f 55 94 c2 72 e8 39 c2 b2 c7 35 c2
       -74.1665 -46.476997 -45.445015

sequential_7/dense_28/MatMul/ReadVariableOp/transpose f4 [32, 7]
000000 75 06 7c bd 51 49 dd 3e 9b 5c 1c 3d aa 5e 80 be
       -0.061529595 0.43219998 0.038174253 -0.25072223
000010 46 3b aa be 6c eb 44 3e 14 6a 04 bb 1e 39 fc bd
       -0.33248347 0.19230431 -0.002020483 -0.12315582
000020 60 9c 0a 3e 2a 0c 4f be fb 0c df 3d 5c b1 ac be
       0.13536215 -0.20219484 0.10891148 -0.33729064
000030 88 94 5e 3d 3e 5e 3d 3f 71 3c 13 3d 85 8d bd be
       0.05434087 0.7397193 0.035946313 -0.37022033
000040 71 55 a2 3e 5f 0a 0c 3e d0 c5 bf 3d dc ea 21 bc
       0.31705812 0.13675831 0.093639016 -0.009882655
000050 ed 28 94 be 13 c2 8a 3e 80 02 fb bd 73 55 16 be
       -0.28937474 0.27101192 -0.12256336 -0.14681034
000060 bf cf 26 3f 93 16 17 be d5 c5 f1 bd d9 06 a6 3e
       0.65160745 -0.14754705 -0.118053116 0.324271
000070 3e d7 ca 3d 0a 7a 01 bf bf 2a 16 3e 64 ed 36 3e
       0.099043354 -0.5057684 0.14664744 0.17863995
000080 58 2a b9 be 8a 5a 07 3f 7b 5e 29 3d 48 74 38 bd
       -0.36165118 0.52872527 0.04134987 -0.04503277
000090 2d 6a b9 3e cc e9 12 bf 73 aa 27 3e 8f 14 e4 bd
       0.36213818 -0.57387996 0.16373615 -0.11136734
0000a0 8a d1 4e 3e 72 61 84 3c f6 de cc 3d 81 db b4 3d
       0.2019712 0.016159747 0.10003464 0.088309295
0000b0 72 d9 a3 be 27 34 53 3f d9 8a 3e 3d d4 4a 12 be
       -0.32001835 0.82501453 0.046519134 -0.14286357
0000c0 7f 31 81 3d 18 a6 97 3e 59 1b e9 be 35 e9 cc 3e
       0.06308269 0.29618907 -0.45528677 0.40021673
0000d0 14 08 51 3d ff 8f b3 3d a1 fa fb bd 6e 70 f2 be
       0.051033095 0.087676995 -0.12303663 -0.47351402
0000e0 45 7b 3c bd e6 fa c1 3e 75 6f 10 3d db 6c 14 bf
       -0.046015996 0.37886733 0.035262544 -0.579786
0000f0 1a e0 88 3c 33 05 ef 3e da 28 53 3e b1 9d 11 3f
       0.016708422 0.46683654 0.20621052 0.56881243
000100 15 b1 0a bf a7 91 69 bd ff 8c f7 3c 8e cf 71 3d
       -0.54176456 -0.05702367 0.0302186 0.05903583
000110 c8 f0 b8 3e f6 a3 90 be e5 9a fc 3d cc be ee bd
       0.36121202 -0.28250092 0.12334231 -0.11657485
000120 40 61 97 3e b4 eb dd bc 02 40 82 be 3d ca dc ba
       0.29566383 -0.027089931 -0.2543946 -0.001684494
000130 23 eb 89 be f5 1b 41 bd 02 e7 0b 3e a4 79 8a be
       -0.26937208 -0.047145803 0.13662341 -0.2704593
000140 43 17 97 3e c0 8f 89 bc f3 6d af be 8e f4 83 3e
       0.29509935 -0.016792178 -0.34263572 0.25772518
000150 3c cb c7 bc 48 ed c3 3e aa 1c a3 3d 14 0c c9 bd
       -0.024388902 0.3826697 0.079644516 -0.09816757
000160 66 9f 2a be 28 f7 3b bd 92 7e 01 bf 8b 20 5d 3e
       -0.16662368 -0.045890003 -0.50583756 0.21594445
000170 00 6e c2 3e 7a 12 1f bf 17 70 33 3c 6c 18 39 3d
       0.37974548 -0.6213757 0.010952017 0.045189306
000180 ea df 15 bd 72 0f 42 be 13 87 ea be bb 52 ba 3e
       -0.036590494 -0.18951204 -0.45806178 0.36391243
000190 4d 79 13 be 80 d8 03 3e cb 6d b5 3d 1f fb ed be
       -0.14401741 0.12875557 0.08858832 -0.46480653
0001a0 f6 ec c2 3d da cc 5f be 0a 28 f0 3e f8 5d f9 be
       0.09517853 -0.21855488 0.46905547 -0.48704505
0001b0 7d a7 91 bd f2 a8 85 3e d4 3c 83 3e 45 11 af bd
       -0.07112024 0.26105458 0.25632346 -0.08548216
0001c0 6b af 8f be 01 f6 ee 3e 13 a6 a4 bf 38 5a fe be
       -0.2806352 0.4667206 -1.2863182 -0.49678206
0001d0 c7 72 f8 3e 64 01 46 3f 7c 6b de 3e 33 78 27 3f
       0.48525068 0.7734587 0.4344138 0.65417784
0001e0 e7 f7 83 be 6f b0 9b 3e 9a ce 1c 3e 47 41 4a bf
       -0.25775072 0.30408046 0.15313187 -0.79005855
0001f0 9e ea df 3d 36 85 e6 be 68 7d 1c be a1 96 03 3e
       0.109334216 -0.45023507 -0.15282214 0.12850429
000200 87 46 f3 bd 4c dd 9c be 5e c3 16 be 98 3a 93 3e
       -0.118786864 -0.30637586 -0.14722964 0.2875564
000210 df 17 1e 3f f1 f5 f8 be cc 75 0d 3f e0 63 cf bd
       0.61755174 -0.48625138 0.5525787 -0.101264715
000220 a4 f5 b3 3e af 20 5e be 02 75 bf be cd 67 f6 bc
       0.35148346 -0.21692155 -0.37393957 -0.030078793
000230 66 57 a4 3d 21 28 88 3d 3e 82 76 be 50 34 82 3e
       0.080244824 0.06648279 -0.24073121 0.25430536
000240 18 b0 bf 3e 76 fe 04 bf 92 07 23 be 61 8e 94 bd
       0.37439036 -0.51950777 -0.15920857 -0.07253719
000250 30 f0 5c 3e 7d 4c db be 4f 11 71 bd b5 4d 33 3f
       0.21576 -0.42831793 -0.058854397 0.70040447
000260 e0 93 a2 be fb 68 38 be 52 3a 5a be 1e f0 0b 3f
       -0.31753445 -0.18008797 -0.2131131 0.54663265
000270 c5 e9 21 bf 32 00 dc bd c7 31 28 3f d5 1f 05 bf
       -0.6324733 -0.10742225 0.65700954 -0.52001697
000280 4e b9 d5 bd 19 56 b9 3c 5a ad 57 3e d6 1b d2 be
       -0.10435735 0.022624062 0.21062222 -0.41036862
000290 50 ab 6a 3f d1 9e 29 bd 50 38 0c bf 77 76 a2 bd
       0.9166765 -0.041411225 -0.54773426 -0.079327516
0002a0 64 37 e1 3e a1 ef 82 3c ad ee da 3e ae 88 91 bd
       0.43987572 0.015983405 0.4276022 -0.07106148
0002b0 a9 a9 bc be da 2e 9c 3e 21 90 c1 be 31 53 67 be
       -0.3684819 0.30504495 -0.37805274 -0.22590329
0002c0 ca 58 82 3e f2 d0 ae 3e 5b 83 b4 3e bc db d5 be
       0.25458366 0.34143788 0.35256466 -0.41769207
0002d0 28 3f 06 bf 0d fe ef be 69 3e 50 be c4 0c e7 3d
       -0.5244012 -0.46873513 -0.20336308 0.11281732
0002e0 e6 1b 85 3e e2 10 2e 3e 06 c4 a0 be 2f c4 64 be
       0.25997847 0.16998628 -0.31399554 -0.22340463
0002f0 c1 15 81 3e a9 29 84 3d c8 ec be 3e ea 3c 26 bf
       0.2521191 0.064532585 0.37290025 -0.649367
000300 04 58 9f 3d 1e 2d 96 3e 84 29 2e be ee d0 93 3d
       0.077804595 0.29331297 -0.17008024 0.072175846
000310 d4 10 ed 3e e4 cb 0c be 92 cd bf be ed 1f 92 3e
       0.463019 -0.13749653 -0.37461525 0.28539982
000320 5f fe 6c be cb c3 f7 be 16 54 40 3f e9 3b b0 3e
       -0.2314391 -0.48391566 0.75128305 0.34420708
000330 74 87 04 3e f2 3b 16 bf 42 7f 40 3c 4e 55 08 be
       0.12942296 -0.5868522 0.011749091 -0.13313791
000340 82 2d 81 3e 31 ee 09 3e f8 6b b2 3e 57 12 2b be
       0.25230032 0.13469769 0.34848 -0.16706215
000350 55 df 58 be be a6 13 3d 0b 6a d0 bd 06 8a eb bd
       -0.21178944 0.03604769 -0.10176476 -0.11500935
000360 47 0a c7 3e 66 54 00 be 7f ff 7d 3e 17 fe 0e be
       0.38875028 -0.12532195 0.24804495 -0.13964115
000370 f4 cc e3 bb f9 2b f8 bb e7 5c ac bd 9d 01 62 3d
       -0.0069519226 -0.0075736013 -0.08416157 0.05517732

sequential_7/dense_28/MatMul_bias f4 [32]
000000 09 82 3c 3e d9 01 35 3e 68 4b 69 3d 5a d4 bb bd
       0.1840898 0.17676486 0.05695668 -0.09171362
000010 36 49 a2 3e 01 8f 3a 3e e6 cd 85 3e 3a 2a a4 3d
       0.3169648 0.18218614 0.2613365 0.080158666
000020 1c 4e 95 bb 4f f0 bb 3d 40 7a 1a 3d 97 20 ee 3d
       -0.0045564305 0.091766946 0.037714243 0.1162731
000030 a0 15 21 3e be 53 54 3e 56 b3 d8 3d 0d 79 db 3d
       0.15730906 0.2073507 0.105810806 0.10716448
000040 2d aa 15 bf 66 0c 8d be 48 3b 70 3d 00 cd 96 3d
       -0.5846279 -0.27548522 0.058650285 0.073633194
000050 25 65 29 3e 25 d9 95 3e 85 5e da bd 88 f4 32 3c
       0.1654249 0.2926723 -0.106625594 0.010922559
000060 49 eb 21 3e b8 77 db be a5 54 0f 3e 30 d2 28 3e
       0.1581241 -0.42864776 0.13997133 0.1648643
000070 ef 45 90 bc 69 8c 3e bc 23 12 1f 3e 3d 0c 55 3d
       -0.017611472 -0.011630156 0.15534262 0.052013624

sequential_7/dense_29/MatMul/ReadVariableOp/transpose f4 [64, 32]
000000 60 82 c5 07 f5 99 30 88 fc 41 1f 87 fe 50 aa 06
       2.9717893e-34 -5.314405e-34 -1.1981222e-34 6.40659e-35
000010 97 2c 68 06 db db 3a 08 85 e5 1c 08 97 0c 1d 08
       4.366711e-35 5.623078e-34 4.721434e-34 4.726027e-34
000020 4d 13 4c 87 67 ca c9 87 34 fc d4 86 3a 89 00 08
       -1.5352926e-34 -3.036208e-34 -8.0116116e-35 3.867991e-34
000030 0e d5 2b 88 5b 93 81 07 53 b5 0c 88 ba de 3c 07
       -5.1708885e-34 1.949637e-34 -4.2342863e-34 1.4209001e-34
000040 98 32 f4 85 45 72 a9 87 8d 99 29 88 34 d0 17 07
       -2.2964235e-35 -2.5495455e-34 -5.1037086e-34 1.1421163e-34
000050 bf 1b b9 87 66 8c 31 08 bc 59 12 88 6d 48 2e 88
       -2.7852014e-34 5.3429038e-34 -4.404076e-34 -5.2446356e-34
000060 d8 53 f7 87 90 37 7c 07 2b 6f 04 08 2d 48 d0 06
       -3.7213708e-34 1.8974701e-34 3.9852982e-34 7.8346957e-35
000070 18 2b 31 08 69 3d 24 08 eb 56 19 07 01 0b f6 87
       5.3314656e-34 4.942414e-34 1.1535984e-34 -3.7020434e-34
000080 37 32 c7 3c 6f a6 ba bc 03 50 00 bc c4 86 2d bd
       0.024315936 -0.02278444 -0.007831576 -0.04236485
000090 b6 f1 30 3d 1a c8 f6 3c b8 2c fb 3c 7a 6f d6 3c
       0.043199264 0.030124713 0.030660972 0.026176203
0000a0 76 d2 28 3b 07 a7 f1 bc 94 63 58 3c 7a ad 87 3c
       0.002576021 -0.02949859 0.013207335 0.016562212
0000b0 67 64 e1 bc 34 33 e3 3c a7 2c f7 3c 71 17 1b bd
       -0.027513696 0.027734376 0.03017266 -0.037864152
0000c0 de 94 28 3d 00 96 36 bd 4a 21 3f 3a b5 b5 17 bd
       0.041157596 -0.044576645 0.0007291032 -0.037038524
0000d0 37 c1 b4 bc 87 a1 2b 3d b2 be 43 bd 7e 32 13 bc
       -0.022064788 0.04190209 -0.047789283 -0.008984206
0000e0 3e d5 99 3c 78 62 d8 3c c4 70 31 3c a5 b0 b9 3c
       0.01877844 0.026414141 0.010830108 0.022667238
0000f0 32 10 e8 3c 0c 89 fc bc a6 a5 f0 bb 1a 0e e1 3b
       0.028328035 -0.030827068 -0.0073439656 0.006868136
000100 a4 2b a3 87 ac 02 b6 06 00 ee 07 88 d0 a8 26 88
       -2.4551164e-34 6.8464717e-35 -4.0904852e-34 -5.0152246e-34
000110 01 2b 27 88 02 73 e7 87 f4 bc 58 87 e3 e1 3a 08
       -5.0305285e-34 -3.4824612e-34 -1.6305562e-34 5.6237868e-34
000120 b7 f5 ce 87 90 5c e9 87 4a 29 49 87 1c c1 3d 06
       -3.1139853e-34 -3.5112347e-34 -1.5133693e-34 3.5688824e-35
000130 8f 05 37 07 96 93 04 88 c2 ca a6 07 bd 59 14 08
       1.3769023e-34 -3.989579e-34 2.5096074e-34 4.4642617e-34
000140 68 c8 c3 05 f6 e3 c8 87 21 28 8b 07 3c 51 d7 87
       1.841133e-35 -3.0226639e-34 2.093798e-34 -3.239735e-34
000150 fd 85 23 88 04 a3 1e 06 70 2c 37 08 9f b9 bf 07
       -4.920853e-34 2.9836262e-35 5.5121795e-34 2.8847584e-34
000160 cf 9a 02 07 9a e8 3b 07 fd d6 91 06 14 13 0e 08
       9.825607e-35 1.4136672e-34 5.4858835e-35 4.2753997e-34
000170 ff 02 6f 07 41 1c 15 08 d9 46 e9 07 29 8e 59 87
       1.7981242e-34 4.487127e-34 3.5099584e-34 -1.6367043e-34
000180 36 1f 14 08 36 a9 09 08 18 07 44 85 10 02 25 87
       4.457382e-34 4.1425844e-34 -9.2171786e-36 -1.2413826e-34
000190 7c ed 1f 87 d9 51 c3 86 37 f5 a7 87 06 5e cc 07
       -1.2031621e-34 -7.347111e-35 -2.5271492e-34 3.074977e-34
0001a0 e7 09 a2 87 6c e2 15 88 a4 d9 ff 87 9d 12 ae 87
       -2.438087e-34 -4.5104214e-34 -3.8496053e-34 -2.619155e-34
0001b0 ad d7 82 87 75 e5 17 88 90 10 10 88 30 1a 26 86
       -1.9686989e-34 -4.5709635e-34 -4.3352893e-34 -3.124037e-35
0001c0 c8 fd ae 87 d8 c1 38 08 00 35 11 87 a4 11 96 86
       -2.632977e-34 5.559835e-34 -1.0924163e-34 -5.644965e-35
0001d0 e7 16 53 87 9c 5c be 87 00 14 3d 04 b0 40 b9 05
       -1.5880606e-34 -2.8642454e-34 2.2226027e-36 1.7421079e-35
0001e0 58 9d 71 07 15 20 22 08 9c 99 7e 07 6f 93 f5 86
       1.8177064e-34 4.8787814e-34 1.9153978e-34 -9.237539e-35
0001f0 e3 0c 9d 07 96 b1 48 06 4b b7 24 08 2b 7d 3a 07
       2.3630309e-34 3.774629e-35 4.9567415e-34 1.4029868e-34
000200 eb 32 3d 3d d7 45 24 bd c2 14 43 bc 27 20 99 bd
       0.046191137 -0.040105667 -0.0119068045 -0.07476836
000210 83 a7 a3 3d 1c 3a 74 3d 76 66 68 3d 9b e5 5c 3d
       0.07990935 0.05962573 0.05673834 0.053929906
000220 90 4e 0a 3c 4f fb 61 bd 0c 26 d4 3c 16 6d 15 3d
       0.008441582 -0.055171307 0.025897048 0.036480986
000230 a5 8c 3c bd 02 9a 58 3d 39 87 78 3d f2 7f 8b bd
       -0.046032567 0.05288125 0.060675833 -0.06811513
000240 eb 94 a2 3d f3 03 9e bd 76 72 d6 3b 98 89 85 bd
       0.0793856 -0.07715597 0.0065444065 -0.065203846
000250 9f 57 24 bd b4 0a a8 3d 4c a8 c0 bd e4 86 6c bc
       -0.040122624 0.082051665 -0.094071 -0.014436457
000260 2b 52 1d 3d 8a c1 4e 3d 7d 1b b0 3c f0 f5 31 3d
       0.03840844 0.050477542 0.021497482 0.043447435
000270 63 7c 6b 3d 86 6b 7e bd e0 a5 38 bc ba b6 67 3c
       0.05749167 -0.06211426 -0.011270016 0.0141426865
000280 6f 1a ca 87 e6 02 9e 86 32 0b 19 08 08 07 55 07
       -3.0409118e-34 -5.9437253e-35 4.6054923e-34 1.6026405e-34
000290 e0 ce 38 87 b6 5a b0 86 f4 4d 87 86 57 49 ee 06
       -1.3903417e-34 -6.633713e-35 -5.08959e-35 8.9633413e-35
0002a0 d4 c1 1a 85 32 10 75 86 a0 2a 20 08 b5 c4 86 87
       -7.276646e-36 -4.6091277e-35 4.8198354e-34 -2.0277693e-34
0002b0 1f 16 46 07 fc d8 6e 87 39 57 41 08 df e6 00 87
       1.4902365e-34 -1.7968896e-34 5.8181355e-34 -9.697497e-35
0002c0 42 c0 05 08 99 41 d3 87 fa 34 e7 06 40 62 df 83
       4.024923e-34 -3.1786306e-34 8.6970384e-35 -1.3129319e-36
0002d0 20 f3 99 87 e0 17 9a 07 c9 fc 1c 08 0d e8 18 88
       -2.3163777e-34 2.3185377e-34 4.724169e-34 -4.601361e-34
0002e0 2e 4a d9 07 2a 47 1a 88 f0 64 d0 86 c2 9f 48 07
       3.269413e-34 -4.642634e-34 -7.838922e-35 1.5093276e-34
0002f0 30 6c f0 06 a8 ad 93 07 29 55 15 08 8c 7e 6d 87
       9.0436933e-35 2.2220168e-34 4.493816e-34 -1.7867087e-34
000300 0b 1e 0d 3d a5 fa f8 bc 20 f3 20 bc a0 c0 6a bd
       0.03445248 -0.030392954 -0.0098235905 -0.057312608
000310 47 bb 76 3d db 53 32 3d 8c 3f 2f 3d 26 36 1f 3d
       0.060237195 0.043537002 0.042785212 0.03887
000320 bb 0b ad 3b f0 f6 28 bd 8f 8d 9b 3c 37 6d d0 3c
       0.0052809394 -0.041251123 0.018988399 0.025442703
000330 f3 65 13 bd a7 f1 20 3d 1e 93 34 3d ca ea 53 bd
       -0.0359859 0.039292958 0.044085614 -0.051737584
000340 b3 e2 6f 3d 81 fb 73 bd e3 47 52 3b 2a 31 4d bd
       0.058565807 -0.059566025 0.0032086305 -0.050095715
000350 fd 96 f8 bc 41 5f 76 3d c1 72 8c bd 98 85 3a bc
       -0.030345434 0.060149435 -0.06857825 -0.01138439
000360 4b 19 e3 3c fa 31 19 3d 0f 67 82 3c 37 25 04 3d
       0.027722022 0.037401177 0.015918283 0.032262053
000370 61 c2 29 3d e5 61 37 bd 4f d0 16 bc b4 db 28 3c
       0.04144514 -0.044771094 -0.009204938 0.010306288
000380 00 81 05 08 9e 1a 3a 08 24 67 10 88 42 88 0d 88
       4.017487e-34 5.6003627e-34 -4.3454665e-34 -4.2590814e-34
000390 a5 7b ff 87 0b 63 ad 87 61 fa be 86 1f cc 40 08
       -3.8440807e-34 -2.608836e-34 -7.1837955e-35 5.801784e-34
0003a0 62 cb d3 07 69 d7 3b 88 68 8f 2c 07 07 bc 14 86
       3.186729e-34 -5.652648e-34 1.2981985e-34 -2.7973847e-35
0003b0 13 0b ea 87 65 f7 00 87 62 2d 0e 08 37 69 06 08
       -3.5214916e-34 -9.702352e-35 4.278492e-34 4.0447838e-34
0003c0 00 5d 92 83 27 93 b3 07 0b 42 88 87 f7 fe 85 86
       -8.6024605e-37 2.7019415e-34 -2.0501822e-34 -5.0403677e-35
0003d0 a0 af 10 08 28 5d 5c 87 68 80 9d 86 86 3f 33 08
       4.353987e-34 -1.6578337e-34 -5.924551e-35 5.3940525e-34
0003e0 88 66 09 88 84 7a c6 07 58 73 3a 08 6e 80 3f 06
       -4.1347463e-34 2.9863737e-34 5.6107925e-34 3.6017463e-35
0003f0 93 fe 9b 87 db 77 20 88 0c 54 e5 87 4c b0 14 08
       -2.3471433e-34 -4.828914e-34 -3.4505489e-34 4.4744366e-34

sequential_7/dense_29/MatMul_bias f4 [64]
000000 74 8f 20 b5 1a 82 11 3e 42 4b 03 b8 94 51 43 b4
       -5.9813397e-07 0.14209786 -3.1302923e-05 -1.8190468e-07
000010 60 7d 1f 3e 30 0e e1 b6 2a d6 14 3e da b4 65 bc
       0.1557517 -6.707174e-06 0.14534822 -0.014020169
000020 b4 0f 22 3e da d0 e6 ba e7 9d 06 3e e2 8d 21 b5
       0.15826303 -0.001760985 0.13146172 -6.018364e-07
000030 e8 c0 0e b6 88 16 4c b5 e0 e5 a5 b4 40 48 10 3e
       -2.1271935e-06 -7.602871e-07 -3.09009e-07 0.14090061
000040 52 eb 9f b2 0d 3e 0e b5 0e c7 0c 3e 07 01 48 bc
       -1.8617047e-08 -5.298942e-07 0.13747808 -0.012207276
000050 3f dc 55 3d 29 d8 1f 3e 9e c0 c4 bb 11 c7 25 3e
       0.052211996 0.15609802 -0.006004407 0.16189219
000060 e9 10 43 b5 00 13 1a 3e cf 1c b6 b3 1f 13 ce b4
       -7.266777e-07 0.1504631 -8.480276e-08 -3.8384403e-07
000070 45 ff a8 b8 fc 44 ea b3 27 8e 2d b5 99 1d 15 3e
       -8.058412e-05 -1.0909022e-07 -6.465438e-07 0.14562072
000080 83 2f 28 bd db ef 5e b3 b8 a0 38 b4 e8 52 a7 b3
       -0.041060936 -5.190655e-08 -1.7194805e-07 -7.791624e-08
000090 22 37 b2 b7 19 e6 4b b6 19 a4 13 3e f4 a1 d4 3d
       -2.1244927e-05 -3.0383292e-06 0.14418067 0.103824526
0000a0 ae e5 a3 b4 d4 a8 90 b6 f7 dc 1d 3e 68 a7 0e 3e
       -3.052823e-07 -4.3111886e-06 0.15416323 0.13931048
0000b0 5d ba a0 bc 0f 27 3e b4 74 ed 17 3e 42 1c 51 b6
       -0.019620115 -1.7709338e-07 0.14836675 -3.1159875e-06
0000c0 ef f9 d0 b5 57 7a 44 bc 4c ef 17 3e 95 95 c2 b3
       -1.5569948e-06 -0.011992059 0.14837378 -9.061038e-08
0000d0 02 19 a7 b5 a7 02 26 3e fe 20 50 b5 1d a6 2e b5
       -1.2449748e-06 0.1621195 -7.753405e-07 -6.506178e-07
0000e0 ae ac 03 bc c3 9a c2 b5 28 95 36 bc 78 e9 f8 3d
       -0.0080367755 -1.4499168e-06 -0.01114396 0.12153906
0000f0 ef 84 73 b2 6a 3a 42 b5 4e 0b 1c b7 ea cb f0 b4
       -1.4174687e-08 -7.2355635e-07 -9.300957e-06 -4.485185e-07

sequential_7/dense_30/MatMul/ReadVariableOp/transpose f4 [32, 64]
000000 e9 ae 1a 3d 2f df d8 3c 47 f8 16 bc 06 1c 53 bd
       0.037764464 0.02647361 -0.009214467 -0.051540397
000010 01 41 55 bd c2 f9 05 3a b5 1b 63 3c ea 53 a2 3c
       -0.052063946 0.0005110764 0.013861586 0.019815404
000020 ec 02 24 3c 2a cc a8 b8 65 48 24 bd 60 9e bf bc
       0.010010462 -8.048893e-05 -0.040108103 -0.023390949
000030 d7 5d 31 bd 60 b6 0a 3d 1b 1a 31 bc b4 82 72 bc
       -0.043302383 0.033865333 -0.010809447 -0.01480167
000040 82 c0 b8 bc 83 29 f4 3c 84 e1 d7 3c 98 e0 12 bd
       -0.022552732 0.02980495 0.026352651 -0.03585872
000050 9c ae 37 bd fb 2b 6c bd 25 21 6b bc f3 90 ab 3c
       -0.044844255 -0.05765913 -0.014351164 0.02094314
000060 bd 46 4a 3c ff 71 a3 bc 14 6e 19 bd 1e 8f eb bb
       0.012345967 -0.019951819 -0.037458494 -0.0071886918
000070 2e 9e 6f 3c ac 18 b4 bc 16 3e c8 bc e5 e8 10 bc
       0.014625115 -0.02198442 -0.024443667 -0.008844589
000080 24 6d 12 bd 30 dd 1f bb ca 6c c4 bb 77 53 28 bd
       -0.035748616 -0.0024393313 -0.005994414 -0.041095223
000090 b8 88 a4 3c 40 ad 5f 3c 30 1a 2c bd fc 93 23 bd
       0.020084724 0.013652146 -0.04201716 -0.03993605
0000a0 59 ef f2 bc 58 a7 a4 bc ed f6 81 3c d5 85 90 bc
       -0.029655145 -0.020099327 0.015864814 -0.017641941
0000b0 9b fc e1 3c e7 cd 2a bc 35 20 06 bd 37 5a 27 3d
       0.027586272 -0.0104250675 -0.03274556 0.04085752
0000c0 14 52 a9 3c 7e d7 0f 3d 35 cd 2d bd 23 47 b5 3c
       0.02066902 0.03511762 -0.04243203 0.022128647
0000d0 f1 42 3f bc 03 09 65 bd ab e6 22 bd 17 36 52 bc
       -0.011673675 -0.055916797 -0.039770763 -0.012830279
0000e0 a9 31 34 bd db 05 25 3d 1d 9c 04 bb 36 99 1c bd
       -0.043992672 0.040288787 -0.0020234652 -0.03823205
0000f0 ab 54 de bc d6 56 8d bc 2c e3 08 bb a4 e8 12 3d
       -0.027139982 -0.01725332 -0.0020887358 0.035866395
000100 50 ef 9f bc a0 a1 27 3b 67 70 dc bc 42 2e d6 3c
       -0.019523293 0.0025578514 -0.026909066 0.026145104
000110 57 79 4f bd 90 28 1c 3d af b6 2e 3d 32 f6 b1 3c
       -0.050652828 0.03812462 0.04265469 0.02172384
000120 9a 00 3e 3c f3 fb 8a ba 54 71 e8 3c cb f1 2f bd
       0.011596823 -0.0010603651 0.028374352 -0.0429552
000130 00 41 05 3d 6b 30 ba 3b c8 e1 d3 bb 28 d8 e4 3c
       0.032532692 0.0056820414 -0.006466124 0.027935103
000140 b9 a1 09 3d 13 c5 5a bd 98 c2 08 bd 01 22 e3 3c
       0.033601496 -0.0534106 -0.033388704 0.027726175
000150 ac a4 04 3d eb 49 7b bc 9a bd b8 bc 62 0c 48 bd
       0.032383606 -0.015337448 -0.022551347 -0.048839934
000160 9d 42 11 3d 62 70 bc 3a 93 3b db bc 36 eb b8 bc
       0.035463918 0.0014376754 -0.026761806 -0.022573095
000170 f2 ed a9 bc 3c 28 22 3d dc 93 43 bd 82 ba 8f bc
       -0.020743344 0.03958915 -0.04774843 -0.017544989
000180 c0 8b 1a bd ea 1e 20 bd 64 57 5e bd 54 00 bb bc
       -0.037730932 -0.039091982 -0.05428256 -0.022827305
000190 a1 5e c4 3c 02 14 5f bd fb 34 51 bd 38 57 ac 3c
       0.023970904 -0.05446244 -0.051075917 0.021037683
0001a0 51 dc ca 3c 4e 4e e3 3a 32 6f 3d bd 07 35 bd 3c
       0.024763258 0.0017342062 -0.046248622 0.023096574
0001b0 92 ff a4 3b 65 ae 11 bd b9 81 bc bb a4 e7 12 3c
       0.005035349 -0.035566706 -0.005752769 0.00896636
0001c0 f5 ac 02 bc 85 a3 92 3b 27 67 2c bd e1 49 0c bc
       -0.0079758065 0.0044750595 -0.04209056 -0.008562536
0001d0 78 0a 70 3b d6 52 c9 3c dc 71 d7 3c 4e 57 12 3d
       0.0036627334 0.024575632 0.02629941 0.03572779
0001e0 2d df 51 3a 5c a9 fa ba 99 8d 60 bc 41 af b8 bc
       0.0008005973 -0.0019123959 -0.0137056345 -0.022544505
0001f0 50 4d 18 3c cc 89 6f bc 1e b5 23 bd 71 82 b8 bc
       0.0092957765 -0.014620256 -0.03996765 -0.022523137
000200 74 90 a5 bc 3c d2 64 3e 1c 45 8a 3c 1e 7a fb 3b
       -0.020210482 0.22345823 0.016878657 0.0076744696
000210 ac 52 c6 3e ce d2 39 3c 18 08 a1 3e 72 64 9d bc
       0.3873495 0.011341764 0.31451488 -0.019212935
000220 c1 47 12 3f 66 94 13 3d f7 96 b4 3d fe c0 8d 3c
       0.5714074 0.036030196 0.08817857 0.01730394
000230 f7 08 36 bd 8f 72 31 3d c3 c4 e2 3c 25 91 da 3d
       -0.044442143 0.043322142 0.027681714 0.10672215
000240 41 8b b3 bb 3a ff 32 bd a2 56 33 3e 3b 56 6b 3d
       -0.005479247 -0.043700434 0.17513517 0.057455283
000250 5c 11 f5 bc 6a 64 eb 3e 16 01 e8 3b 46 0f 13 3f
       -0.029915504 0.45975047 0.0070802076 0.5744518
000260 17 64 65 3c 73 c0 c4 3e bc 55 97 bc f5 1c f0 bb
       0.014000914 0.38428077 -0.018473499 -0.0073276707
000270 37 46 30 3d 90 b9 25 3d 25 33 c1 ba 29 04 55 3e
       0.043035712 0.04046017 -0.0014739974 0.20802368
000280 c8 2d 40 c0 0a 5e cb ba b4 aa c4 3b f2 2a 00 3d
       -3.0027943 -0.0015515697 0.0060017947 0.031290956
000290 17 fe cf bb c6 93 1f bb dc 2f 70 3e 85 ec 23 3d
       -0.0063474285 -0.0024349554 0.23455757 0.040020484
0002a0 bd 08 39 3c 08 11 20 bd 3d 1f bd 3e 20 3d ef 3d
       0.011293587 -0.039078742 0.36937895 0.116815805
0002b0 b0 85 8c 3d c8 73 2c 3d e2 16 92 3e 91 f5 58 bd
       0.06861436 0.042102605 0.28533083 -0.052968565
0002c0 35 31 34 3d c5 f3 25 3d 25 ef a5 3e 39 e9 c5 3c
       0.04399224 0.04051568 0.32409015 0.02415906
0002d0 0e 55 e2 3b 0f 01 0b 3f 2c 7c 04 bd 8c b5 07 3d
       0.006907112 0.5429849 -0.032344982 0.03313212
0002e0 7e 5c d4 bc 8f a2 6e 3b 9e e0 40 bc 32 ae 25 3d
       -0.02592301 0.003641281 -0.011772303 0.04044933
0002f0 9d b2 9f 3b 6b b3 11 3d ce bb 14 bd 73 4b 6d bd
       0.0048735873 0.035571497 -0.036311917 -0.057933282
000300 b3 b4 51 bd 68 f9 ce 3d 72 9f 4a 3d d8 76 bc 3c
       -0.05119772 0.10106164 0.049468465 0.023005888
000310 e6 18 46 bd fa 00 ab 3d 78 d6 39 3d 72 38 1f 3d
       -0.04836359 0.08349796 0.04537055 0.03887219
000320 6f df 0c be fa ac 45 bd b3 0a 21 3e 19 5d 3e 3d
       -0.13757108 -0.048260666 0.15726738 0.046475504
000330 05 b6 2b 3e cb 7d 9d 3c 0b a8 28 bd 27 7b a9 3d
       0.16768654 0.019225022 -0.041175883 0.082754426
000340 3d 5f 17 3d be e9 93 bc c7 d5 d9 3d e7 62 c6 bc
       0.03695606 -0.018055793 0.10636478 -0.024217082
000350 5e 50 12 3e 0e 01 eb bc a9 37 48 3d cc 84 70 bd
       0.1428847 -0.028687026 0.048881207 -0.058720395
000360 eb 42 f3 3b 6d 3c 68 bd e9 7c 1c bd 10 0e 14 bd
       0.0074237487 -0.05669825 -0.03820506 -0.036146224
000370 82 b6 32 ba f3 00 cf 3d 29 c0 ca 3d 3e 9a 47 3d
       -0.0006817357 0.10107603 0.09899933 0.04873108
000380 da 86 9a 3d 73 5b f6 3d 3d 24 59 3c 76 df 16 3d
       0.07545252 0.12029161 0.013253269 0.036834203
000390 d8 4d e1 3d 2d a5 97 bc fd d4 88 3d 7c 45 18 3e
       0.11001176 -0.01851138 0.06681249 0.14870256
0003a0 b4 40 56 bc b5 03 f8 bb 23 f1 85 bb 9d b4 c3 3d
       -0.01307695 -0.0075688013 -0.0040875836 0.095559336
0003b0 1a be 91 bc 3f e3 a4 bc 11 ae 47 3d 7f ce 00 3d
       -0.017790843 -0.02012789 0.048749987 0.03144693
0003c0 bd b0 44 bd d0 8d b7 bc 69 d7 e0 3c 5e a3 98 3d
       -0.048020113 -0.022406489 0.027446466 0.07453035
0003d0 6f ee 05 bd 00 a6 94 bd 9d 4b 62 bd 5d 22 3e 3c
       -0.03269809 -0.072582245 -0.05524789 0.0116048725
0003e0 b3 7a 00 3d 98 e7 01 bd 6d db 8b bb 18 58 2e 3e
       0.031367015 -0.031715006 -0.004268101 0.17025793
0003f0 32 e0 e5 bc 32 4d 5f bb 42 36 a8 3c 94 92 2b 3d
       -0.028061006 -0.0034073112 0.020533685 0.041887835

sequential_7/dense_30/MatMul_bias f4 [32]
000000 e2 7d fe bb e9 86 de bb 09 fd 42 3e 41 01 ff bc
       -0.0077664712 -0.006790985 0.19041838 -0.031128528
000010 32 ca c4 bb 36 ca c4 bb 9c 23 41 3e c1 46 40 3e
       -0.006005549 -0.0060055507 0.1886124 0.1877699
000020 7c 6b 3f 3e ee a7 41 3e cd 3e 41 3e 9e 36 41 3e
       0.18693346 0.18911716 0.18871613 0.18868491
000030 4a 2a 1a bd d0 8f 41 3e c5 5a 41 3e 39 18 dd bb
       -0.037637986 0.18902516 0.18882282 -0.0067472723
000040 90 d9 3f 3e 14 ca c4 bb 3f e6 40 3e 09 9b 42 3e
       0.18735337 -0.006005535 0.18837832 0.19004454
000050 0b ca c4 bb ba 55 ab bb f7 14 40 3e 2d 7d 41 3e
       -0.0060055307 -0.0052287253 0.18757997 0.18895407
000060 1c ca c4 bb e7 4a 2b bd 0d a8 08 bc 20 ca c4 bb
       -0.0060055386 -0.04181948 -0.008340848 -0.0060055405
000070 12 cb 11 bc 7f 70 ee bb d0 89 e1 bb 2a ca c4 bb
       -0.008898513 -0.007276594 -0.0068828836 -0.006005545

sequential_7/dense_31/MatMul/ReadVariableOp/transpose f4 [1, 32]
000000 fc b2 17 be aa 64 c1 bd 9d 92 07 3f 54 e9 b2 be
       -0.14814371 -0.09443028 0.5295809 -0.3494364
000010 f7 47 6e be 6f 73 c9 be 3d 22 1b 3f 2e 07 22 3f
       -0.2326964 -0.3934588 0.6059912 0.63292205
000020 d3 dd 19 3f 0e bf 33 3f 74 b8 26 3f 56 3a 32 3f
       0.601041 0.702134 0.65125203 0.69620264
000030 a1 8d dc bd 84 bb 32 3f 34 21 22 3f c1 2f 2d bd
       -0.10769201 0.69817376 0.63331914 -0.04228187
000040 0e 09 19 3f 3d f2 c8 be 43 41 2a 3f 73 a8 2c 3f
       0.5977944 -0.39247313 0.6650583 0.67444533
000050 21 10 4e be fe 1f cd be 39 ac 20 3f 0e e8 3a 3f
       -0.2012334 -0.4006347 0.6276279 0.7301034
000060 9c f0 80 be 68 b7 48 bd 9e d1 80 bd 09 9f b9 bd
       -0.2518357 -0.049003035 -0.06289981 -0.09063537
000070 72 c5 83 bd 7f 09 c8 be 3f 70 98 bd 62 d1 6b be
       -0.06434144 -0.39069745 -0.07443284 -0.23029092
