app/src/main/assets/model_cla.tflite (tflite, 104656 bytes, 13 tensors)

sequential/batch_normalization_3/batchnorm/add_1 f4 [64]
0	0x3eaf8cd6	0.34287137
1	0x3e8009e0	0.25007534
2	0x3e6a5c66	0.2288681
3	0x3d77ed4e	0.060529046
4	0xbe1abbeb	-0.15110748
5	0x3ea21e29	0.31663635
6	0x3eb05732	0.34441525
7	0xbe81100e	-0.2520756
8	0xbfc679ce	-1.5505922
9	0xbf25823d	-0.6465185
10	0x3f3dbeed	0.74119455
11	0x3ede841d	0.4346017
12	0xbea3af0c	-0.31969488
13	0xbe002a32	-0.12516096
14	0x3f83c143	1.0293354
15	0x3dee288e	0.11628829
16	0xbd3d94b3	-0.04628439
17	0x3f81a06a	1.012708
18	0xbfc12944	-1.5090718
19	0x3f16f69a	0.58970034
20	0xc009ef6d	-2.1552384
21	0xbeb9fe2e	-0.36326736
22	0x3fc8dab4	1.5691743
23	0x3ef8ab84	0.48568356
24	0xbbe905b8	-0.0071112774
25	0xbd7b47ac	-0.06134765
26	0xbdcd5dac	-0.10027632
27	0xbdf85776	-0.12126057
28	0xbf231a37	-0.63711876
29	0x3f840e25	1.0316817
30	0xbe73ce23	-0.23809104
31	0x3fa9c378	1.3262777
32	0xbe1f04b1	-0.15529133
33	0xbf55419c	-0.83303237
34	0x3e9ae442	0.30252272
35	0xbf052963	-0.52016276
36	0x3f2fd4e1	0.686842
37	0xbd97f5c4	-0.07419923
38	0x3e76e640	0.24111271
39	0xbf07a683	-0.5298845
40	0xbe883988	-0.26606393
41	0xbe95af50	-0.29235315
42	0x3e9b482a	0.30328494
43	0x3e236380	0.15955925
44	0xbd8932ff	-0.0669918
45	0x3f6efd27	0.9335503
46	0x3f81f5e3	1.0153164
47	0x3f6e7704	0.93150353
48	0x3eca7755	0.39544168
49	0xbf1cf5e2	-0.6131269
50	0xbfa8c20e	-1.3184221
51	0xbd7ec800	-0.062202454
52	0xbe42e402	-0.1903229
53	0xbea1ff3c	-0.3164004
54	0xbf204885	-0.62610656
55	0xbef1b738	-0.47210097
56	0xbedf4efd	-0.4361495
57	0x3f6b481a	0.91906893
58	0x3dffd75e	0.1249225
59	0x3f86ab3a	1.0521004
60	0xbeac6188	-0.3366816
61	0xbf5cbd19	-0.8622604
62	0xbf2e8548	-0.6817212
63	0x3ea4ea86	0.32210177

sequential/batch_normalization_3/batchnorm/mul_1 f4 [64, 48]
0	0xbec9d2eb	-0.3941873
1	0x3defeeb4	0.11715451
2	0xbec745a2	-0.38920313
3	0xbd79883f	-0.06092095
4	0xbee26575	-0.4421803
5	0x3df01f57	0.117247276
6	0x3dada0b5	0.08477918
7	0x3e96d64b	0.29460368
8	0xbe82805f	-0.25488564
9	0xbe551f43	-0.20812707
10	0x3f009f5d	0.5024317
11	0xbc686a96	-0.014185568
12	0x3d10300e	0.03520208
13	0x3ded8f9d	0.11599658
14	0x3cc36a12	0.02385429
15	0x3e9d7fe9	0.3076165
16	0x3de5fb9d	0.11229632
17	0xbec9099d	-0.39265147
18	0xbe713b03	-0.23557667
19	0xbce54be9	-0.027990298
20	0xbebf7574	-0.37394297
21	0xbea8ac4a	-0.32943946
22	0x3d3efc48	0.046627313
23	0x3d371f2f	0.044707473
24	0xbec03580	-0.37540817
25	0xbdf8e558	-0.12153119
26	0xbe87b730	-0.26506948
27	0xbe60e7f8	-0.21963489
28	0x3bf4de76	0.0074728085
29	0x3e3b148d	0.18269558
30	0x3d4b4fbe	0.049636595
31	0xbdcb2ee2	-0.099210516
32	0xbd114021	-0.03546155
33	0xbc3f3e47	-0.011672563
34	0x3e8bbcaa	0.27292377
35	0x3e808759	0.25103262
36	0xbe7db2eb	-0.24775283
37	0x3d75a42d	0.059971023
38	0x3def0df4	0.11672583
39	0xbd811495	-0.06302754
40	0x3ed9d963	0.42548665
41	0x3eb979ef	0.3622584
42	0x3e0be90b	0.13663118
43	0x3c66f1fa	0.014095778
44	0xbe45c686	-0.19314012
45	0xbe85a044	-0.26098835
46	0x3e188aed	0.14896746
47	0xbe0173c8	-0.12641823
48	0x3d640215	0.055666048
49	0x3e1d9f5b	0.1539282
50	0xbc6e18c5	-0.014532273
51	0x3e356b8f	0.17716812
52	0x3e4b0522	0.19826177
53	0xbd5aa701	-0.053381924
54	0x3d936283	0.07196524
55	0xbe64a182	-0.22327235
56	0x3e0e5566	0.13899764
57	0x3e837304	0.25673687
58	0x3e768e4d	0.24077721
59	0x3c76f1fb	0.015072341
60	0x3e984191	0.29737523
61	0x3ad0e402	0.0015937092
62	0x3e8d5867	0.27606508
63	0x3c258248	0.010101862
64	0xbee0690a	-0.43830138
65	0xbf13abd0	-0.5768404
66	0xbe4e1141	-0.2012377
67	0x3e07d2b9	0.13263978
68	0x3e1ebd10	0.15501809
69	0xbeb8c397	-0.36086723
70	0xbde67b2c	-0.11253962
71	0xbe6c9ac0	-0.23105907
72	0x3d836ad6	0.06416862
73	0x3ca603f7	0.020265562
74	0x3dae2738	0.08503574
75	0xbeb77535	-0.3583161
76	0x3dbfcdc7	0.09365421
77	0xbda90b44	-0.08254102
78	0xbea40bb1	-0.3204017
79	0xbe0fa658	-0.14028299
80	0x3dda9e88	0.10674769
81	0x3d7ac10c	0.06121926
82	0x3e743d40	0.2385149
83	0xbe44bc1e	-0.19212386
84	0xbeb09b4c	-0.34493482
85	0x3daa1e44	0.08306554
86	0x3e030bf0	0.12797523
87	0xbdb745d1	-0.08948863
88	0xbd0d82a4	-0.034548417
89	0xbd31897e	-0.043344013
90	0xbe715652	-0.23568085
91	0x3e1d1354	0.15339404
92	0xbe74ea5d	-0.23917527
93	0xbd5560a3	-0.052094113
94	0x3de04552	0.10950722
95	0xbd9b78f1	-0.07591427
96	0x3d4b9a67	0.049707796
97	0x3f23cfd7	0.63989013
98	0x3e799c10	0.2437594
99	0x3e130438	0.14357078
100	0x3d59c016	0.053161703
101	0x3ebb0b28	0.3653195
102	0x3efe6063	0.49682912
103	0x3e42983a	0.19003382
104	0x3ed8ab7b	0.4231833
105	0xbd2eccb5	-0.042675693
106	0xbeaa30c1	-0.3324032
107	0x3d4da147	0.050202634
108	0x3c67222e	0.01410727
109	0x3afe9e63	0.0019425865
110	0x3e1b3e79	0.1516055
111	0xbe448602	-0.19191745
112	0xbe2c5275	-0.1682833
113	0x3e23a4b4	0.15980798
114	0xbe27e673	-0.16396503
115	0xbc960c81	-0.01831651
116	0x3e2cfb84	0.1689282
117	0xbeea3cc8	-0.45749497
118	0x3d45ff37	0.048339095
119	0x3ca12890	0.019672662
120	0x3e9c9bbf	0.30587575
121	0x3e908d08	0.28232598
122	0x3e2ea8ad	0.17056532
123	0xbea50db4	-0.32237017
124	0x3e2cc92d	0.16873617
125	0xbe745b30	-0.2386291
126	0xbeee82c0	-0.4658413
127	0xbe902561	-0.28153518
128	0x3e006e3c	0.12542051
129	0x3cee5718	0.029094264
130	0x3c21cad0	0.009875014
131	0xbd3c47d6	-0.045966946
132	0xbef63eca	-0.4809478
133	0x3e79c23d	0.24390502
134	0x3e101810	0.14071679
135	0xbe007911	-0.12546183
136	0x3db54e0a	0.088527754
137	0xbeb1483b	-0.3462542
138	0xbef4f95c	-0.47846496
139	0x3d1beaf3	0.038065862
140	0xbe48e3da	-0.19618168
141	0xbdbe0f70	-0.09280288
142	0xbe2df321	-0.16987278
143	0xbe35793b	-0.17722027
144	0x3e3195e7	0.1734234
145	0xbf105164	-0.5637419
146	0x3d930e66	0.07180481
147	0x3e7d3e35	0.24730761
148	0x3d8dd08d	0.069245435
149	0x3d719e6d	0.058988977
150	0xbdfef510	-0.12449086
151	0x3e7ad314	0.24494582
152	0xbf1ddd8a	-0.61666167
153	0xbe274bc5	-0.16337498
154	0xbe1155ea	-0.1419293
155	0xbd8cd38b	-0.06876286
156	0xbe509945	-0.20370968
157	0x3d16e3ff	0.036838528
158	0xbbea4b5a	-0.007150096
159	0xbe43c9f8	-0.19120014
160	0x3e70e0fc	0.23523325
161	0x3da94ff2	0.082672015
162	0xbe3e1fe3	-0.18566851
163	0x3e2afe86	0.16698655
164	0xbe203948	-0.15646851
165	0x3e5271ef	0.20551275
166	0xbd5bee01	-0.053693775
167	0x3e295a14	0.16538268
168	0xbdbefdff	-0.0932579
169	0xbd837be1	-0.064201124
170	0xbe23de81	-0.16002847
171	0xbced9256	-0.029000442
172	0x3dd9b80f	0.106308095
173	0xbf32e015	-0.6987317
174	0x3e9bfa96	0.3046462
175	0x3ea1c102	0.31592566
176	0xbd8aecea	-0.06783469
177	0xbe2ec5ed	-0.1706769
178	0xbd8807ec	-0.06642136
179	0x3dabdada	0.08391352
180	0x3f08b0a6	0.53394544
181	0x3e10bbc2	0.14134124
182	0xbe0556c2	-0.13021377
183	0x3ddf5985	0.10905746
184	0x3e94504b	0.2896751
185	0x3dd2fc54	0.10302034
186	0xbdb98ef8	-0.09060472
187	0x3e71cdfa	0.2361373
188	0x3c7e14dc	0.015507903
189	0xbda0828a	-0.07837398
190	0xbd501deb	-0.050809782
191	0x3e29fd67	0.16600572
192	0x3ebf9b7b	0.3742331
193	0xbde839f0	-0.11339176
194	0x3e0d8352	0.13819626
195	0xbe3ed194	-0.18634635
196	0xbe7ebce0	-0.24876738
197	0xbe7d317f	-0.24725913
198	0xbd9cfc80	-0.07665348
199	0xbebe8be2	-0.37216097
200	0x3eac6920	0.33673954
201	0xbe267221	-0.16254474
202	0xbe37f728	-0.17965376
203	0xbe449dea	-0.19200864
204	0xbcc82c15	-0.024435082
205	0x3e4d4533	0.20045929
206	0x3e1ca043	0.1529551
207	0xbdb9c9b5	-0.09071676
208	0x3eced89e	0.4039964
209	0x3e501be9	0.20323147
210	0x3e31f713	0.17379408
211	0x3e110271	0.14161088
212	0x3d1e3c77	0.038631883
213	0xbcd70490	-0.026247293
214	0x3e62147f	0.22078131
215	0x3e7c5662	0.24642327
216	0xbea60b78	-0.32430625
217	0x3ed080f5	0.40723386
218	0xbea5b3d6	-0.32363766
219	0x3e9961db	0.2995747
220	0x3e78d89b	0.24301378
221	0xbcbd6d3e	-0.02312338
222	0x3cc85546	0.024454724
223	0xbda924c4	-0.082589656
224	0xbe1bcb62	-0.15214303
225	0x3ec4e049	0.38452366
226	0x3ec032fd	0.375389
227	0xbe93e222	-0.28883463
228	0xbdccf45f	-0.100075476
229	0xbe67e116	-0.22644457
230	0x3db0a820	0.08625817
231	0x3d8dc56e	0.06922422
232	0xba22ec17	-0.00062149897
233	0x3dff1479	0.12455077
234	0xbf0e8af6	-0.5568079
235	0x3d3552f6	0.04426857
236	0x3ea74cfe	0.32675928
237	0xbd141cbb	-0.036160212
238	0x3e3c896c	0.18411797
239	0xbea49360	-0.32143688
240	0xbef95015	-0.4869391
241	0x3d244554	0.04010518
242	0x3f0dae76	0.5534433
243	0x3e23322f	0.15937112
244	0x3de692af	0.112584464
245	0xbf1500b8	-0.5820422
246	0x3e5c55fb	0.21517174
247	0xbf181a97	-0.5941557
248	0x3ed0acc3	0.40756807
249	0xbc8cc955	-0.017185846
250	0x3f2a82fe	0.6660613
251	0xbdb0fe08	-0.086422026
252	0xbeeaa3c1	-0.4582806
253	0x3ec2c6fc	0.38042438
254	0x3eacfbd2	0.33785874
255	0x3b880eee	0.0041521704

sequential/dense_1/MatMul;sequential/dense_1/BiasAdd f4 [48]
0	0x3dd75f55	0.1051623
1	0xbdd86fad	-0.105681755
2	0xbe234880	-0.15945625
3	0xbd05870d	-0.032599498
4	0xbdd045c6	-0.10169558
5	0x3d650b91	0.055919234
6	0xbe33f2bf	-0.17573069
7	0x3cf9ca85	0.030492077
8	0xbe496b4d	-0.19669838
9	0x3df37350	0.118872285
10	0xbab3d904	-0.0013721292
11	0x3e5d0afd	0.21586223
12	0xbd8d7778	-0.069075525
13	0x3cbb4801	0.022861483
14	0xbd29e668	-0.0414795
15	0x3e296a53	0.16544466
16	0xbe3d1f20	-0.18468904
17	0xbce273ad	-0.02764305
18	0x3d896019	0.06707782
19	0xba671762	-0.0008815435
20	0xbdb36a16	-0.08760469
21	0xbd665853	-0.056236576
22	0x3e6dc8d4	0.23221141
23	0xbd598bde	-0.053111903
24	0x3e0c900b	0.13726823
25	0xbe5b9bdf	-0.21446179
26	0xbb2cb12f	-0.0026350727
27	0x3dd890a9	0.10574467
28	0xbd695226	-0.05696311
29	0x3d86b88c	0.06578168
30	0xbd8df82e	-0.06932102
31	0xbde269cd	-0.11055336
32	0x3e0ad10c	0.13556308
33	0xbd1a87f6	-0.03772732
34	0xbdbe7d50	-0.09301245
35	0x3d8b1237	0.067905836
36	0xbd47efd0	-0.048812687
37	0xbe5d2404	-0.2159577
38	0xbdbaa0ac	-0.09112677
39	0xbe013122	-0.12616399
40	0x3dafc7e0	0.08583045
41	0xbcf2a50a	-0.029619712
42	0xbe21a387	-0.15785037
43	0xbd98d67d	-0.074627854
44	0x3d0f9d49	0.03506211
45	0xbced38a5	-0.028957674
46	0xbd3a930a	-0.045550384
47	0x3c742049	0.0149002755

sequential/dense/MatMul;sequential/dense/BiasAdd f4 [32]
0	0xc0945354	-4.635172
1	0x4030cdbc	2.762557
2	0xbe796c04	-0.24357611
3	0x3e2068a9	0.15664925
4	0xc0dd8b12	-6.9232264
5	0x4033ca7c	2.8092337
6	0x400ef275	2.2335484
7	0x4105699e	8.338285
8	0xc0b5e263	-5.683885
9	0x40b62e82	5.693177
10	0x3f2b1885	0.6683429
11	0xc01ae088	-2.4199543
12	0x400fb5fd	2.2454827
13	0xc122e40f	-10.180678
14	0xc02e0aa8	-2.7194004
15	0x3f94bd25	1.1620222
16	0x3e0848aa	0.13308969
17	0xc07f5e76	-3.9901404
18	0x40a73b78	5.2260094
19	0x412daa98	10.854149
20	0xc0d7d76c	-6.7450466
21	0x40d5a9e5	6.676989
22	0x3fa6c4f3	1.3028854
23	0xc1058b93	-8.346576
24	0x403e4dba	2.973494
25	0xbfb294e9	-1.3951694
26	0x4131104e	11.066481
27	0xbfdca7db	-1.7238725
28	0xc1115faf	-9.08586
29	0x3ffac8d7	1.9592541
30	0x40aa6239	5.32449
31	0xc0a6d00c	-5.2128963

sequential/dense_3/BiasAdd/ReadVariableOp/resource f4 [128]
0	0x3d1349be	0.035958998
1	0x3d4c2b98	0.04984626
2	0x3d6101fb	0.05493353
3	0x3d57d12d	0.05268972
4	0x3d5ddf35	0.054167945
5	0x3d63b792	0.05559499
6	0x3d5b3f3a	0.053527094
7	0x3d5b3314	0.05351551
8	0x3d4fc6c7	0.05072668
9	0x3d4f6471	0.050632898
10	0x3d51a747	0.05118492
11	0x3d60cefe	0.054884903
12	0x3d401e8c	0.04690413
13	0x3d653953	0.05596287
14	0x3d4d085f	0.05005681
15	0x3d2c9cb2	0.042141624
16	0x3d49b94e	0.049248986
17	0x3d4c7d61	0.04992426
18	0x3d4e06fa	0.050299622
19	0x3d4e7c58	0.050411552
20	0x3d55ffef	0.05224603
21	0x3d36f2f4	0.044665292
22	0x3d47a6f7	0.048743214
23	0x3d701a7c	0.058619007
24	0x3d569b06	0.052393936
25	0x3d64fb60	0.055903792
26	0x3d6555c5	0.05599
27	0x3d5cef1e	0.053938977
28	0x3cabdfcf	0.020980744
29	0x3d5df907	0.05419257
30	0x3d628c52	0.0553096
31	0x3d63fc5a	0.055660583
32	0x3d62f2d1	0.05540735
33	0x3d53a446	0.051670335
34	0x3d5a829f	0.053347226
35	0x3d2551cb	0.040361207
36	0x3d57710b	0.05259804
37	0x3d50f6f6	0.05101677
38	0x3d61710a	0.055039443
39	0x3d5a4ef5	0.053297956
40	0x3c93fced	0.01806494
41	0x3c941cbc	0.018080108
42	0x3d4faf14	0.050704077
43	0x3d5ba61a	0.053625204
44	0x3d2c5b56	0.042079292
45	0x3d2616e1	0.040549163
46	0x3d284a07	0.041086223
47	0x3d55f6f8	0.05223748
48	0x3d6d4778	0.057929486
49	0x3d5d28b0	0.05399388
50	0x3d5ae9af	0.053445514
51	0x3d5e5ea8	0.05428949
52	0x3d5bc138	0.053651065
53	0x3d5bbbde	0.05364596
54	0x3d5d52af	0.05403393
55	0x3d1662dd	0.036715377
56	0x3d599c58	0.053127617
57	0x3d583745	0.052787084
58	0x3d438746	0.04773643
59	0x3d66da91	0.056360785
60	0x3d654921	0.055977944
61	0x3d49b983	0.049249183
62	0x3d50f099	0.0510107
63	0x3cf2a0e2	0.02961773
64	0x3d49692e	0.049172573
65	0x3d639deb	0.055570524
66	0x3d58b54a	0.052907266
67	0x3d58472c	0.05280225
68	0x3d3804f3	0.044926595
69	0x3d41ebef	0.047344144
70	0x3d6181c8	0.05505541
71	0x3d2ec8af	0.042671856
72	0x3c9e1c36	0.019300561
73	0x3d4fca0a	0.05072979
74	0x3d1b0bc9	0.037853036
75	0x3d3e38d2	0.046440907
76	0x3d49fc63	0.04931296
77	0x3d5db2a4	0.054125443
78	0x3d46458c	0.04840617
79	0x3d55c804	0.052192703
80	0x3d2553df	0.04036319
81	0x3d673209	0.0564442
82	0x3cb3938e	0.021920945
83	0x3d59835d	0.053103793
84	0x3c8f0a1b	0.017460873
85	0x3d5e3579	0.054250214
86	0x3cbb9060	0.022895992
87	0x3d55d52d	0.052205253
88	0x3d62b7a6	0.055350922
89	0x3d1c5c35	0.038173873
90	0x3d42cd34	0.04755898
91	0x3d4924d0	0.049107373
92	0x3d504666	0.050848387
93	0x3d48070e	0.048834853
94	0x3d3c9822	0.046043523
95	0x3d59547f	0.053059097
96	0x3d435078	0.047684163
97	0x3d4cfbc4	0.05004479
98	0x3d551148	0.052018434
99	0x3d33f1b1	0.043931667
100	0x3d0778d2	0.033074208
101	0x3d5f7173	0.054551553
102	0x3d477edb	0.048704963
103	0x3d3a2b03	0.045451175
104	0x3d5640ce	0.052307896
105	0x3d29734e	0.04136973
106	0x3d571a50	0.052515328
107	0x3d4bdd50	0.049771607
108	0x3d2a6b46	0.04160621
109	0x3d5114d9	0.051045272
110	0x3d56a8dd	0.052407134
111	0x3cdbeb3c	0.026845567
112	0x3d50a192	0.050935335
113	0x3d334717	0.04376897
114	0x3d643d90	0.055722773
115	0x3d3da65f	0.046301242
116	0x3d2e08c5	0.042488832
117	0x3d1fc83e	0.039009325
118	0x3d5d059c	0.053960428
119	0x3d1f9337	0.038958754
120	0x3d5a1bd9	0.053249214
121	0x3d635d53	0.055508923
122	0x3d5599cf	0.052148636
123	0x3d43b9e2	0.047784694
124	0x3d3867aa	0.045020737
125	0x3d5d1fb7	0.053985324
126	0x3d5cf4a8	0.05394426
127	0x3d4cf698	0.050039858

sequential/dense_4/BiasAdd/ReadVariableOp/resource f4 [91]
0	0xbd417419	-0.04722986
1	0xbd416465	-0.047214884
2	0xbd41792c	-0.0472347
3	0xbd414a85	-0.047190208
4	0xbd412f26	-0.047164105
5	0x3845cbb7	4.7158184e-05
6	0xbd40696b	-0.046975534
7	0xbd40bb09	-0.04705337
8	0xbd41b3cd	-0.047290612
9	0xbd40d3c1	-0.047076944
10	0xbd415135	-0.047196586
11	0xbd40ecc9	-0.047100816
12	0xbd40926e	-0.047014646
13	0x3d5ac529	0.053410683
14	0xbd41490f	-0.047188815
15	0xbd409bc8	-0.047023565
16	0xbd416c8f	-0.04722267
17	0xbd40e9f8	-0.04709813
18	0xbd4054b8	-0.046955794
19	0xbd410db5	-0.047132213
20	0xbd41d05f	-0.04731786
21	0xbbf165b4	-0.0073668603
22	0xbd413e0b	-0.04717831
23	0xbd4224a1	-0.047398213
24	0x3d444198	0.047914118
25	0x3d5bb92c	0.05364339
26	0x3d6410fe	0.055680268
27	0xbd404ae8	-0.046946436
28	0x3d471a8b	0.048609298
29	0x3cf44b3e	0.029821035
30	0x3d3262b5	0.043551166
31	0x3d4462c6	0.04794576
32	0xbd40a298	-0.04703006
33	0x3d3885d9	0.045049522
34	0x3d692838	0.05692312
35	0x3cbc7c05	0.023008356
36	0x3d38bf45	0.045104284
37	0xbd422965	-0.04740276
38	0xbd4105b3	-0.047124576
39	0x3d0191e9	0.03163329
40	0x3cf52ec5	0.029929528
41	0x3d3fe626	0.046850346
42	0xbd401fe5	-0.046905417
43	0x3c022693	0.007943767
44	0xbd40df80	-0.047088146
45	0x3d3e7aea	0.04650394
46	0x3cef6ce0	0.02922672
47	0xbd4161a4	-0.047212258
48	0x3d3d520a	0.046220817
49	0x3d5731d4	0.052537754
50	0xbd4166ec	-0.047217295
51	0xbd411885	-0.047142524
52	0xbd40a9c0	-0.047036886
53	0xbd419f2e	-0.047270946
54	0x3d4f5281	0.05061579
55	0xbd4029fd	-0.046915043
56	0x3d460741	0.04834676
57	0xbd41c081	-0.047302727
58	0x3c38e7a2	0.011285694
59	0x3d60ce93	0.054884505
60	0x3d5d96c5	0.054098863
61	0xbd412a9c	-0.047159776
62	0xbd410606	-0.047124885
63	0xbd419406	-0.047260307
64	0xbd40f0a1	-0.04710448
65	0xbd414add	-0.047190536
66	0xbd40a1e8	-0.047029406
67	0xbd41763a	-0.04723189
68	0x3d592919	0.05301771
69	0xbd414068	-0.047180563
70	0xbd4075ae	-0.046987228
71	0xbd41a24e	-0.047273926
72	0xbd41140f	-0.04713827
73	0xbd4183a4	-0.047244683
74	0xbd415736	-0.04720231
75	0xbd40c6a0	-0.047064424
76	0xbd4132dc	-0.047167644
77	0xbd418972	-0.04725022
78	0xbd40b8f9	-0.047051404
79	0xbd404f01	-0.046950344
80	0xbd4147b4	-0.047187522
81	0xbd41a0be	-0.047272436
82	0xbd4088c5	-0.047005434
83	0xbd411b1a	-0.047144987
84	0xbd41cc18	-0.04731378
85	0xbd3fa969	-0.04679242
86	0xbd411c66	-0.047146223
87	0xbd41a9cc	-0.04728107
88	0xbd413b71	-0.04717583
89	0xbd4211fe	-0.04738044
90	0xbd4219dd	-0.047387946

sequential/batch_normalization/batchnorm/mul f4 [8]
0	0x3e0d5337	0.13801275
1	0x3e9ee38f	0.31032988
2	0x3e9c48c6	0.30524272
3	0x3ece4ce7	0.40293047
4	0x3fa4c611	1.2872945
5	0x3f282d7a	0.6569439
6	0x3f7fd9f6	0.99941957
7	0x3f2ea597	0.6822142

sequential/batch_normalization_1/batchnorm/mul f4 [32]
0	0x4146efaa	12.433512
1	0x4165c1f2	14.35985
2	0x4130a410	11.040054
3	0x413cf8b2	11.810717
4	0x410bfd1f	8.749297
5	0x413fe6be	11.993834
6	0x415edc14	13.92873
7	0x412bba86	10.733038
8	0x41190717	9.564231
9	0x41339ff4	11.226551
10	0x4147193a	12.443659
11	0x4146dcd0	12.428909
12	0x411b3556	9.700521
13	0x40eb196c	7.3468533
14	0x412099bd	10.037534
15	0x416884a1	14.53238
16	0x41838c0f	16.443388
17	0x411a507e	9.644651
18	0x410997a9	8.599526
19	0x40eba317	7.3636584
20	0x40f2003f	7.56253
21	0x415fdb24	13.991001
22	0x415a2a43	13.635318
23	0x40e22976	7.067561
24	0x415f33c9	13.950143
25	0x419a672e	19.30038
26	0x40fedd16	7.964488
27	0x419cd815	19.605509
28	0x41200068	10.000099
29	0x41723648	15.138252
30	0x4114b0a4	9.293125
31	0x41425d34	12.147755

sequential/batch_normalization_2/batchnorm/mul f4 [48]
0	0x407679fd	3.8511956
1	0x413200d6	11.125204
2	0x413fbfbc	11.98431
3	0x411f07fc	9.939449
4	0x4102cf74	8.175648
5	0x40aedb32	5.4642572
6	0x40cdbda1	6.429398
7	0x40d8733b	6.764066
8	0x410e03c6	8.875921
9	0x413af993	11.685931
10	0x4101f6cb	8.122752
11	0x4084082b	4.125997
12	0x40bdb72b	5.9286094
13	0x40ce5977	6.448421
14	0x408ac396	4.336375
15	0x40e20dcf	7.0641856
16	0x40bc2273	5.879205
17	0x412ceacc	10.807323
18	0x41451a11	12.318864
19	0x40f4ab7f	7.6459346
20	0x40b524aa	5.6607256
21	0x40ce9c3d	6.456572
22	0x4094172d	4.627829
23	0x41530264	13.188084
24	0x40f106d8	7.5320854
25	0x40b602d2	5.6878443
26	0x418b6042	17.422
27	0x411def0b	9.87086
28	0x41c6f3ff	24.869139
29	0x410d5616	8.833517
30	0x412810b8	10.504082
31	0x41230c7b	10.190547
32	0x413ebb04	11.920658
33	0x41766d35	15.401662
34	0x417dd89e	15.865385
35	0x41561c6d	13.38194
36	0x41758e13	15.347186
37	0x40af3a88	5.475895
38	0x40cb217d	6.347838
39	0x40ad5cae	5.4175634
40	0x418af8cd	17.371485
41	0x40cf5687	6.4793124
42	0x40c9507c	6.2910748
43	0x411566c1	9.337586
44	0x41059d00	8.35083
45	0x41326a03	11.150882
46	0x410b9aca	8.72529
47	0x418438ea	16.52779

sequential/dense/MatMul f4 [32, 8]
0	0x3a2cbc6e	0.00065893575
1	0x3db16b98	0.086631
2	0x3bca6c95	0.006177495
3	0xbc785fa6	-0.015159523
4	0x3c39e97c	0.011347171
5	0xbcd66025	-0.026168892
6	0x3d2f99f7	0.04287144
7	0x3c7a957c	0.015294429
8	0xbd180de0	-0.037122607
9	0x3ce5b9b2	0.028042648
10	0x3d5fd57c	0.054646954
11	0x3b52429d	0.0032083162
12	0xbbc2ad4f	-0.00594107
13	0xbcaa4e08	-0.020789161
14	0xbc9dafbf	-0.019248841
15	0xbd32d1c6	-0.043657087
16	0xbcdd758c	-0.02703359
17	0xbc49a6e8	-0.01230786
18	0xbd36c3f0	-0.044620454
19	0x3d5b22ce	0.05349999
20	0x3dc8d748	0.09806687
21	0x3d237d32	0.039914317
22	0xbe000617	-0.12502323
23	0xbd3f622d	-0.046724487
24	0xbc55defd	-0.013053653
25	0x3d58eab4	0.052958205
26	0xbcc7124a	-0.024300713
27	0xbd43960a	-0.04775051
28	0x3d1fd0ce	0.03901749
29	0xbcb34fc1	-0.021888616
30	0x3d69dff4	0.057098344
31	0xbdfe596e	-0.12419401
32	0xbd59019f	-0.05298006
33	0xbd9bd6d7	-0.07609337
34	0xbcd511fa	-0.026009548
35	0xbd86ae34	-0.06576195
36	0x3da4c123	0.080446504
37	0x3dc3cec8	0.09560925
38	0xbbd72b11	-0.006566413
39	0x3cd69738	0.026195154
40	0x3d9ac3a8	0.0755685
41	0x3d99bd8d	0.07506857
42	0xbcb855c1	-0.022501828
43	0x3d017f5d	0.031615604
44	0xbcab8474	-0.020937182
45	0xbcdf6287	-0.027268661
46	0xbd5f3e36	-0.05450269
47	0x3c7c84bd	0.015412507
48	0x3cc4ad32	0.024008367
49	0x3d480f8e	0.04884296
50	0x3b09ebbf	0.0021045057
51	0xbcb51c8d	-0.02210834
52	0x3c1e2902	0.009653332
53	0xbd9bb9a6	-0.07603769
54	0x3cd32442	0.025774125
55	0xbd4662e1	-0.048434142
56	0x3d1ac39e	0.03778421
57	0xbc657fc3	-0.014007512
58	0xbda7ffbf	-0.082030766
59	0xbb882f40	-0.0041560233
60	0xbcf2f990	-0.029660016
61	0xbcaf252e	-0.021380033
62	0xbd5676a0	-0.052359223
63	0x39930f52	0.0002804944
64	0x3be7b2cc	0.007070875
65	0x3c9cc6ce	0.019137766
66	0x3db632c2	0.088964
67	0xbbf1de7c	-0.0073812585
68	0x3d774746	0.060370706
69	0x3c8269f7	0.015919669
70	0xbbfa60aa	-0.007640918
71	0xbd23d724	-0.040000096
72	0xbc884963	-0.016636556
73	0xbd79ac88	-0.060955554
74	0x3c86401f	0.016387997
75	0x3abc5be4	0.0014370647
76	0xbc25b171	-0.010113106
77	0x3ccc1784	0.024913557
78	0xbdc70f6f	-0.097197406
79	0x3cc84d30	0.024450868
80	0xbb537234	-0.0032264115
81	0x3cb9a50c	0.022661708
82	0x3b3479f4	0.002753851
83	0x3c201ca3	0.0097724525
84	0xbdc183fe	-0.09449004
85	0x3cd93a90	0.026517183
86	0x3d18b383	0.03728057
87	0x3d8b62ae	0.06805931
88	0xbcedf0c6	-0.029045474
89	0xbdb12782	-0.08650114
90	0x3cba3218	0.022728965
91	0x3cf26eee	0.029593911
92	0x3ce0566a	0.027384955
93	0x3d201f0c	0.03909211
94	0x3b724bfa	0.0036971555
95	0xbc9e3cb9	-0.019316064
96	0x3ce4957d	0.027903313
97	0x3ce2f4be	0.027704593
98	0x3c06b37a	0.0082215015
99	0x3d984e21	0.07436777
100	0x3c210244	0.0098272
101	0xbcbfa4e5	-0.023394058
102	0xbd803b5a	-0.062613204
103	0xbcf8fc81	-0.03039384
104	0x3c914f2c	0.017737947
105	0x3d7d16d9	0.061789367
106	0xbdd84080	-0.105591774
107	0x3cae3404	0.021265037
108	0x3cbb17a7	0.022838427
109	0x3d41e58a	0.047338046
110	0x3ce9ba52	0.028531227
111	0x3de9b32f	0.1141113
112	0xbd8af8a2	-0.06785704
113	0xbc4fe2cb	-0.012688349
114	0x3d52ec77	0.05149504
115	0x3d397168	0.04527417
116	0x3d96d5ef	0.07365023
117	0x3b608e73	0.0034264594
118	0xbce344f9	-0.02774285
119	0xbd9e458d	-0.077281095
120	0xbcf2324c	-0.029564999
121	0x3d3ffd5d	0.046872485
122	0xbda243ec	-0.07923111
123	0x3ca8cfbb	0.020606866
124	0xbd059bed	-0.032619406
125	0xbd6074e3	-0.05479897
126	0x3d7c6861	0.06162298
127	0x3c4ba558	0.012429558
128	0xbd010dc7	-0.03150728
129	0xbca4e0b0	-0.02012667
130	0xbd24e628	-0.040258557
131	0x3ce58549	0.028017657
132	0xbb9c4901	-0.004769445
133	0xbcb9b4b1	-0.022669168
134	0xbc39ad26	-0.011332786
135	0x3d8a3a52	0.06749405
136	0x3d01cf7a	0.031692006
137	0x3d9b68ca	0.07588346
138	0xbdcecf28	-0.10098106
139	0x3c8582cc	0.01629772
140	0x3ba1ebc4	0.0049414355
141	0xbc7586c4	-0.014985744
142	0x3d1e80ed	0.038697172
143	0x3d28aa02	0.041177757
144	0x3b82a3cb	0.003986811
145	0x3d6d7279	0.057970498
146	0x3d0afa24	0.03392996
147	0x3da7b202	0.08188249
148	0xbd8b4e4a	-0.06802042
149	0xbda08c3b	-0.07839247
150	0x3cd894bc	0.02643811
151	0xbd538b36	-0.051646434
152	0xbb5d6f13	-0.003378813
153	0xbd73d2cd	-0.059527207
154	0xbcdd274a	-0.026996274
155	0xbcc8e754	-0.024524368
156	0xbd8e2c47	-0.06942039
157	0xbd53021c	-0.051515684
158	0xbbd1c565	-0.006401705
159	0x3a05c892	0.00051034347
160	0x3dbe3a25	0.09288434
161	0xbb6c2a93	-0.0036036118
162	0xb9c74dce	-0.00038014207
163	0x3cca6469	0.024706082
164	0xbcaf11ea	-0.021370847
165	0x3d51319d	0.051072706
166	0x3d7bbc8f	0.06145912
167	0x3cf464c2	0.029833201
168	0x3c4cafae	0.012493057
169	0x3cc2fe02	0.023802761
170	0xbcb3b21b	-0.021935513
171	0x3cbf15a6	0.023325752
172	0xbdc938bd	-0.09825275
173	0x3cdf5365	0.027261445
174	0xbd08016c	-0.03320448
175	0x3d026651	0.031835858
176	0x3da2813e	0.07934807
177	0xbcbc4f04	-0.022986896
178	0xbb2b95f0	-0.00261819
179	0xbd4f7c5f	-0.05065572
180	0x3c787911	0.015165583
181	0x3cc2b6a5	0.023768732
182	0xbaff7813	-0.0019490741
183	0xbd5d2efe	-0.053999893
184	0x3c667a9a	0.014067316
185	0x3db38986	0.08766465
186	0x3daec171	0.0853299
187	0x3d09e184	0.033662334
188	0xbd062fe6	-0.032760523
189	0x3cc417cb	0.023937127
190	0x3d944372	0.07239427
191	0x3c9f4cc5	0.019445786
192	0xbd8158a7	-0.06315737
193	0x3ca4a6f3	0.020099139
194	0x3db21b30	0.08696592
195	0xbc9a5c1b	-0.018842747
196	0xbd348d8d	-0.044080306
197	0x3ca1cb10	0.019750148
198	0xbd959e20	-0.073055506
199	0x3d8de29a	0.069279864
200	0x3dbcbd7a	0.09215827
201	0xbcbb798b	-0.022885105
202	0x3b7989fa	0.0038076625
203	0xbc8ba191	-0.017044814
204	0x3c4fb316	0.012676975
205	0xbbadca8b	-0.005303686
206	0x3ca30250	0.019898564
207	0xbc55583d	-0.013021526
208	0x3c1e95ae	0.009679241
209	0x3d4f1e6c	0.050566122
210	0xbd3cf22c	-0.04612939
211	0xbd13ad29	-0.03605381
212	0xbda7dafb	-0.08196064
213	0x3da39ae8	0.079885304
214	0xbda3b16c	-0.07992825
215	0xbd70fc7a	-0.05883453
216	0xbc818e1d	-0.015814835
217	0xbca5bc50	-0.020231396
218	0x3caf21a2	0.021378342
219	0xbd4718cb	-0.04860763
220	0x3d3eea28	0.046610028
221	0xbda7962f	-0.08182942
222	0x3d7fb844	0.06243159
223	0xbca4cea8	-0.020118073
224	0x3c796f4f	0.015224292
225	0x3c652cf7	0.013987771
226	0x3cadac07	0.021200193
227	0x3c56eb7d	0.013117668
228	0x3d829d77	0.0637769
229	0x3ca60905	0.020267973
230	0x3b150364	0.0022737617
231	0x3d277626	0.04088416
232	0xbd112777	-0.035438027
233	0x3b618936	0.003441406
234	0xbc04dc5a	-0.0081091765
235	0x3c2ccb45	0.01054651
236	0x3c189800	0.009313583
237	0xbcb18dbc	-0.02167403
238	0xbd7f026d	-0.062258173
239	0x3d54c7b6	0.05194827
240	0xbcaf7ef3	-0.021422839
241	0xbcb57d53	-0.022154486
242	0x3d774ed4	0.06037791
243	0xbd9523bb	-0.07282206
244	0xbd238f52	-0.039931603
245	0x3dc0b82b	0.09410127
246	0xbd5a6a74	-0.053324178
247	0xbd276d3f	-0.04087567
248	0x3d464ad8	0.04841122
249	0x3c840b0e	0.016118553
250	0xbdc4a488	-0.09601694
251	0xbb99aa5f	-0.0046894993
252	0x3d97f32c	0.07419428
253	0xbd293e86	-0.041319393
254	0x3d448370	0.04797691
255	0xbc32f733	-0.010923195

sequential/dense_1/MatMul f4 [48, 32]
0	0xba8094a5	-0.0009809925
1	0x3e1a8d08	0.15092862
2	0xbcca27bf	-0.024677156
3	0xbd722dcf	-0.059125718
4	0x3c401339	0.011723333
5	0xbc725cde	-0.014792649
6	0x3cdba152	0.026810322
7	0xbda08f27	-0.07839804
8	0xbaf05dc1	-0.0018338488
9	0x3b5b11cf	0.0033427363
10	0xbcd817ed	-0.026378596
11	0xbca8dc81	-0.020612957
12	0x3d25f1d2	0.04051382
13	0xbcb1917f	-0.021675823
14	0x3cdf48e1	0.027256431
15	0xbc687010	-0.014186874
16	0x3d4dfbe0	0.050289035
17	0xbdeb4e96	-0.114895985
18	0x3b8ce090	0.004299231
19	0xbd8d58f6	-0.069017336
20	0x3c548642	0.012971463
21	0x3b111cc8	0.00221424
22	0x3d87d681	0.0663271
23	0xbc115a8c	-0.008871686
24	0x3d0082a7	0.0313746
25	0xbcf030b8	-0.029320106
26	0xbd6aeb2d	-0.057353187
27	0xbc22d9ea	-0.00993965
28	0xbc998e71	-0.01874468
29	0x3ad3856f	0.0016137789
30	0xbd48e518	-0.049046606
31	0xbd033a07	-0.03203776
32	0xbd130803	-0.035896312
33	0xbc1e2a72	-0.009653674
34	0xbbc090b3	-0.0058766245
35	0x3deadc97	0.114678554
36	0xbd0cf8a7	-0.03441682
37	0x3d8ec73c	0.06971595
38	0x3c2e3467	0.010632611
39	0xbcc02a7b	-0.023457756
40	0x3c2d3424	0.010571513
41	0x3dd492e7	0.10379582
42	0xbd0a82f1	-0.03381628
43	0xbcd0e24b	-0.02549853
44	0xbdb597f4	-0.088668734
45	0x3c937998	0.018002316
46	0xbd3cf572	-0.046132512
47	0xbc9b0e12	-0.018927608
48	0xbc07499f	-0.008257299
49	0x3d16ba02	0.036798485
50	0xbc6754e5	-0.0141193615
51	0x39edc458	0.0004535045
52	0x3d311f24	0.04324259
53	0x3b6ce862	0.0036149253
54	0xbd8b6bdd	-0.06807683
55	0x3af6d057	0.0018830401
56	0xbd69ee00	-0.05711174
57	0x3c74c7c0	0.014940202
58	0xbcb08a5a	-0.021550346
59	0x3cbc5511	0.022989782
60	0xbbc39c7a	-0.005969581
61	0x3cc631f8	0.024193749
62	0x3db618e3	0.088914655
63	0x3d4b49f5	0.049631078
64	0xbcc1dea5	-0.023665735
65	0xbcf75a6e	-0.030194487
66	0x3d667ad4	0.05626948
67	0xbc26b0db	-0.010174002
68	0xbcb711ff	-0.022347448
69	0xbd5f7e0c	-0.054563567
70	0xbc1ab4bf	-0.009442507
71	0x3d71ad96	0.059003435
72	0x3da48a79	0.08034224
73	0x3d1e5fbc	0.03866552
74	0xbc214c83	-0.009844902
75	0xbd4722ff	-0.04861736
76	0xbd2ab049	-0.041672025
77	0x3d728f66	0.059218787
78	0x3c918e9f	0.017768202
79	0x3d89e881	0.067338
80	0xbc5d873f	-0.013521015
81	0x3d1c21f2	0.03811831
82	0x3aa6ff8f	0.0012740957
83	0xbd2d92a3	-0.04237617
84	0xbc908ab6	-0.017644268
85	0x3d076bd5	0.03306182
86	0x3ca7b8fe	0.020473953
87	0xbd6f5ebc	-0.058439955
88	0x3cf3b194	0.029747762
89	0x3ca5199f	0.020153819
90	0xbd5b9548	-0.053609163
91	0xbd13c448	-0.03607586
92	0xbbd8a26e	-0.00661116
93	0x3d39c260	0.045351386
94	0x3dd147cd	0.10218773
95	0x3d8fb648	0.07017189
96	0x3b510bef	0.0031897982
97	0xbd24eb91	-0.040263716
98	0xbcb81d44	-0.022474892
99	0x3d11b1c5	0.035569925
100	0xbc62b9e5	-0.013838266
101	0xbbabfb63	-0.0052484735
102	0x3de6193c	0.11235282
103	0xbd80ed56	-0.06295268
104	0xbc221545	-0.009892766
105	0xbd56d475	-0.05244871
106	0xbd8b9589	-0.06815631
107	0xbdab5c48	-0.083672106
108	0xbcdb2d51	-0.026755007
109	0x3b5455e8	0.0032399837
110	0x3bd84d7b	0.0066010333
111	0xbbb1571f	-0.005411997
112	0x3d1cff4c	0.038329408
113	0xbd5e692d	-0.054299522
114	0xbc7f35d1	-0.015576796
115	0x3db6deb8	0.08929199
116	0x3db58cac	0.08864722
117	0x3cd8ba43	0.026456004
118	0xbd57960a	-0.052633323
119	0x3d011619	0.031515215
120	0xbd411612	-0.04714019
121	0x3c9af550	0.018915802
122	0x3d7d3b98	0.06182441
123	0xbda82550	-0.08210242
124	0x3d9dfc1a	0.077141
125	0x3d84b438	0.064796865
126	0xbcaaa065	-0.020828435
127	0xbd58d57f	-0.05293798
128	0xbce89312	-0.028390441
129	0xbc9740fb	-0.018463602
130	0xbb9448e1	-0.0045252894
131	0x3dba3e7b	0.090939485
132	0xbc94fc39	-0.018186675
133	0x3c65b76f	0.014020785
134	0x399e0414	0.00030139147
135	0xbc1e02b7	-0.009644202
136	0x3c409e59	0.011756503
137	0x3c28cb2c	0.010302346
138	0x3c2c6532	0.010522174
139	0xbcde74a8	-0.027155235
140	0x3d10552a	0.03523747
141	0x3d3c04eb	0.045903128
142	0x3cce8e25	0.025214264
143	0x3d1dbced	0.03851025
144	0x3d9f2b08	0.077718794
145	0xbc8a9d2c	-0.016920649
146	0xbcd2213f	-0.025650619
147	0x3c9cf3da	0.019159246
148	0x3d330b03	0.043711673
149	0xbcfdcc00	-0.030981064
150	0xbcc500df	-0.024048267
151	0x3c9cbff0	0.019134492
152	0x3d18bd75	0.037290055
153	0x3d8271a5	0.06369332
154	0xbda96dff	-0.08272933
155	0xbd07bc9c	-0.033138856
156	0x3bcd5561	0.0062662815
157	0x3d898969	0.06715662
158	0x3b1b1884	0.0023665735
159	0x3cd3120c	0.025765441
160	0x3d4d1b52	0.050074883
161	0x3bb75ce2	0.0055957893
162	0xbc52d6c9	-0.012868592
163	0x3c9a30ee	0.01882216
164	0xbd27df18	-0.040984243
165	0xbd9a057e	-0.07520579
166	0x3dad2885	0.08454994
167	0x3d8d38df	0.06895613
168	0x3c700fc3	0.014652195
169	0xbcd51015	-0.026008645
170	0x3c8216f9	0.015880095
171	0xbd5f368a	-0.054495372
172	0xbcd24265	-0.025666425
173	0x3dd13c3f	0.10216569
174	0xbcdcbd90	-0.02694586
175	0x3a5b29cd	0.0008360416
176	0x3d39792e	0.04528158
177	0xbcd6f4e4	-0.02623982
178	0x3cb9fdca	0.022704024
179	0x3c50204f	0.0127030155
180	0xbc1b052a	-0.00946168
181	0xbc597d2d	-0.013274473
182	0x3c12d656	0.0089622345
183	0xbce6c5cc	-0.028170489
184	0xbdd6742f	-0.10471379
185	0xbb25e821	-0.0025315362
186	0xbc2fc090	-0.010727063
187	0xbbcda629	-0.0062759113
188	0xbd92ebb1	-0.07173861
189	0xbc8a2f65	-0.016868303
190	0xbd58a44f	-0.052891072
191	0x3d0cae1e	0.03434574
192	0x3d844b2b	0.0645965
193	0x3d813f67	0.06310921
194	0x3d0c0ff7	0.034194913
195	0x3bb03cc4	0.0053783376
196	0x3c3ee22f	0.011650606
197	0x3d029288	0.031878024
198	0xbd2c051e	-0.041997068
199	0x3b564b95	0.003269886
200	0x3bbf843e	0.005844622
201	0x3d293843	0.04131342
202	0xbd3ee91c	-0.04660903
203	0x3d06f02c	0.03294389
204	0x3d05d2b4	0.032671645
205	0xbc6dade7	-0.014506794
206	0x3cacda30	0.021100134
207	0xbb9d01bf	-0.004791468
208	0xbb09fcf1	-0.0021055306
209	0x3c87d22c	0.01657971
210	0x3d455abe	0.04818224
211	0x3d8507b6	0.06495611
212	0x3d9ed1a9	0.07754833
213	0xbcc4cd53	-0.024023687
214	0xbd0562c4	-0.032564893
215	0xb9931ca1	-0.00028059355
216	0x3b86a8e5	0.0041094893
217	0xbe05a1b9	-0.13049974
218	0xbd8ec4ce	-0.06971131
219	0xbd1dd3c3	-0.03853203
220	0x3d86a55f	0.06574511
221	0xbbb80b70	-0.005616598
222	0x3d12ab8c	0.03580813
223	0x3d218920	0.039437413
224	0x3da535d3	0.08066907
225	0xbd4aee3b	-0.0495436
226	0xbda5cd87	-0.08095842
227	0x3d58c6a3	0.05292381
228	0x3bafcd2c	0.0053650346
229	0x3da01e1c	0.07818243
230	0x3c53ee03	0.012935164
231	0x3d60dee0	0.05490005
232	0x3b3f0f70	0.0029153489
233	0xbba361b0	-0.0049860105
234	0xbd8ffa2f	-0.070301406
235	0xbc0feabf	-0.008783995
236	0x3ccdcf92	0.025123391
237	0x3d7ab70e	0.06120973
238	0xbd231fcd	-0.03982525
239	0xbdba4642	-0.09095432
240	0xbbe53e57	-0.006995957
241	0xbd842905	-0.06453136
242	0x3d2a9250	0.04164344
243	0x3d8f68f0	0.07002437
244	0x3bc75215	0.006082783
245	0xbdc365f3	-0.0954093
246	0xbd1472b0	-0.036242187
247	0xbd8e7e28	-0.06957656
248	0x3d3861ac	0.045015022
249	0x3d73544f	0.059406575
250	0xbdbda574	-0.09260073
251	0x3c8117c8	0.01575841
252	0x3c228f2e	0.009921832
253	0xbb721a68	-0.003694201
254	0xbd55fc6d	-0.052242685
255	0x3d11f4ac	0.035633728

sequential/dense_3/MatMul f4 [128, 64]
0	0x3db4bcbe	0.08825062
1	0x3d5bb2cc	0.05363731
2	0x3d5e2f4b	0.05424432
3	0xbc04bf6d	-0.00810228
4	0xbd52fff0	-0.051513612
5	0xbc98f9d0	-0.018673807
6	0xbdb2b705	-0.087263145
7	0xbd89c7f8	-0.06727594
8	0xbde0a59e	-0.10969089
9	0x3db5e000	0.08880615
10	0x3d8908c2	0.066911235
11	0xbc785107	-0.015156037
12	0xbca9e4b3	-0.020738935
13	0xbe02866c	-0.1274659
14	0xbd8e0540	-0.06934595
15	0x3e0f09e5	0.13968618
16	0x3d600e95	0.054701407
17	0x3cdb9222	0.02680308
18	0xbaa37cf5	-0.0012473153
19	0x3bda7d63	0.0066677793
20	0xbd8ee957	-0.069781
21	0xbd90873e	-0.070570454
22	0x3d13857d	0.036015976
23	0x3d28ff36	0.041259013
24	0xbe0c7262	-0.13715509
25	0xbd9eb2c8	-0.077489436
26	0xbde5475e	-0.11195253
27	0x3dce3598	0.10068816
28	0xbdeb5cc3	-0.11492302
29	0xba9f9661	-0.0012175554
30	0xbca8b1e9	-0.020592647
31	0xbd8bf6c9	-0.0683418
32	0x3d13335d	0.035937656
33	0xbdd4f8a4	-0.10398987
34	0xbc9e88ae	-0.019352283
35	0x3d600e2a	0.054701008
36	0x3dd90ddf	0.10598349
37	0xbc9ff39c	-0.019525342
38	0x3bb2e2e1	0.005459175
39	0xbde30c90	-0.110863805
40	0x3d503768	0.05083409
41	0x3dcbf267	0.09958344
42	0x3dac1c74	0.084038645
43	0xbd9219e6	-0.07133846
44	0xbb592bf9	-0.0033137782
45	0xbd664cc6	-0.05622556
46	0xbd60ca3b	-0.054880362
47	0x3d2326b4	0.039831832
48	0x3ce44d79	0.027868973
49	0xbd318520	-0.04333985
50	0x3d3ea496	0.04654368
51	0xbce2793f	-0.027645705
52	0x3c3d6a4a	0.011560986
53	0x3d5dadcf	0.054120835
54	0x3d0801f1	0.033204976
55	0x3d90bb60	0.07066989
56	0xbdaf424e	-0.085575685
57	0x3dd68757	0.10475033
58	0xbcfdfed5	-0.031005302
59	0xbd18e341	-0.0373261
60	0x3d0070ac	0.031357452
61	0x3d84eac2	0.06490089
62	0xbd8af30b	-0.06784638
63	0xbd88a4fc	-0.06672093
64	0x3da17314	0.078832775
65	0xbd735f7c	-0.059417233
66	0xbdbd72f0	-0.09250438
67	0x3d35c88d	0.044380713
68	0xbd24ab8a	-0.040202655
69	0xbd7eb0ea	-0.062180437
70	0x3ddecc5e	0.10878824
71	0xbd217d2e	-0.03942602
72	0xbd3e54c0	-0.046467543
73	0xbdab9c8b	-0.083794676
74	0x3b0c107b	0.0021372128
75	0xbce169ef	-0.027516333
76	0xbd7d3856	-0.061821304
77	0x3c2d85b4	0.010590959
78	0x3d6f93d9	0.058490608
79	0xbdddd3fe	-0.1083145
80	0x3d092a87	0.033487823
81	0xbe045841	-0.12924291
82	0xbd927316	-0.07150857
83	0x3d42c87e	0.047554485
84	0xbdd96b1c	-0.106161326
85	0x3d7e9898	0.062157243
86	0xbda3e2e5	-0.08002261
87	0x3cb239d5	0.021756092
88	0x3b9c42fd	0.004768728
89	0x3dbf0af7	0.09328263
90	0xbc996e04	-0.018729217
91	0xbd8f555f	-0.06998705
92	0xbb0885da	-0.0020831735
93	0x3dcb6aee	0.099325046
94	0xbcfbc8a1	-0.030735316
95	0x3e36c889	0.17849936
96	0x3d10736e	0.035266332
97	0x3c5e324c	0.013561796
98	0x3da784e6	0.08179645
99	0x3d0de4b2	0.03464193
100	0xbdd76350	-0.10516989
101	0x3da7528d	0.08170042
102	0x3cd72ca8	0.026266411
103	0xbdc78c30	-0.097435355
104	0xbcd51e00	-0.026015282
105	0xbb0472b2	-0.0020209965
106	0xbdc26d82	-0.09493543
107	0x3df031e2	0.117282644
108	0xbccae575	-0.024767617
109	0x3df9b6a7	0.12193041
110	0xbd9ab8df	-0.075547926
111	0xbd18752c	-0.03722112
112	0xbc999ac3	-0.018750554
113	0x3da81bc6	0.08208422
114	0x3dca5b57	0.09880703
115	0x3dee0f51	0.11624015
116	0xbc394a6f	-0.01130925
117	0x3d0a5380	0.033771038
118	0xbde08dd0	-0.109645486
119	0xbdc584c0	-0.09644461
120	0x3d34afcc	0.044112965
121	0xbdc2c8a4	-0.095109254
122	0xbce89b07	-0.028394235
123	0xbe04daf3	-0.12974147
124	0xbde2ced2	-0.11074604
125	0x3dad7954	0.08470407
126	0xbd3bd28d	-0.045855094
127	0x3dcb9cca	0.099420145
128	0xbd800fb7	-0.06252997
129	0x3d865692	0.06559481
130	0x3e070679	0.13186063
131	0xbdd72ab8	-0.10506195
132	0xbc842375	-0.016130188
133	0xbcf91cad	-0.030409181
134	0x3db5de97	0.08880346
135	0x3d11c315	0.035586435
136	0xbdbcca4d	-0.09218273
137	0x3d6f9ecd	0.058501054
138	0x3db1b34a	0.08676775
139	0xbd199377	-0.03749415
140	0x3d39e949	0.045388494
141	0x3df459a7	0.11931162
142	0x3cf19453	0.029489672
143	0xbdcb8136	-0.099367544
144	0xbd325a61	-0.043543223
145	0xbd6c8de4	-0.057752505
146	0xbd8a7171	-0.067599185
147	0x3dc55c96	0.096368
148	0xbd1d653b	-0.03842662
149	0xbcd58e46	-0.026068818
150	0x3ce94133	0.028473472
151	0xbdd613d8	-0.10453004
152	0x3a823bd2	0.0009936041
153	0x3da86756	0.08222835
154	0x3d7bf945	0.06151702
155	0x3d7f6d93	0.062360357
156	0xbdb39b20	-0.08769822
157	0x3d9c712c	0.07638773
158	0x394c3215	0.00019473613
159	0x3de71021	0.11282373
160	0xbd375e7a	-0.044767834
161	0xbdbf66a7	-0.09345751
162	0xbdbbdb7e	-0.09172724
163	0x3cce008b	0.025146743
164	0xbd1eb7ce	-0.03874951
165	0x3d16d9bd	0.036828745
166	0xbd64609a	-0.05575619
167	0xbdea7a27	-0.1144908
168	0x3ba375c0	0.004988402
169	0xbdd65587	-0.10465532
170	0xbcf626e0	-0.030047834
171	0x3df0d72e	0.11759792
172	0x3d541c41	0.051784758
173	0x3e0090fc	0.12555307
174	0x3cb10888	0.021610513
175	0x3dcd31c0	0.10019255
176	0xbc907df3	-0.017638182
177	0x3d2faea6	0.042891167
178	0xbd3c86e0	-0.046027064
179	0x3e234d4c	0.15947455
180	0xbdee3f6c	-0.116331905
181	0x3ddecf76	0.10879414
182	0x3e129d0d	0.14317723
183	0xbe1933c2	-0.1496115
184	0xbd0c6a00	-0.034280777
185	0xbd96f876	-0.07371609
186	0x3d868f40	0.065702915
187	0x3e06f31c	0.13178676
188	0x3d5a43f1	0.05328745
189	0xbe2d0504	-0.16896445
190	0xbcab11a9	-0.020882444
191	0xbd785a56	-0.060633026
192	0x3d723d84	0.059140697
193	0x3d4362ec	0.04770176
194	0xbd3b0fd6	-0.0456694
195	0xbd0e1923	-0.03469194
196	0xbdd23082	-0.102631584
197	0x3e241abb	0.16025822
198	0x3daa39f7	0.08311837
199	0xbe02a91f	-0.12759827
200	0x3ba1dd90	0.0049397424
201	0xbd4e4644	-0.05035998
202	0xbd485bac	-0.04891555
203	0x3cdc739c	0.026910596
204	0xbda73e0b	-0.08166131
205	0x3dd9daf4	0.10637465
206	0x3d393b00	0.045222282
207	0x3cd10f04	0.025519855
208	0x3db22061	0.08697582
209	0xbd1980cf	-0.037476357
210	0x3df8ea00	0.12154007
211	0x3d8cef17	0.0688154
212	0x3d0efbbf	0.034908053
213	0x3d81ca55	0.0633742
214	0x3c41d7e9	0.011831262
215	0x3dbd3c42	0.09240009
216	0x3cf7e7a0	0.030261815
217	0x3cedd866	0.02903385
218	0xbe054cb0	-0.13017535
219	0x3cb470c9	0.022026436
220	0xbe0c27aa	-0.13687006
221	0x3d864b22	0.06557299
222	0x3d9dff6a	0.07714732
223	0xbccbbb7d	-0.024869675
224	0x3de0f54e	0.10984288
225	0x3d76eeb8	0.060286254
226	0xbb4ac73a	-0.0030941502
227	0x3e02ef3e	0.12786576
228	0xbd8e7527	-0.06955939
229	0x3d985503	0.0743809
230	0xbdd8576d	-0.1056355
231	0xbc6d02ee	-0.0144660305
232	0xbdcee06c	-0.10101399
233	0x3d3108b3	0.043221187
234	0xbd6bacfc	-0.057538018
235	0x3da1c792	0.07899393
236	0xbdcb5661	-0.09928585
237	0x3da65ccb	0.081231676
238	0xbc53929f	-0.012913375
239	0xbd0a6e31	-0.033796493
240	0xbc3c840e	-0.011506094
241	0xbcc88098	-0.02447538
242	0x3d9b394c	0.07579288
243	0x3db0e7a8	0.08637935
244	0x3dc15af0	0.09441173
245	0x3d09fdb3	0.033689212
246	0xbd3acf48	-0.045607835
247	0x3d44f12d	0.048081566
248	0x3db23b6e	0.087027416
249	0x3c19059d	0.009339717
250	0x3d2b9905	0.041893978
251	0xbdcddb6a	-0.100516155
252	0xbd341d4a	-0.043973245
253	0x3d3bd340	0.04585576
254	0xbd8ba8f7	-0.06819337
255	0xbde81395	-0.1133186

sequential/dense_4/MatMul f4 [91, 128]
0	0xbc1f3c73	-0.009719002
1	0xbc62206e	-0.013801677
2	0xbdbb94c2	-0.09159233
3	0xbd470b25	-0.048594613
4	0xbbc6f1cb	-0.0060713044
5	0x3c86f6d1	0.016475113
6	0xbd573e64	-0.052549735
7	0xbd619d17	-0.055081453
8	0xbd4e5a71	-0.05037922
9	0xbcb2eb49	-0.021840708
10	0xbd19a23e	-0.03750824
11	0xbb27450a	-0.0025523328
12	0xbc1bb920	-0.009504586
13	0xbc52b64b	-0.012860845
14	0xbd52ccef	-0.05146497
15	0xbcd9cc68	-0.026586726
16	0x3bdcba56	0.00673608
17	0xbd83a725	-0.06428365
18	0xbc4bfbcc	-0.01245017
19	0xbaa9429d	-0.0012913529
20	0xbc117ebb	-0.008880313
21	0xbca89bca	-0.020582099
22	0xbcdde48f	-0.027086524
23	0x3c876053	0.016525423
24	0xbc6165a4	-0.013757143
25	0xbc2d0a12	-0.010561483
26	0xbbe51d72	-0.0069920355
27	0xbc55731c	-0.0130279325
28	0xbc5908c5	-0.01324672
29	0xbbcb35fd	-0.0062015043
30	0xbbca28cf	-0.0061694155
31	0xbc7b47c8	-0.015336938
32	0x3d6b9cf1	0.057522718
33	0xbd0bd906	-0.034142517
34	0x3d176d15	0.036969263
35	0xbc43cebc	-0.011951145
36	0xbd003c90	-0.031307757
37	0x3cd12d25	0.025534222
38	0xbc0c7d42	-0.008574786
39	0xbc2df997	-0.010618589
40	0xbc9e6e63	-0.019339746
41	0xbc89c5c5	-0.016817937
42	0xbdc2419e	-0.09485172
43	0x3d24de4f	0.040251072
44	0xbc3273ad	-0.010891837
45	0xbbdc1664	-0.0067165364
46	0xbc36c66e	-0.011155708
47	0xbc6deabc	-0.014521297
48	0xbc9dc6ad	-0.019259775
49	0xbc19b46d	-0.009381396
50	0xbd12b116	-0.035813414
51	0x3cf4cb66	0.029882144
52	0xbc1e35fd	-0.0096564265
53	0xbbbd5c4f	-0.0057788263
54	0x3cfb4977	0.03067468
55	0xbd78fdff	-0.060789105
56	0xbc8e2ff4	-0.01735685
57	0xbcf3bbb7	-0.029752595
58	0xbbeaf147	-0.007169876
59	0xbca7a223	-0.020463055
60	0xbc2515ca	-0.010075996
61	0x3c1b501e	0.009479551
62	0xbc9c51a4	-0.019081898
63	0xbbb98c8e	-0.0056625074
64	0xbce92d82	-0.028464083
65	0xbd551979	-0.052026246
66	0xbc6b43ae	-0.014359398
67	0xbd659783	-0.056052696
68	0x3d61cf44	0.055129305
69	0xbc19c7c0	-0.009386003
70	0xbd24e3c7	-0.040256288
71	0xbd33fe84	-0.043943897
72	0xbc2ea12b	-0.010658543
73	0xbca40f41	-0.020026805
74	0xbbf820d1	-0.0075722714
75	0xbc3811a8	-0.011234678
76	0xbd262251	-0.04056007
77	0x3cfface4	0.03121037
78	0x3cd60158	0.026123688
79	0xbca9a8ba	-0.020710338
80	0xbd1b19e0	-0.037866473
81	0xbc1aa7c9	-0.009439417
82	0xbbb57432	-0.005537533
83	0xbd4c5f2d	-0.049895454
84	0xbc664422	-0.01405433
85	0xbd272e6f	-0.040815767
86	0x3c50621f	0.012718706
87	0x3c82f2a7	0.015984846
88	0xbc1200da	-0.008911336
89	0xbc75b854	-0.0149975605
90	0x3c8ac2a3	0.016938513
91	0xbbdd9a57	-0.0067627835
92	0xbd04926f	-0.032366212
93	0xbc64e626	-0.013970887
94	0xbc20e865	-0.009821032
95	0xbcaceda1	-0.021109404
96	0xbd2f7d77	-0.042844262
97	0xbd9dfa03	-0.077137016
98	0xbc05bd09	-0.008162745
99	0xbc592c4c	-0.01325519
100	0xbce5ddee	-0.028059926
101	0xbc79434c	-0.015213799
102	0xbc9fc223	-0.019501751
103	0xbc2ad74c	-0.010427307
104	0xbd332117	-0.04373273
105	0x3d5d098b	0.05396418
106	0xbcce775e	-0.025203403
107	0xbbc66998	-0.006055068
108	0xbc218f77	-0.009860865
109	0xbc98b97d	-0.018643135
110	0xbc70576a	-0.014669279
111	0xbbf0d0eb	-0.0073491237
112	0xbc688b84	-0.014193419
113	0xbc6b3051	-0.014354781
114	0xbbdae6b6	-0.006680335
115	0xbc94336f	-0.018090932
116	0xbc0f42ea	-0.008743981
117	0xbba2b15d	-0.004964991
118	0xbcd41536	-0.02588902
119	0xbbc28805	-0.005936625
120	0xbcaeba5f	-0.021329103
121	0xbc5899f0	-0.013220295
122	0xbd1ce878	-0.038307637
123	0xbc0b05e9	-0.008485296
124	0xbbb7e338	-0.0056118034
125	0xbcbd994d	-0.023144389
126	0xbbd6119e	-0.006532862
127	0xbc47dc1f	-0.012198477
128	0xbc5361fe	-0.012901781
129	0xbc024b68	-0.007952549
130	0xbd1f17d3	-0.03884108
131	0x3d74bad8	0.0597485
132	0xb958ff85	-0.00020694554
133	0xbb9b4107	-0.0047379765
134	0xbcd0b12f	-0.025475113
135	0xbb7376dc	-0.0037149703
136	0xbd6e1c18	-0.05813226
137	0xbc45d55a	-0.012074793
138	0x3d0f3af6	0.03496834
139	0xbc2c0ee8	-0.010501601
140	0xbcc80a3f	-0.024418948
141	0xbc0669e7	-0.00820396
142	0xbd193e38	-0.037412852
143	0xbce41c85	-0.02784563
144	0xbbefa4c5	-0.007313343
145	0xbd8709de	-0.06593679
146	0xbd6f439a	-0.05841408
147	0xbd23dd07	-0.04000571
148	0xbc4816cd	-0.012212467
149	0xbc13904d	-0.009006572
150	0xbaf7ac1e	-0.0018895899
151	0x3c8be140	0.017075181
152	0xbbeef615	-0.007292519
153	0xbcc0cec4	-0.023536094
154	0xbcbcf7d3	-0.02306739
155	0xbce1b49b	-0.02755194
156	0x3cfbc584	0.030733831
157	0xbc2a547c	-0.010396119
158	0xbd1eab01	-0.0387373
159	0xbd161844	-0.036644235
160	0xbb2dd70a	-0.0026525878
161	0xbd255c2c	-0.040371105
162	0xbc402ea5	-0.011729871
163	0xbca8f7ab	-0.02062591
164	0xbcf56e24	-0.029959746
165	0xbd509ac6	-0.050928853
166	0xbd22b7da	-0.039726116
167	0xbcedd1ae	-0.029030647
168	0xbc54dac3	-0.01299161
169	0x3cf9c4f0	0.030489415
170	0xbd287ce8	-0.041134745
171	0xbcba781a	-0.022762347
172	0xbc12a4ce	-0.008950425
173	0xbbe0c82f	-0.0068598012
174	0xbd74a3c4	-0.05972649
175	0x3be8556f	0.0070902626
176	0x3d25dca5	0.040493626
177	0xbc4b747b	-0.012417908
178	0x3c1f214a	0.009712527
179	0xbc4172ee	-0.0118071865
180	0xbc12fd87	-0.008971578
181	0x3c8f3c90	0.017484933
182	0xbc87c03e	-0.01657116
183	0xbb5d5968	-0.0033775214
184	0x3c22382e	0.00990109
185	0xbccf7c31	-0.025327774
186	0xbc04c7dd	-0.008104292
187	0xbc2c9f28	-0.010535993
188	0x3c24c99a	0.010057831
189	0xbd0f6bcd	-0.035014916
190	0xbc1890e8	-0.009311892
191	0xbc3778ff	-0.011198281
192	0xbd716bed	-0.058940817
193	0xbc0fa61f	-0.008767634
194	0x3ab2bf93	0.0013637416
195	0xbcae3f11	-0.021270307
196	0x3cacf3d0	0.021112353
197	0xba9e654b	-0.0012084631
198	0xbd9fe0ed	-0.07806573
199	0xbd107c7d	-0.03527497
200	0xbbd0cba5	-0.0063719326
201	0xbc04364a	-0.008069584
202	0xbc9fbfc5	-0.019500623
203	0xbd2aa9d7	-0.04166588
204	0x3d089e5a	0.03335414
205	0xbcbc18f7	-0.022961123
206	0xbd40c957	-0.047067013
207	0xbcc78c31	-0.02435884
208	0xbb6c7f93	-0.0036086782
209	0xbc22953c	-0.009923276
210	0xbc57f668	-0.013181306
211	0x3b3270cf	0.0027227884
212	0xbcc98025	-0.024597237
213	0xbc0cfe23	-0.008605513
214	0xbc1fd9cd	-0.009756518
215	0x3cd74479	0.026277767
216	0xbce862ea	-0.028367478
217	0xbcb443f9	-0.022005068
218	0xbcdf62c5	-0.027268777
219	0xbbd30b21	-0.0064405357
220	0xbcde84ff	-0.027163027
221	0x3c440ad1	0.011965469
222	0xbd866ea7	-0.06564074
223	0xbc343c2e	-0.011000676
224	0xbbf0d845	-0.00735
225	0xbcefc16a	-0.029267032
226	0xbd03f390	-0.0322147
227	0xbd3f8f3d	-0.046767462
228	0xbd4c1016	-0.04982003
229	0xbc74d165	-0.014942502
230	0xbd5fc264	-0.054628745
231	0xbc216508	-0.009850748
232	0xbc940b68	-0.018071845
233	0xbc1235cf	-0.008923962
234	0x38d0b324	9.9515804e-05
235	0xbcb12961	-0.021626176
236	0xbc1904f3	-0.009339559
237	0xbd2090df	-0.03920066
238	0xbc19a8bf	-0.009378611
239	0x3c2b39b9	0.010450774
240	0xbc84d902	-0.016216759
241	0xbc04b008	-0.00809861
242	0xbce5ba09	-0.02804281
243	0xbc35b65f	-0.011090844
244	0xbc596baf	-0.013270303
245	0xba3c97ec	-0.0007194269
246	0xbbcfb141	-0.006338269
247	0xbcb9b2af	-0.02266821
248	0xbbff65d1	-0.00779412
249	0x3d4dab53	0.050212216
250	0x3c18b1da	0.009319747
251	0xbce82121	-0.02833611
252	0xbc68818f	-0.014191045
253	0xbd5d8424	-0.054081097
254	0xbc0ef098	-0.008724354
255	0xbc253d72	-0.0100854505
