app/src/main/assets/model_yellow.tflite (tflite, 106984 bytes, 18 tensors)

sequential/batch_normalization/batchnorm/mul f4 [8]
0	0x3eb723b0	0.35769415
1	0x3fca6518	1.5812101
2	0x3ea6f673	0.326099
3	0x3e8d76cc	0.27629697
4	0x3fba3fef	1.4550761
5	0x3fa6fae6	1.3045318
6	0x3fab3919	1.33768
7	0x3f2b484a	0.6690718

sequential/batch_normalization/batchnorm/sub f4 [8]
0	0xc1c6dafc	-24.856926
1	0xc2eeadb9	-119.3393
2	0xc1c37be0	-24.435486
3	0xc197b1f8	-18.961899
4	0xc2b8caf9	-92.39643
5	0xc2ab3936	-85.61174
6	0xc29d211a	-78.56465
7	0xc215d39a	-37.456642

sequential/batch_normalization_1/batchnorm/mul f4 [32]
0	0x40a9e1c0	5.3088074
1	0x40dd1566	6.908862
2	0x411737a1	9.451081
3	0x40bdc9b6	5.930873
4	0x4179388e	15.576307
5	0x41125160	9.144867
6	0x4122b561	10.169282
7	0x41a1defe	20.233883
8	0x411fc89f	9.98648
9	0x41010cef	8.065658
10	0x41aa61a4	21.297676
11	0x4113e82d	9.244184
12	0x4172a090	15.1642
13	0x41763aa1	15.389314
14	0x40f4a86d	7.64556
15	0x41359bb2	11.350512
16	0x412a1209	10.629403
17	0x41862e7e	16.772701
18	0x410f5b50	8.959793
19	0x415e4a2c	13.893108
20	0x40f291b8	7.580288
21	0x4184eaaa	16.614582
22	0x41162442	9.383852
23	0x412afff1	10.687486
24	0x41914503	18.158697
25	0x40bb2129	5.847798
26	0x410bc8b0	8.736496
27	0x412f2a1d	10.947782
28	0x40da1084	6.814516
29	0x41a62794	20.769325
30	0x419c005d	19.500177
31	0x413cc19f	11.797271

sequential/batch_normalization_1/batchnorm/sub f4 [32]
0	0xbed2ef19	-0.41198042
1	0xbef373b2	-0.47549206
2	0xbe9535f0	-0.29142714
3	0xbed6b5cb	-0.41935572
4	0xbdb3186e	-0.08744894
5	0xbe7a8632	-0.24465254
6	0xbe9e0daa	-0.308698
7	0xbe99332a	-0.29921848
8	0xbe8e6a11	-0.27815297
9	0xbefb8a49	-0.4912894
10	0xbec5c674	-0.3862797
11	0xbeb431c7	-0.35194227
12	0xbeb4a37e	-0.35280985
13	0xbf0061ba	-0.5014912
14	0xbef7b0f1	-0.48377183
15	0xbeb7c80f	-0.3589482
16	0xbeb02ed9	-0.34410742
17	0xbf08f966	-0.5350555
18	0xbec4af47	-0.38414976
19	0xbefce105	-0.49390426
20	0xbedb3ed7	-0.4282138
21	0xbe87efbb	-0.26550087
22	0xbf005f19	-0.5014511
23	0xbedf68ec	-0.43634737
24	0xbe7680fa	-0.24072638
25	0xbec6ed02	-0.38852698
26	0xbef0c082	-0.47021872
27	0xbecd328d	-0.4007763
28	0xbeb45dcf	-0.3522782
29	0xbe7246bf	-0.236598
30	0xbe8cc6cc	-0.2749542
31	0xbea49f76	-0.3215291

sequential/batch_normalization_2/batchnorm/mul f4 [48]
0	0x40db7977	6.8585773
1	0x404fea51	3.2486765
2	0x41050c63	8.315524
3	0x41134a4f	9.205642
4	0x405f45df	3.4886396
5	0x40d43b5e	6.632247
6	0x4096e771	4.715752
7	0x40be1235	5.9397225
8	0x410ff6b3	8.997729
9	0x410276ee	8.154036
10	0x40eb8bfd	7.3608384
11	0x40ef5316	7.4788923
12	0x405b823b	3.4298236
13	0x4077ff9b	3.874976
14	0x4074f977	3.8277261
15	0x40f56af6	7.6693068
16	0x40bf0bf7	5.9702106
17	0x4096b080	4.7090454
18	0x409d1200	4.9084473
19	0x413a374e	11.638502
20	0x41358591	11.345109
21	0x41059e2a	8.351114
22	0x40853fcb	4.164037
23	0x40b8bc49	5.772984
24	0x40cb4dfc	6.3532696
25	0x412ee4e0	10.930878
26	0x40f714fa	7.7213106
27	0x40d9a7ba	6.8017244
28	0x40ea2ca3	7.317949
29	0x40b734cf	5.7251964
30	0x413834f7	11.512931
31	0x411ca222	9.789583
32	0x40da1cc7	6.816013
33	0x4158ffc5	13.562444
34	0x413fe03d	11.992246
35	0x40cc8e28	6.392353
36	0x40f6725c	7.70146
37	0x40a236a4	5.06917
38	0x41330a56	11.190023
39	0x40d847d6	6.758769
40	0x40baa1b9	5.8322415
41	0x41747658	15.2788925
42	0x40da6487	6.8247714
43	0x40cd4491	6.41462
44	0x40c662f7	6.1995807
45	0x40926bc7	4.5756564
46	0x40b82090	5.753975
47	0x4100c977	8.049186

sequential/batch_normalization_2/batchnorm/sub f4 [48]
0	0xbed4edd8	-0.4158771
1	0xbed1c6c6	-0.40971965
2	0xbeeeb354	-0.46621192
3	0xbea325bb	-0.31864724
4	0xbf05d74c	-0.5228164
5	0xbeb14039	-0.3461931
6	0xbef537cb	-0.4789413
7	0xbeec0376	-0.4609639
8	0xbeb877a4	-0.3602878
9	0xbed68a1a	-0.41902238
10	0xbf087595	-0.53304416
11	0xbeca478e	-0.39507717
12	0xbf0066e4	-0.50157
13	0xbeb4ca38	-0.3531053
14	0xbeb149bf	-0.34626576
15	0xbeea926f	-0.45814845
16	0xbe99f20c	-0.3006748
17	0xbec19f62	-0.37816912
18	0xbed0aae3	-0.40755376
19	0xbf03fad4	-0.5155461
20	0xbf005a68	-0.5013795
21	0xbee1fed3	-0.44139728
22	0xbed5aa2f	-0.41731402
23	0xbee52498	-0.4475448
24	0xbeddec2b	-0.43344244
25	0xbe3dc8e1	-0.1853366
26	0xbe884e47	-0.2662222
27	0xbec3bfff	-0.3823242
28	0xbef2d5d8	-0.47428775
29	0xbebdf706	-0.37102526
30	0xbf0f0dd5	-0.5588048
31	0xbf1ad1d1	-0.60476404
32	0xbef26ad0	-0.47347116
33	0xbecd81d8	-0.40138125
34	0xbeaa98fc	-0.33319843
35	0xbeb2ec8f	-0.34946105
36	0xbe641e15	-0.222771
37	0xbe8a66de	-0.27031606
38	0xbee7e634	-0.4529282
39	0xbef602d0	-0.4804902
40	0xbed6de8b	-0.41966662
41	0xbea4554b	-0.32096323
42	0xbe82b8a9	-0.2553151
43	0xbe9cc5ac	-0.30619562
44	0xbf0e2078	-0.55518293
45	0xbed2f503	-0.41202554
46	0xbf057aac	-0.5214031
47	0xbf04a550	-0.51814747

sequential/batch_normalization_4/batchnorm/mul f4 [128]
0	0x4092e8e3	4.5909286
1	0x40816b76	4.044368
2	0x402fe514	2.7483568
3	0x405ea2f7	3.4786966
4	0x40cf65c4	6.4811726
5	0x409e6201	4.9494634
6	0x40933489	4.600163
7	0x40949fa5	4.644488
8	0x40570b59	3.3600676
9	0x405d424f	3.4571722
10	0x404118aa	3.0171304
11	0x404791d4	3.1182756
12	0x40965a31	4.6985097
13	0x40421bec	3.0329542
14	0x409206e4	4.563341
15	0x407d6934	3.959546
16	0x407b0d3e	3.9226832
17	0x40a9b8a6	5.30379
18	0x4070e318	3.7638607
19	0x40504795	3.254369
20	0x4084b4c4	4.147066
21	0x408ebd8d	4.4606385
22	0x40a96113	5.2931
23	0x4096ebc2	4.716279
24	0x40860532	4.188134
25	0x409bf152	4.873208
26	0x40757559	3.8352873
27	0x4090d52c	4.526022
28	0x40662f16	3.596624
29	0x40c3e1c3	6.121309
30	0x408184af	4.0474467
31	0x40963784	4.694277
32	0x4090bfe4	4.523424
33	0x40a17174	5.0450993
34	0x401aafe2	2.416985
35	0x40929311	4.5804524
36	0x40b59f64	5.675707
37	0x4085c08f	4.1797557
38	0x409a5fad	4.824179
39	0x40947c59	4.640179
40	0x40717c90	3.7732277
41	0x40bff68c	5.998846
42	0x4080eaa6	4.0286436
43	0x409a2734	4.8172855
44	0x4072fb10	3.7965736
45	0x4087f5a9	4.248738
46	0x407d7a55	3.9605916
47	0x4099c519	4.80531
48	0x40d58137	6.6720233
49	0x40d42b69	6.630299
50	0x40deaf8e	6.95893
51	0x40a50122	5.1563883
52	0x40ad602b	5.4179893
53	0x405fe0e4	3.4981012
54	0x409d4ae1	4.9153905
55	0x408ff3e3	4.4985213
56	0x40b45683	5.6355605
57	0x40ad089e	5.407302
58	0x405cceb8	3.450117
59	0x40b0be96	5.523265
60	0x40e1bfe1	7.0546727
61	0x40a9e484	5.309145
62	0x407fc4f2	3.9963956
63	0x401937c0	2.3940277
64	0x40c13f63	6.0389876
65	0x4087c866	4.2432127
66	0x40bedc73	5.9644103
67	0x4092d811	4.5888753
68	0x4096bb62	4.710374
69	0x40cb3130	6.3497543
70	0x4090e204	4.52759
71	0x40704846	3.7544112
72	0x403fe1a0	2.998146
73	0x4099522d	4.791281
74	0x4042fd3d	3.0467064
75	0x40f86ffb	7.7636695
76	0x40b0ce5c	5.5251904
77	0x40abc3f5	5.3676705
78	0x40846fc7	4.1386447
79	0x40a67b10	5.2025223
80	0x40940a69	4.626271
81	0x40b926fc	5.786009
82	0x408909cf	4.2824473
83	0x40c8069d	6.2508073
84	0x406d3c68	3.706812
85	0x407a8ac9	3.9147208
86	0x40b07fd2	5.515603
87	0x40b0a6c3	5.5203567
88	0x4018840a	2.383059
89	0x403a44de	2.9104533
90	0x40920f98	4.5644035
91	0x407384b4	3.8049746
92	0x407a0e3c	3.9071188
93	0x4053556c	3.3020887
94	0x40878172	4.2345514
95	0x40731b67	3.7985475
96	0x4095abf1	4.677239
97	0x40ccb0df	6.3965907
98	0x40dc0fab	6.8769126
99	0x40ab76cd	5.358252
100	0x40af27fa	5.47363
101	0x404d2b92	3.2057843
102	0x40d08371	6.516045
103	0x40ac88a1	5.3916783
104	0x404d9d41	3.212723
105	0x40a48f81	5.1425176
106	0x408b49f7	4.352779
107	0x40c84639	6.258572
108	0x40ac6419	5.387219
109	0x40a94c4c	5.2905636
110	0x40d87716	6.764537
111	0x4103f320	8.246857
112	0x40c0a5a3	6.0202193
113	0x4067f52a	3.6243386
114	0x408ba17e	4.3634634
115	0x409f2b9d	4.974074
116	0x403fa631	2.9945185
117	0x410c9d00	8.78833
118	0x40693624	3.6439295
119	0x409964c0	4.7935486
120	0x4021247c	2.5178518
121	0x4096c150	4.7110977
122	0x409f55f1	4.979241
123	0x408fbb1a	4.4915895
124	0x4087d187	4.244327
125	0x404a552c	3.1614485
126	0x408fab14	4.4896336
127	0x40b18e64	5.5486317

sequential/batch_normalization_4/batchnorm/sub f4 [128]
0	0xbef1e113	-0.4724203
1	0xbeefcf40	-0.46837807
2	0xbeaccc45	-0.33749595
3	0xbee7c975	-0.45270887
4	0xbf096139	-0.53663975
5	0xbed28938	-0.41120315
6	0xbee9e58f	-0.45682952
7	0xbeb46bee	-0.35238594
8	0xbecf5d23	-0.40500745
9	0xbedab6a6	-0.42717475
10	0xbed17852	-0.4091211
11	0xbed9600f	-0.424561
12	0xbedf3475	-0.4359471
13	0xbebb32fd	-0.36562338
14	0xbee1281f	-0.43975922
15	0xbf06c90f	-0.5265054
16	0xbf0b7065	-0.54468375
17	0xbf03ff26	-0.515612
18	0xbed79ca1	-0.42111686
19	0xbf038029	-0.5136743
20	0xbecedd1a	-0.40403062
21	0xbef33e57	-0.475085
22	0xbefe92ff	-0.49721524
23	0xbed7e45d	-0.42166415
24	0xbedf4183	-0.4360467
25	0xbed5bcd4	-0.41745627
26	0xbedb172d	-0.4279112
27	0xbefe2e77	-0.49644825
28	0xbec2761e	-0.3798074
29	0xbf07db38	-0.53068876
30	0xbee38fe9	-0.44445732
31	0xbedace34	-0.42735445
32	0xbeeba9d2	-0.46028
33	0xbee7eb15	-0.4529654
34	0xbec7cb69	-0.39022377
35	0xbf0b02e1	-0.5430127
36	0xbedc6547	-0.43046018
37	0xbef90822	-0.48639017
38	0xbef43594	-0.47697127
39	0xbedcb36e	-0.43105644
40	0xbec20280	-0.37892532
41	0xbec46ac9	-0.3836272
42	0xbed3895c	-0.41315734
43	0xbec79b50	-0.38985682
44	0xbedece5e	-0.4351682
45	0xbee6d061	-0.45080855
46	0xbeed8b74	-0.46395457
47	0xbeda52b7	-0.4264123
48	0xbf0635ee	-0.5242604
49	0xbee52be2	-0.44760042
50	0xbf12dc3d	-0.57367307
51	0xbeb42309	-0.3518298
52	0xbee985a5	-0.45609775
53	0xbed58e42	-0.41710097
54	0xbed04f5a	-0.4068554
55	0xbeb964e5	-0.3620979
56	0xbef80bea	-0.4844659
57	0xbed2647d	-0.4109229
58	0xbecc28aa	-0.39874774
59	0xbeeacabd	-0.45857802
60	0xbf084f3c	-0.532459
61	0xbef050be	-0.469366
62	0xbece7dce	-0.40330356
63	0xbeba637a	-0.3640402
64	0xbf071ee0	-0.52781487
65	0xbec8e925	-0.39240375
66	0xbeddb08d	-0.4329876
67	0xbeac9f85	-0.33715454
68	0xbec4c15b	-0.3842877
69	0xbec43602	-0.38322455
70	0xbefaa1c0	-0.4895153
71	0xbefcb95d	-0.4936017
72	0xbec24253	-0.37941226
73	0xbef93154	-0.48670447
74	0xbec9a730	-0.39385366
75	0xbf14fed8	-0.5820136
76	0xbef34501	-0.47513583
77	0xbeed5e7a	-0.46361142
78	0xbec3c8c5	-0.38239112
79	0xbeb16160	-0.34644604
80	0xbecb183a	-0.3966692
81	0xbef39527	-0.47574732
82	0xbed0f9c1	-0.40815547
83	0xbf0175b2	-0.50570214
84	0xbee05d8c	-0.4382137
85	0xbebb8e25	-0.36631885
86	0xbf07adf3	-0.529998
87	0xbeed3d48	-0.46335816
88	0xbec5f209	-0.3866122
89	0xbed4311e	-0.41443723
90	0xbf036dbb	-0.5133931
91	0xbefc351a	-0.49259263
92	0xbeb98f95	-0.36242357
93	0xbefe4b1d	-0.49666682
94	0xbef092cf	-0.46987006
95	0xbeae6f05	-0.34069076
96	0xbef80ab3	-0.48445663
97	0xbf059568	-0.521811
98	0xbed344e8	-0.4126351
99	0xbee6798e	-0.45014614
100	0xbedec561	-0.43509963
101	0xbe963237	-0.29335186
102	0xbefce3fe	-0.49392694
103	0xbef306d6	-0.47466153
104	0xbed55387	-0.4166529
105	0xbeffe3bb	-0.49978432
106	0xbf009857	-0.5023245
107	0xbedda0c1	-0.43286708
108	0xbf03e30e	-0.5151833
109	0xbed59356	-0.4171397
110	0xbeff48a6	-0.49860114
111	0xbf001690	-0.5003443
112	0xbebd97f9	-0.37030008
113	0xbeddfe85	-0.43358245
114	0xbed0ded1	-0.40794995
115	0xbf04bb88	-0.5184865
116	0xbee29e5a	-0.44261438
117	0xbed91e4f	-0.42405936
118	0xbea8073f	-0.32818028
119	0xbf0a3a33	-0.53995055
120	0xbef93c3f	-0.48678777
121	0xbefd6125	-0.49488178
122	0xbf03727d	-0.5134657
123	0xbeeae3c6	-0.45876902
124	0xbefbc0e5	-0.49170604
125	0xbece7216	-0.40321416
126	0xbed54dbb	-0.41660866
127	0xbee69710	-0.45037127

sequential/dense/MatMul/ReadVariableOp/transpose f4 [32, 8]
0	0x3d4791d4	0.048723057
1	0x3b2ebcbf	0.0026662794
2	0x3d906565	0.070505895
3	0x3e086e41	0.13323309
4	0x3c8cda0f	0.017193822
5	0x3cb9803f	0.02264416
6	0x3d26f708	0.04076293
7	0x3d04e998	0.032449335
8	0xbdade562	-0.08491017
9	0x3c872119	0.016495274
10	0x3bfcafb0	0.0077113733
11	0x3cfebba4	0.031095333
12	0xbdc5676e	-0.09638868
13	0x3ccc8414	0.024965324
14	0xbda48a12	-0.08034147
15	0xbd659185	-0.05604698
16	0xbdc917db	-0.09819003
17	0x3d9b6c3e	0.07589005
18	0xbdbd1879	-0.092331834
19	0xba11b366	-0.00055580435
20	0x3ac86f6a	0.0015291993
21	0xbd3d91e4	-0.04628171
22	0x3d0b0048	0.033935815
23	0xbc34c029	-0.011032143
24	0xbd029308	-0.0318785
25	0x3b374604	0.0027965317
26	0x3d855440	0.0651021
27	0x3d412892	0.04715783
28	0x3da853c6	0.082191035
29	0x3af35686	0.0018565215
30	0x3dd58491	0.10425676
31	0xbc370be1	-0.011172266
32	0x3ce309b1	0.027714582
33	0xbc181eaf	-0.009284659
34	0xbd5c7e60	-0.053831458
35	0x3c7f317c	0.015575763
36	0xbd955e65	-0.07293395
37	0xbd095581	-0.03352881
38	0x3d98d787	0.074629836
39	0x3cabc192	0.020966325
40	0xbc03242f	-0.008004232
41	0xbd8134a2	-0.06308867
42	0xbd836769	-0.06416208
43	0x3d0d416f	0.03448623
44	0x3a30c40f	0.0006743082
45	0x3d5230a1	0.051315907
46	0xbdd3475d	-0.10316346
47	0xbd7f272e	-0.062293224
48	0x3d5f50f7	0.054520573
49	0xbd0f61c3	-0.035005342
50	0xbddb0f2f	-0.106962554
51	0x3c83a42f	0.0160695
52	0x3da63a61	0.08116604
53	0x3b81fcaa	0.0039668875
54	0xbdbbf8a9	-0.091782875
55	0x3dd49b39	0.10381169
56	0xbc49c0ed	-0.0123140635
57	0x3ca0f5d0	0.019648463
58	0xbc7d922f	-0.015476747
59	0xbd32250a	-0.043492354
60	0x3d7997d7	0.06093582
61	0x3d0b8e5a	0.034071304
62	0xbcbe689d	-0.023243243
63	0xbbb99892	-0.0056639398
64	0xbd62198e	-0.055200152
65	0xbd97a387	-0.07404237
66	0x3c807896	0.0156825
67	0x3cb3510c	0.021889232
68	0x3d00052b	0.03125493
69	0x3d1b2810	0.037880003
70	0x3be9f4ef	0.007139794
71	0xba3a0e33	-0.0007097453
72	0xbd77270c	-0.060339972
73	0x3be4fd69	0.0069882167
74	0xbd3e03c3	-0.046390306
75	0xbd9d86c1	-0.07691718
76	0xbd1645f0	-0.03668779
77	0x3d1acd4b	0.03779344
78	0x3be0b15d	0.006857081
79	0x3d124231	0.035707656
80	0xbc1f7303	-0.009732011
81	0xbc532ee1	-0.012889595
82	0x3b835f0c	0.004009133
83	0xbca14610	-0.019686729
84	0xbd043d42	-0.032284983
85	0x3da4e6b4	0.08051816
86	0xbb63d3e8	-0.0034763757
87	0xbd0d0cb1	-0.03443593
88	0x3cdaf1b9	0.02672659
89	0xbc13d66c	-0.00902329
90	0xbdc74eb5	-0.09731809
91	0xbd06607e	-0.032806866
92	0xbd2c32c6	-0.04204061
93	0xbd2b069a	-0.041754343
94	0x3d58ba17	0.052911844
95	0xbc49d8dc	-0.01231977
96	0x3d7da1f5	0.061922032
97	0xbd6c7cab	-0.05773608
98	0x3c22add1	0.009929136
99	0x39c7c36f	0.00038101847
100	0x3cc920af	0.024551718
101	0xbca8a8a6	-0.02058823
102	0xbd9a124c	-0.07523021
103	0xbc0438f2	-0.008070217
104	0x3d24a953	0.040200543
105	0x3d6ae1fb	0.057344418
106	0x3d1c2719	0.038123224
107	0xbd7ecbad	-0.06220596
108	0x3be12ce3	0.006871806
109	0x3c055c20	0.00813964
110	0x3d0e154d	0.034688283
111	0x3c162270	0.009163484
112	0xbdc4cfed	-0.09609971
113	0xbd857b58	-0.065176666
114	0xba95297f	-0.0011380165
115	0x3c63bd63	0.013900134
116	0xbb8f81d5	-0.004379491
117	0xbced187e	-0.028942343
118	0xbb2b1b71	-0.0026108886
119	0xbd519fcb	-0.05117778
120	0x3da0b92e	0.0784782
121	0xbd4167d9	-0.047218177
122	0xbc918f76	-0.017768603
123	0xbce9c510	-0.02853635
124	0x3cce21c4	0.025162585
125	0x3c5a78e2	0.013334485
126	0xbdfa338f	-0.12216865
127	0x3db8bfbf	0.09020948
128	0xbcf69889	-0.030102031
129	0xbc189fed	-0.009315473
130	0x3cd58453	0.026064074
131	0x3cecbf5c	0.028899841
132	0x3c2f7030	0.0107079
133	0x3e18fe44	0.14940745
134	0xbd763a59	-0.06011424
135	0x39a5bca4	0.000316118
136	0x3c2d54b3	0.010579276
137	0x3b803d30	0.003913544
138	0x3d4bbb67	0.049739268
139	0xbd811677	-0.06303113
140	0x3cc73fb7	0.024322374
141	0x3d37cb88	0.044871837
142	0x3cdf46f4	0.027255513
143	0xbc65f5e5	-0.014035677
144	0x3d415197	0.04719695
145	0x3c174f11	0.0092351595
146	0x3d9a1bcb	0.07524832
147	0x3d07b7b8	0.033134192
148	0xbcce3972	-0.025173876
149	0x3d8193be	0.06327008
150	0x3d3cf622	0.046133168
151	0xbd440990	-0.047860682
152	0xbcc6bccd	-0.02425995
153	0xbd2dd430	-0.042438686
154	0xbd229d26	-0.03970065
155	0x3d4d06d5	0.050055344
156	0x3d8157bc	0.06315562
157	0xbd3f2131	-0.046662513
158	0x3d1694be	0.036762945
159	0x3b188ae3	0.0023276142
160	0xbd861586	-0.06547074
161	0x3d1b3989	0.037896667
162	0xbce65f6d	-0.028121674
163	0x3c685839	0.01418119
164	0xbd71accc	-0.059002683
165	0xbc0e9bb2	-0.008704113
166	0xbc0788d7	-0.008272371
167	0xbdece2b1	-0.115666755
168	0x3c3e88c3	0.011629286
169	0xbd74c329	-0.05975643
170	0x3db242f0	0.087041736
171	0xbdabd098	-0.083893955
172	0x3d73ab38	0.05948946
173	0x3d52db03	0.051478397
174	0xbdb2431c	-0.08704206
175	0xbc08a143	-0.008339229
176	0x3b69d73d	0.003568127
177	0x3da107ed	0.0786284
178	0xbc14e9af	-0.009088918
179	0x3d7aa30c	0.06119065
180	0xbc3717d4	-0.011175115
181	0xbce8ea06	-0.028431904
182	0xbd06910e	-0.03285318
183	0xbdc4a4c3	-0.09601738
184	0xbc8d6e66	-0.017264556
185	0xbcc059e5	-0.023480365
186	0xbd8db3ee	-0.069190845
187	0xbc71fc97	-0.014769695
188	0x3ca62364	0.020280547
189	0x3c09ecd1	0.008418278
190	0xbd69e9fb	-0.057107907
191	0x3ccadc9d	0.0247634
192	0x3cc22b40	0.023702264
193	0x3c83275e	0.016009983
194	0xbd0aa4ba	-0.0338485
195	0xbcb92424	-0.022600241
196	0xbd41f490	-0.047352374
197	0x3cd2ccd3	0.025732433
198	0x3c807a46	0.015683305
199	0x3cb27ab6	0.021787029
200	0xbbce8224	-0.006302135
201	0x3d620e8a	0.055189647
202	0xbd5477fe	-0.051872246
203	0xbde093ac	-0.10965666
204	0xbd5603b9	-0.052249644
205	0xbd9db8f8	-0.077012956
206	0xbbf16254	-0.007366458
207	0x3c92cd58	0.017920181
208	0x3ccd48f5	0.025059203
209	0xbc265382	-0.010151746
210	0xbce08a51	-0.027409704
211	0x3d5e70bc	0.05430673
212	0x3d957b3e	0.07298897
213	0x3d0e56a0	0.03475058
214	0x3d856345	0.06513075
215	0xbdbfe9fa	-0.09370799
216	0xbcafd8eb	-0.02146574
217	0xbc804d1b	-0.015661767
218	0x3d2fdff2	0.04293818
219	0x3d000faa	0.03126494
220	0x3c57e520	0.013177186
221	0xbc904130	-0.017609209
222	0x3d2cf7f0	0.04222864
223	0x3d80f1c4	0.06296113
224	0xbb549118	-0.0032435115
225	0xbd8a01ec	-0.06738648
226	0xbbfea2f1	-0.007770889
227	0x3ca24729	0.019809322
228	0xbde4f3d1	-0.11179317
229	0xbd8f338f	-0.06992256
230	0xbbddd5dd	-0.0067698793
231	0xbc9bd5d8	-0.019022867
232	0xbcc01b69	-0.02345057
233	0x3cbb8297	0.022889419
234	0x3d554697	0.052069273
235	0xbd7c4a1d	-0.061594117
236	0x3c189a99	0.009314203
237	0x3b79239b	0.0038015607
238	0x3bb1f296	0.00543053
239	0x3c95e5d8	0.018298075
240	0x3d26c12d	0.04071157
241	0x3b3e13f5	0.0029003595
242	0x38a259c0	7.741479e-05
243	0x3cf4d37c	0.029886
244	0x3c0a9d5f	0.008460372
245	0xbbe169bc	-0.0068790596
246	0xbca9503d	-0.020668143
247	0xbd2389ed	-0.03992646
248	0xbc3bf041	-0.011470855
249	0xbd32561b	-0.043539148
250	0xbc154a62	-0.0091119725
251	0xbd71d453	-0.05904038
252	0x3b8515b3	0.0040614246
253	0xbc274d00	-0.010211229
254	0x3c761a2e	0.01502089
255	0xbd57cbc8	-0.052684575

sequential/dense/MatMul_bias f4 [32]
0	0x3a58ef34	0.000827539
1	0x3cbc67dc	0.022998743
2	0xbc35ee38	-0.011104159
3	0x3baf0390	0.005341001
4	0xbcbb20e0	-0.022842824
5	0xbca4dcc0	-0.020124793
6	0xbb2d9f7e	-0.002649277
7	0x3b1ac6e6	0.0023617088
8	0xbb23790f	-0.0024943983
9	0x3cde72c9	0.027154343
10	0x3bdc05d9	0.0067145643
11	0xbbe9906a	-0.007127811
12	0x397787c8	0.00023606338
13	0x3c1c5a4c	0.009543013
14	0x3cea5b3a	0.028607953
15	0x3b044e61	0.002018832
16	0xbc1b7b6b	-0.009489874
17	0x3c706817	0.014673254
18	0xbc39b929	-0.0113356495
19	0x3c8b25ae	0.01698574
20	0x3c28efe5	0.010311102
21	0xbbd232e0	-0.006414756
22	0x3c8690fd	0.016426558
23	0x3c71182d	0.014715237
24	0xbbb41f6a	-0.005496909
25	0xbbf87bf9	-0.007583138
26	0x3bb0dc80	0.0053973794
27	0x3af348c8	0.0018561119
28	0xbc25adb8	-0.010112219
29	0xbaef8136	-0.0018272761
30	0xbbccace7	-0.0062461975
31	0xbc2991d4	-0.01034971

sequential/dense_1/MatMul/ReadVariableOp/transpose f4 [48, 32]
0	0xbceb6508	-0.028734699
1	0xbdb1d689	-0.086834975
2	0x3d093379	0.033496354
3	0xbd1be263	-0.038057696
4	0xbb75aa5f	-0.0037485582
5	0x3cf97a94	0.030453958
6	0x3d5b83ea	0.0535926
7	0xbd4a25f9	-0.04935262
8	0xbbfddd05	-0.007747295
9	0xbd1f02e7	-0.038821127
10	0xbddf0449	-0.10889489
11	0x3cdd5ecc	0.027022742
12	0xbaaebee7	-0.001333204
13	0x3d7ec881	0.062202934
14	0xbc680196	-0.014160534
15	0xbdae2d74	-0.08504763
16	0xbd886d12	-0.066614285
17	0xbbd43d0e	-0.006477005
18	0x3c8044b0	0.015657753
19	0xbb87ac8e	-0.004140443
20	0x3be133ba	0.0068726214
21	0x3da339e8	0.07970029
22	0x3d74f1c6	0.059800886
23	0x3ce171bf	0.027520059
24	0x3bc98898	0.0061503164
25	0xbc171123	-0.009220394
26	0xbcde52ca	-0.027139086
27	0xbc41a84e	-0.011819912
28	0xbd03253a	-0.032017924
29	0xbbdfc1b3	-0.0068285107
30	0x3d77e01b	0.060516458
31	0xbd634d60	-0.055493712
32	0xbd428495	-0.04748972
33	0x3dd8859c	0.10572359
34	0xbd078b41	-0.033091787
35	0xbccb17fb	-0.024791708
36	0xbd39176c	-0.045188352
37	0x3d487f00	0.04894924
38	0xbdd09da1	-0.10186315
39	0xbcc5ed79	-0.024161087
40	0x3d946bcd	0.07247124
41	0x3e1ac81c	0.15115398
42	0xbd685728	-0.056723744
43	0xbcacd769	-0.02109881
44	0x3d879978	0.06621069
45	0xbb0b4664	-0.0021251673
46	0x3d16f4c1	0.03685451
47	0xbd2a9fc5	-0.041656274
48	0xbd484e68	-0.0489029
49	0xbd5555d1	-0.052083794
50	0x3bdd285f	0.0067491974
51	0xbc5da739	-0.0135286385
52	0x3c9869db	0.018605163
53	0x3c4880cd	0.01223774
54	0x3d5ba9a5	0.053628583
55	0x3d2bb8c8	0.041924268
56	0xbd69e389	-0.05710176
57	0xbba8e5dd	-0.005154355
58	0xbcfbcbf8	-0.030736908
59	0xbc37d3e2	-0.01121995
60	0xbd4c159e	-0.049825303
61	0x3d7d78af	0.06188267
62	0xbcc183fc	-0.023622505
63	0x3bb8f5eb	0.00564455
64	0xbd04f720	-0.03246224
65	0xbd60b1fb	-0.054857235
66	0xbdd2232d	-0.102606155
67	0xbc12e4e3	-0.008965704
68	0xbd5f9b23	-0.05459131
69	0x3b9851eb	0.0046484373
70	0xbc23f79d	-0.010007766
71	0xbc113136	-0.00886183
72	0x3d805a84	0.062672645
73	0x3d590f8e	0.05299335
74	0x3d798609	0.06091884
75	0xbc61cb85	-0.013781433
76	0xbd1d32db	-0.038378578
77	0xbd6647a2	-0.056220658
78	0x3c2ef1c4	0.010677759
79	0x3c116261	0.008873553
80	0x3912c653	0.00013997527
81	0xbc4edcaf	-0.012625857
82	0xbdf4b79f	-0.119490854
83	0xbc93d5f2	-0.018046353
84	0xbdde55f9	-0.10856242
85	0xbd80fe83	-0.06298544
86	0x3c51b9b4	0.012800623
87	0xbd5faa25	-0.05460562
88	0xbd9f4603	-0.077770256
89	0x3d22c645	0.039739866
90	0xbc3b00d9	-0.011413776
91	0xbd3ec11e	-0.04657089
92	0x3d8e0970	0.06935394
93	0xbce836bb	-0.02834641
94	0x3bd86ff7	0.006605144
95	0x396430cf	0.00021761957
96	0xbc846dd4	-0.016165651
97	0xbdb2a5d1	-0.08723033
98	0xbd4e4116	-0.05035504
99	0x3d6e5cc3	0.058193933
100	0xba7ddfb6	-0.00096845196
101	0x3bfd0aea	0.0077222483
102	0xbcaad8aa	-0.020855267
103	0x3c01a862	0.007913681
104	0x3deb7199	0.114962764
105	0xbd271413	-0.04079063
106	0xbdae4fc2	-0.08511306
107	0x3bfacc18	0.0076537244
108	0xbcea3109	-0.028587835
109	0x3d82ba5f	0.06383204
110	0x3df57d54	0.11986795
111	0xbcc5a757	-0.024127645
112	0xbd44bc39	-0.048031066
113	0xbc184818	-0.009294532
114	0x3d2e7b08	0.0425978
115	0xbd5ec864	-0.054390326
116	0x3d00f1b3	0.031480502
117	0x39e23923	0.0004314865
118	0xbcfd406b	-0.030914506
119	0x3b28bf00	0.002574861
120	0x3ab2eee9	0.0013651523
121	0xbce4009b	-0.02783232
122	0x3d01733d	0.03160404
123	0xbd8dc860	-0.06922984
124	0x3cdc0a2f	0.026860325
125	0x3c099303	0.008396867
126	0xbd6d0106	-0.057862304
127	0x3d29e953	0.04148228
128	0x3caae925	0.020863125
129	0x3d3dd5d2	0.046346493
130	0xbc3ac201	-0.011398793
131	0xbd235cd6	-0.039883457
132	0x3c4fc7e9	0.01268194
133	0xbccdff63	-0.025146192
134	0xbd3d2662	-0.046179183
135	0x3bef9465	0.007311391
136	0xbbf4124a	-0.0074484693
137	0xbdc2f947	-0.09520202
138	0x3c0cd19e	0.0085948985
139	0xbbc675b3	-0.0060565113
140	0xbd12358d	-0.0356956
141	0x3df650fa	0.12027164
142	0xbd06b5b9	-0.032888148
143	0x3da5a0b6	0.08087294
144	0x3d55206b	0.05203287
145	0xbd5ad969	-0.053429995
146	0x3dc18767	0.09449654
147	0xbbd0d3c5	-0.006372901
148	0xbd884f42	-0.06655742
149	0xbda3cc6c	-0.07997975
150	0x3cbc3695	0.022975245
151	0xbc074af1	-0.0082576135
152	0x3d466488	0.048435718
153	0xbdc22b98	-0.09480971
154	0xbcc955e6	-0.024577092
155	0xbc35d180	-0.011097312
156	0xbd8e32c2	-0.06943275
157	0xbc8d006a	-0.017212112
158	0xbdaf1d15	-0.08550469
159	0xbdc7b347	-0.09750991
160	0xbcbbef8e	-0.022941377
161	0x3d647779	0.055778
162	0x3d2cd088	0.04219106
163	0x3d7b7610	0.06139189
164	0xbc9355b8	-0.01798521
165	0xbb9ea1b1	-0.0048410525
166	0xbbe47139	-0.006971505
167	0x3d05a983	0.032632362
168	0x3d16011b	0.036622148
169	0xbcbb7e81	-0.02288747
170	0xbdbfa960	-0.093584776
171	0xbc8cca3d	-0.017186278
172	0x3d93aaeb	0.072103344
173	0x3dc46761	0.095900305
174	0x3c7b143d	0.015324649
175	0x3d0c3a00	0.034235
176	0x3db1c9c8	0.08681065
177	0x3cc93f46	0.024566304
178	0xbcb9bb4c	-0.022672318
179	0xbd8a4af2	-0.06752576
180	0xbdd16307	-0.10223966
181	0x3e04efdc	0.12982124
182	0x3d1f19e8	0.038843066
183	0xbd5bf4d6	-0.05370029
184	0x3d2af2ac	0.041735336
185	0xbd14f443	-0.03636576
186	0x3dcce874	0.100052744
187	0xbda7e839	-0.0819859
188	0xbb85c028	-0.0040817447
189	0xbc8f2e22	-0.017478053
190	0xbc1b73a8	-0.009488024
191	0x3d5197e2	0.051170237
192	0x3b7c96f6	0.0038542128
193	0xbc8c75d4	-0.017146029
194	0x3cdd01d9	0.02697842
195	0x3cdc13c2	0.02686489
196	0xbbff0d05	-0.0077835345
197	0x3d0a8a29	0.033823166
198	0xbcdb869e	-0.026797589
199	0x3c65158d	0.013982189
200	0x3c6edb65	0.014578675
201	0x3cdf89d2	0.027287398
202	0xba96ca55	-0.0011504391
203	0xbd62d169	-0.05537549
204	0xbc8167e0	-0.015796602
205	0x3c7537a3	0.014966878
206	0x3cbee65d	0.023303205
207	0x3c05cfd2	0.008167224
208	0xbdbe60c1	-0.09295798
209	0x3d51b448	0.05119732
210	0x3daa60a7	0.08319216
211	0x3b3061f9	0.0026913865
212	0xbcb38079	-0.021911846
213	0xbb23535c	-0.0024921512
214	0xbd73b648	-0.05950001
215	0x3d4e358e	0.050344042
216	0xbdc0bc8a	-0.09410961
217	0xbe0b0215	-0.13575013
218	0x3db58bd7	0.08864563
219	0xbc4b0d2b	-0.012393276
220	0x3ca42e42	0.020041589
221	0x3d8a3d2a	0.06749947
222	0xbd2b5ccd	-0.04183655
223	0x3c5b2a82	0.013376834
224	0xbc98aad6	-0.018636148
225	0x3da2ed77	0.07955449
226	0xbc2b417e	-0.010452626
227	0x3d90df66	0.0707386
228	0xba8ef7c1	-0.0010907577
229	0xbc02d537	-0.007985405
230	0x3baf3e7a	0.005348024
231	0x3d8e46f7	0.06947129
232	0xbdbbb4b2	-0.09165324
233	0x3e161bbf	0.14659022
234	0xbdd52741	-0.10407878
235	0xbc6e3dcd	-0.014541102
236	0xbdb6de0b	-0.0892907
237	0xba1be831	-0.000594738
238	0xbd9b4f83	-0.07583525
239	0xbca41ec0	-0.020034194
240	0x3dd54619	0.10413761
241	0xbdacb4c9	-0.084329195
242	0xbd078741	-0.033087973
243	0x3d0bf376	0.03416773
244	0x3b3e618a	0.0029049837
245	0xbcb6102e	-0.022224512
246	0x3dc1cf13	0.094633244
247	0x3d0fdf8a	0.035125293
248	0xbc0f511c	-0.008747365
249	0x3c9d096c	0.019169532
250	0x3d2653e1	0.040607337
251	0xbd67a9fe	-0.0565586
252	0xbdaecb7e	-0.08534907
253	0x3d75b20f	0.059984263
254	0x3dc54765	0.09632758
255	0xbd117744	-0.03551413

sequential/dense_1/MatMul_bias f4 [48]
0	0x3be6d923	0.0070449277
1	0x3c887b9a	0.0166605
2	0x3c837730	0.016048044
3	0xbc32168e	-0.010869635
4	0x3cbbe37b	0.02293562
5	0xbc48b3f3	-0.0122499345
6	0x3c951fc8	0.018203631
7	0x3cb85570	0.022501677
8	0xbbf48c67	-0.0074630263
9	0xbba7aec8	-0.005117271
10	0x3cb662c1	0.022263886
11	0x3c8b7b65	0.017026613
12	0x3c52fd46	0.012877768
13	0xbc277239	-0.010220104
14	0xbc172728	-0.009225644
15	0x3b59d04b	0.0033235725
16	0xbc8197e0	-0.01581949
17	0x3bb72c9d	0.005590035
18	0x3c9cf881	0.019161465
19	0x3c0bd23a	0.008534009
20	0x3c1487ee	0.009065611
21	0x3c45017d	0.012024281
22	0x3cbdbbf4	0.023160912
23	0xba733107	-0.000927702
24	0x3c12aebc	0.008952793
25	0xbca70854	-0.020389713
26	0xbc9602dd	-0.018311912
27	0x3bdbff3d	0.0067137764
28	0x3cc39351	0.023873957
29	0xbc26f7fc	-0.01019096
30	0x3c8fce7c	0.017554514
31	0x3c934408	0.017976776
32	0x3cafa429	0.021440582
33	0x3b007928	0.0019603465
34	0xb871a0aa	-5.7608508e-05
35	0xbc22927f	-0.009922623
36	0xbcc3973e	-0.023875829
37	0xbc6e5274	-0.014546026
38	0x3a8d6d52	0.0010790026
39	0x3c2504a7	0.01007191
40	0xbc823e1c	-0.015898757
41	0xbb03a9bd	-0.0020090186
42	0xbcb3dc21	-0.021955552
43	0xbca93eb0	-0.020659775
44	0x3cadece5	0.021231124
45	0x3a18056a	0.00057991466
46	0x3ca5e555	0.020250956
47	0x3c35c2dd	0.011093822

sequential/dense_2/MatMul/ReadVariableOp/transpose f4 [64, 48]
0	0x3d64fcc3	0.055905115
1	0x3d0eb991	0.03484494
2	0x3e18462a	0.14870515
3	0x3d88f2c9	0.066869326
4	0xbd332179	-0.043733094
5	0x3d9e1c41	0.07720233
6	0x3d17963a	0.0370085
7	0x3e2c87b6	0.16848645
8	0x3cdca373	0.026933407
9	0x3e1122aa	0.1417338
10	0x3c674eb5	0.014117886
11	0xbcd712fe	-0.026254173
12	0xbe1a0d22	-0.15044072
13	0x3cec91ae	0.02887806
14	0x3d94dac4	0.07268289
15	0x3de84033	0.1134037
16	0x3c7d2bf1	0.015452371
17	0xbaedfee2	-0.0018157626
18	0xbe98cdea	-0.298446
19	0x3df01415	0.1172258
20	0x3e30c516	0.17262682
21	0xbd2869c3	-0.041116487
22	0xbda8e406	-0.08246617
23	0x3d9f8fc5	0.07791094
24	0x3dda5ed4	0.10662618
25	0xbca79dc0	-0.020460963
26	0xbd8e0c50	-0.06935942
27	0xbe12d8dd	-0.1434054
28	0xbce23c16	-0.027616542
29	0xbe0786f0	-0.13235068
30	0x3c86ddf1	0.016463252
31	0x3d4372e5	0.047716994
32	0x3dd07252	0.10178055
33	0xbe10296e	-0.14078304
34	0xbc02938a	-0.007969746
35	0x3ca7dce8	0.020491078
36	0xbd862701	-0.06550408
37	0x3d121251	0.035662
38	0x3d87d221	0.06631876
39	0xbe12e2e1	-0.1434436
40	0x3e303707	0.17208491
41	0x3b0919e1	0.0020919966
42	0x3d2744a4	0.040836945
43	0x3d2f3141	0.04277158
44	0xbd984621	-0.07435251
45	0x3d58b61b	0.052908044
46	0x3d6e74f3	0.058217
47	0xbe199f92	-0.15002277
48	0x3d379b05	0.044825573
49	0xbe5b8973	-0.21439151
50	0x3d36d99f	0.044641133
51	0x3f104ecc	0.56370234
52	0xbe8d9575	-0.2765309
53	0xbe6073ac	-0.21919125
54	0x3e377d8e	0.17918989
55	0xbe00b9df	-0.12570904
56	0xbda91489	-0.0825587
57	0x3d284ae1	0.041087035
58	0x3e94e22f	0.29078814
59	0x3e88567b	0.2662848
60	0x3ec37a34	0.3817917
61	0xbd4df262	-0.050279982
62	0xbdaeecb0	-0.08541238
63	0x3d30f4cb	0.043202203
64	0xbcb7e213	-0.022446668
65	0x3da30e72	0.079617396
66	0xbe146d34	-0.14494783
67	0x3d2748e4	0.040841
68	0xbe75a8d4	-0.23990184
69	0x3da097c7	0.07841449
70	0xbe3c8672	-0.18410662
71	0x3e9a5037	0.30139324
72	0x3c5daa17	0.013529322
73	0x3e250619	0.16115607
74	0x3d0a3da6	0.0337502
75	0xbecde637	-0.40214702
76	0xbd6d4938	-0.057931155
77	0xbe60b09e	-0.21942374
78	0xbcf7e0c5	-0.030258546
79	0xbe6d6492	-0.23182896
80	0x3e6b61ce	0.22986528
81	0x3e86b874	0.26312602
82	0x3e350735	0.1767853
83	0xbdee40fd	-0.11633489
84	0x3e367f3b	0.17821972
85	0xbdfeb7dc	-0.12437412
86	0x3d4834e1	0.048878554
87	0xbdf0b0c1	-0.11752463
88	0xbe018504	-0.12648398
89	0x3e86921a	0.26283342
90	0x3dde3546	0.10850005
91	0x3d1aeef6	0.037825547
92	0x3c6b021f	0.014343767
93	0xbe232656	-0.15932593
94	0x3b6d9b1a	0.0036255778
95	0x3e578b76	0.21049294
96	0xbe9a0267	-0.30079958
97	0xbf4e6ddf	-0.806364
98	0xbe036e22	-0.12834981
99	0xbe4a69cd	-0.19766922
100	0x3c934389	0.01797654
101	0x3eb9f88b	0.36322436
102	0xbea4a3d3	-0.32156238
103	0xbe8d64cd	-0.27615967
104	0xbdf925a7	-0.12165385
105	0x3e86bce4	0.26315987
106	0xbc29b0a6	-0.010357058
107	0x3e8be53e	0.27323335
108	0xbde9c6d3	-0.11414876
109	0x3ec0dd63	0.37668905
110	0x3dcdbd84	0.10045913
111	0x3e9ee3fe	0.3103332
112	0xbd1b5bd8	-0.037929386
113	0x3dbcb658	0.09214467
114	0x3bcb47d2	0.00620363
115	0xbe94abaa	-0.2903722
116	0x3efeb60c	0.49748266
117	0xbe16ab1b	-0.14713709
118	0x3f265919	0.649797
119	0x3e4db1cb	0.20087354
120	0x3f1f27fe	0.621704
121	0x3e0e9a70	0.139261
122	0xbe49a6eb	-0.1969258
123	0xbdef580e	-0.11686717
124	0xbd6d220a	-0.05789379
125	0x3d2915a4	0.041280404
126	0x3e18c4a0	0.14918756
127	0x3bcd50d6	0.00626574
128	0xbe6cf92d	-0.23141928
129	0xbe8544e5	-0.26029125
130	0xbaf6e01e	-0.0018835103
131	0xbdd25bf8	-0.10271448
132	0x3d4b5add	0.0496472
133	0xbea88fc7	-0.32922193
134	0x3e05700b	0.13031022
135	0x3e51d0ed	0.20489855
136	0x3e4c8a08	0.1997453
137	0x3e108ef4	0.14117032
138	0xbdd11ff6	-0.10211174
139	0xbd5b5194	-0.053544596
140	0x3f291b42	0.6605722
141	0x3de38bc3	0.11110642
142	0xbe239d2a	-0.15977922
143	0x3e4f8f7c	0.20269579
144	0xbd64272d	-0.055701423
145	0x3dfb421e	0.1226847
146	0x3dc8e1ab	0.09808668
147	0xbe2c46dd	-0.16823907
148	0xbe6ec5aa	-0.2331759
149	0x3e2aeecc	0.16692656
150	0x3e410ee0	0.1885333
151	0x3e2c1664	0.16805416
152	0x3dcf46d3	0.101209305
153	0xbeaa5ead	-0.33275357
154	0xbe65e8dc	-0.2245211
155	0x3dd0f626	0.10203199
156	0x3d8bdd26	0.0682929
157	0x3ce85053	0.028358614
158	0x3e2e7fcd	0.1704094
159	0xbdd79615	-0.10526673
160	0xbe5da054	-0.21643192
161	0xbd2a7496	-0.04161509
162	0xbda3099d	-0.07960818
163	0xbdb02fe3	-0.08602884
164	0xbcf9198f	-0.030407695
165	0x3e233ffb	0.15942375
166	0xba9d8f9f	-0.0012020952
167	0xbd5d2005	-0.053985614
168	0xbd87ecf6	-0.066369936
169	0x3c95c1ea	0.018280942
170	0xbdda61ed	-0.10663209
171	0x3dc4c286	0.09607415
172	0x3ddf2679	0.1089601
173	0x3c88118a	0.016609926
174	0x3d1397d7	0.036033478
175	0x3d761c5f	0.06008565
176	0xbe072fd5	-0.1320184
177	0x3d14cffc	0.03633116
178	0x3da2664d	0.079296686
179	0xbda258de	-0.07927106
180	0x3c20a2c2	0.0098044295
181	0xbe53e126	-0.20691356
182	0xbe6f3d89	-0.23363318
183	0xbe4de4f5	-0.20106871
184	0x3cb9e02f	0.022689907
185	0x3d89d249	0.06729562
186	0xbc8f487c	-0.017490618
187	0xbbaefa4f	-0.0053398977
188	0x3e6a907d	0.2290668
189	0x3dc6fdbf	0.09716367
190	0xbe700b2a	-0.23441759
191	0xbe4d7bb2	-0.20066717
192	0x3e61bfd5	0.22045834
193	0x3e8cef51	0.27526334
194	0x3eab323c	0.33436763
195	0xbee49c2a	-0.44650394
196	0xbd9bcf31	-0.07607878
197	0x3ceb8a08	0.028752342
198	0x3bee918a	0.007280533
199	0xbe4775d4	-0.19478542
200	0x3e269c54	0.16270572
201	0x3eaa695f	0.33283517
202	0x3dbe9e5e	0.0930755
203	0xbea52818	-0.32257152
204	0xbbe88a16	-0.0070965393
205	0x3e14097d	0.14456744
206	0x3e8cada2	0.2747622
207	0xbe2aa0c0	-0.16662884
208	0xbe7c2bed	-0.24626131
209	0xbea3f675	-0.3202397
210	0x3f0af3e5	0.54278404
211	0xbebb7ec2	-0.36620146
212	0xbdd371ee	-0.10324465
213	0xbdec0236	-0.11523859
214	0x3ee24e4b	0.44200358
215	0xbc9d5555	-0.019205729
216	0xbea8ecf9	-0.32993296
217	0xbe8740c2	-0.26416594
218	0x3e560433	0.2090004
219	0xbe4c4e9f	-0.19951867
220	0xbe7f84b0	-0.2495296
221	0x3e6a9bb6	0.22910962
222	0x3d752134	0.059846118
223	0x3cc23462	0.023706619
224	0xbdfd909b	-0.12381097
225	0xbab7bc73	-0.0014017954
226	0xbcf439de	-0.02981275
227	0x3ecb1c7f	0.39670178
228	0x3d0024e4	0.03128518
229	0xbd1640bb	-0.036682826
230	0x3c07933f	0.008274852
231	0x3e706a90	0.2347815
232	0x3e64dd00	0.2234993
233	0xbed14b6e	-0.4087786
234	0x3d28472c	0.0410835
235	0x3db3b433	0.08774605
236	0x3c6c0d3a	0.01440745
237	0x3e6b797e	0.22995564
238	0xbe3fd954	-0.18735248
239	0x3e39833f	0.18116473
240	0xbd79e992	-0.061013766
241	0x3d3d01a0	0.046144128
242	0xbd76b0f1	-0.06022734
243	0x3d8b06eb	0.06788429
244	0x3c12ac7e	0.008952258
245	0xbddae99d	-0.106890894
246	0xbd80c186	-0.06286912
247	0xbddc6950	-0.10762274
248	0xbe0a710e	-0.1351969
249	0xbd334082	-0.04376269
250	0xbe0114cc	-0.1260559
251	0x3e01adc3	0.12663941
252	0x3e1e1efb	0.15441506
253	0xbe823f29	-0.25438812
254	0xbe3f11a6	-0.18659076
255	0x3e2d060f	0.16896842

sequential/dense_2/MatMul_bias f4 [64]
0	0x3cc50e43	0.024054652
1	0x3cdba7c3	0.026813393
2	0x3b134758	0.0022472944
3	0x3c84b46c	0.016199313
4	0xbb7bf751	-0.0038446973
5	0xbba77ec8	-0.005111549
6	0xbc384bf5	-0.011248578
7	0x3c4cf17e	0.012508748
8	0x3bd32635	0.0064437636
9	0xbb9ae8d2	-0.0047274614
10	0x391c88e5	0.00014928317
11	0xbc56947b	-0.013096924
12	0xbba9a81d	-0.0051775114
13	0x3c0a9ec7	0.008460707
14	0xbca77430	-0.020441145
15	0xbb1e1fb2	-0.0024127779
16	0x3c3abaf9	0.011397117
17	0xbae62207	-0.0017557748
18	0xbc5eccc9	-0.013598629
19	0x3c3528f3	0.011057126
20	0xbbfaff4b	-0.007659828
21	0xbc31dab5	-0.0108553665
22	0xbbf2c306	-0.0074085025
23	0x3cc7f6a7	0.024409605
24	0xbb78561c	-0.0037893122
25	0xb9fb18a4	-0.0004789281
26	0x3b824d40	0.003976494
27	0xbc5208fd	-0.012819526
28	0x3cc1d518	0.023661181
29	0x3c13f048	0.0090294555
30	0xbc4705ba	-0.012147361
31	0x3c4aedf7	0.012385837
32	0xbb85cf49	-0.004083548
33	0x3c408702	0.011750938
34	0xbc1ae78a	-0.009454617
35	0xbcabf884	-0.020992525
36	0x3c534575	0.012894978
37	0xbc0c0a01	-0.008547307
38	0xbcc8f4c8	-0.024530783
39	0x3c5e143d	0.01355463
40	0x3bb0ce38	0.005395677
41	0xba2685f9	-0.0006352361
42	0x3a17027c	0.0005760563
43	0x3bf82501	0.0075727706
44	0xbbb097e1	-0.005389199
45	0x36c3f700	5.8402075e-06
46	0x3c910969	0.017704682
47	0x3af8d44a	0.0018984166
48	0xbb5d856f	-0.0033801456
49	0x3cb238a4	0.021755524
50	0x3b2399a7	0.002496341
51	0x3bfb6893	0.0076723783
52	0x3c67c9d6	0.0141472425
53	0x3c4b7c62	0.012419792
54	0xbc331c8c	-0.010932099
55	0xbc3aa4a9	-0.011391797
56	0x3c45f22c	0.012081664
57	0xbbdd741d	-0.0067582265
58	0x3c8f8197	0.017517848
59	0xbc1dd9de	-0.009634463
60	0x3b0cf92c	0.0021510823
61	0xbc6fc1b5	-0.014633586
62	0xbc8775d1	-0.016535671
63	0xbbaaf8af	-0.0052176337

sequential/dense_3/MatMul/ReadVariableOp/transpose f4 [128, 64]
0	0xbd8aa90d	-0.06770525
1	0xbd099a5b	-0.03359447
2	0xbd662a24	-0.056192532
3	0xbac6bf25	-0.0015163167
4	0x3d9c1099	0.07620353
5	0x3b85281d	0.0040636198
6	0x3dc8054a	0.09766634
7	0x3d822a21	0.06355692
8	0xbc5ad80e	-0.0133571755
9	0x3c5399a5	0.01291505
10	0xbcbb4e9f	-0.022864638
11	0xbdd9c8ee	-0.106340274
12	0xbd635b8b	-0.055507224
13	0xbc68f8a3	-0.014219436
14	0xbd0c0c7b	-0.03419159
15	0xbc81a606	-0.015826236
16	0xbd32cb9d	-0.043651212
17	0x3c797b31	0.015227125
18	0x3c7b3715	0.015332957
19	0x3d06e202	0.03293038
20	0xbb84acbd	-0.0040489123
21	0xbd8628a6	-0.06550722
22	0xbdc0d9dd	-0.09416554
23	0x3d0b4f7d	0.034011353
24	0x3ca9f569	0.020746903
25	0x3c8e8113	0.017395532
26	0x3dc5869a	0.09644814
27	0x3d0e0deb	0.034681242
28	0x3d4a7e5a	0.049436904
29	0xba87861e	-0.0010339653
30	0xbc4b1da0	-0.0123972
31	0x3dc0751e	0.09397338
32	0x3d0a2b74	0.033732846
33	0x3d2bd6e1	0.04195297
34	0x3da464d4	0.08027044
35	0x3d7b9f21	0.061431054
36	0xbb71af8e	-0.003687832
37	0xbd07b2ce	-0.033129506
38	0xbd8d9b0a	-0.06914337
39	0x3c9146e1	0.017733993
40	0xbd415515	-0.04720028
41	0x3c4fc057	0.012680135
42	0xbd2e1e0e	-0.04250913
43	0xbd953c13	-0.07286849
44	0x3d686d0e	0.056744628
45	0xbd7a3d69	-0.06109372
46	0xbd66e2c8	-0.05636862
47	0xbdbc6c1b	-0.09200307
48	0xbce7eb7a	-0.028310526
49	0x3bc13e26	0.0058973012
50	0xbd06e2a7	-0.032930996
51	0xbd4161f7	-0.047212567
52	0x3de6ddb2	0.11272754
53	0xbcbd344c	-0.023096226
54	0x3db61146	0.088900134
55	0x3d82f33f	0.06394052
56	0xbd1b9372	-0.03798241
57	0xbbfd543b	-0.0077309883
58	0xbd60ae6c	-0.05485384
59	0xbd4b11e6	-0.049577616
60	0x3c711034	0.014713336
61	0x3bbac95b	0.005700273
62	0x3ca92dcb	0.020651719
63	0x3d3bfbc5	0.045894403
64	0xbd1fde04	-0.03903009
65	0x3d7dde4b	0.061979573
66	0x3c39d781	0.011342884
67	0xbd9b7cc8	-0.075921595
68	0xbb26ac56	-0.002543231
69	0x3c8b9388	0.017038122
70	0x3c80e7b9	0.015735494
71	0xbd1838c1	-0.0371635
72	0x3db6a496	0.08918111
73	0x3bcafc34	0.0061946157
74	0x3d1dae69	0.03849641
75	0x3d1447ec	0.036201403
76	0x3d2b08d7	0.041756477
77	0x3caf395a	0.021389652
78	0xbd6facf7	-0.05851456
79	0xbb5f8ce0	-0.0034111068
80	0xbd8703c7	-0.06592517
81	0xb93f2664	-0.00018229481
82	0xbcdb5eec	-0.02677866
83	0xbd59e3b2	-0.053195663
84	0x3b8415e6	0.004030931
85	0xbd582f15	-0.052779276
86	0x3cd6d7c9	0.026225941
87	0xbd05b48d	-0.03264289
88	0x3d83bc2b	0.064323746
89	0x3dbb25b5	0.091380514
90	0xbcbf4945	-0.023350367
91	0x3d62656f	0.055272516
92	0x3d290bc9	0.041271005
93	0x3d19cec3	0.0375507
94	0x3df71788	0.12065035
95	0xbc6d4ba3	-0.014483365
96	0xbb2d77bf	-0.002646908
97	0x3d9da4c3	0.076974414
98	0x3d7a59e5	0.061120886
99	0x3d4eb3ac	0.050464317
100	0x3b94b4d9	0.0045381603
101	0xbd9cfe4b	-0.0766569
102	0xbc976e7f	-0.018485306
103	0x390eecb4	0.00013630354
104	0x3d2e9ccd	0.042630006
105	0x3df5e01a	0.120056346
106	0x3dea48b4	0.11439648
107	0x3d2c8b6a	0.042125143
108	0xbc5111e3	-0.012760612
109	0xbc2ba7ca	-0.010477016
110	0x3c66ab78	0.014078967
111	0x3dae3c50	0.085075974
112	0xba5742ec	-0.0008211571
113	0x3d5c59fa	0.053796746
114	0x3b090953	0.0020910099
115	0xbc0df681	-0.008664728
116	0x3d1a96db	0.037741523
117	0x3db1cf07	0.086820655
118	0x3ba4c585	0.005028429
119	0x3bb2ac85	0.005452695
120	0x3bee3b45	0.007270249
121	0x3ce2bb7b	0.027677288
122	0x3d0422ca	0.03225974
123	0xbd4ea74b	-0.05045251
124	0xbccd6e51	-0.025077017
125	0xbdbf9d8e	-0.09356223
126	0x3d5c3666	0.053762816
127	0x3cf285a0	0.029604733
128	0xbd840542	-0.06446315
129	0x3db4f7e9	0.088363476
130	0xbe002d47	-0.12517272
131	0xbd112c87	-0.035442855
132	0xbd1e533c	-0.038653597
133	0x3ded9c1b	0.116020404
134	0x3c9c730d	0.01909783
135	0x3cbcb8b7	0.023037298
136	0xbd0aa7ea	-0.03385154
137	0x3d50a2a9	0.050936375
138	0x3beadc0f	0.0071673463
139	0xbd81f6a5	-0.06345872
140	0xbbc9c179	-0.006157097
141	0x3c38073b	0.011232193
142	0x3c69e498	0.014275692
143	0x3cda757f	0.026667355
144	0xbb081ede	-0.0020770351
145	0x3d165411	0.036701266
146	0x3d8548fc	0.06508061
147	0xbda21ee8	-0.07916051
148	0x3ba8658a	0.0051390575
149	0x3cd801cf	0.02636805
150	0xbd231eb2	-0.039824195
151	0xbd0877be	-0.03331732
152	0xbc8943d4	-0.016755976
153	0x3d241cab	0.040066402
154	0xbbc37b0a	-0.005965595
155	0x3c9fc34d	0.019502306
156	0x3d250b2a	0.04029385
157	0x3c862f10	0.016379863
158	0xbb212955	-0.0024591286
159	0x3a7568fc	0.0009361652
160	0xbd6bce6d	-0.05756991
161	0xbd918636	-0.07105677
162	0xbc88417a	-0.016632784
163	0x3d20e254	0.039278343
164	0xbdbaa794	-0.09113994
165	0xbd8ec1c3	-0.06970551
166	0x3dc47656	0.09592883
167	0x3cfac440	0.030611157
168	0xbcc03fc9	-0.023467915
169	0x3daaaae6	0.083333775
170	0x3cd9fa72	0.02660868
171	0xbdb3db86	-0.08782105
172	0xbc22a8bb	-0.009927924
173	0x3c673dbe	0.014113842
174	0x3daa4f9c	0.083159655
175	0xbd515bb2	-0.051112838
176	0x3d9e7d25	0.07738713
177	0xbc86a0dd	-0.016434127
178	0xbd4d26fc	-0.050086007
179	0x3d757198	0.059922785
180	0x3d7a0767	0.061042216
181	0xbd4cbfde	-0.049987666
182	0x3d28836d	0.041140962
183	0xbbe454af	-0.006968103
184	0x3d70d49b	0.058796506
185	0xbd2be72b	-0.041968506
186	0x3d898a78	0.06715864
187	0xbd058242	-0.032594927
188	0xbd6600dc	-0.056153163
189	0xbd524bd5	-0.05134185
190	0xbb40c060	-0.002941154
191	0xbd7d93b0	-0.061908424
192	0xbceff8a8	-0.029293373
193	0x3d365a36	0.044519626
194	0xbcc83070	-0.02443716
195	0x3d818382	0.06323911
196	0xbceaa0d9	-0.028641151
197	0x3dda7f00	0.106687546
198	0x3d411b20	0.04714501
199	0x3d0c4ef6	0.03425499
200	0xbd90ce1a	-0.07070561
201	0xbda68b83	-0.081320785
202	0x3c536820	0.012903243
203	0xbdb46ae0	-0.08809447
204	0xbe0faffc	-0.14031976
205	0x3d976c16	0.07393663
206	0x3da1b1ff	0.07895278
207	0xbd1940e9	-0.03741542
208	0x3dc0fd17	0.09423273
209	0x3d039d58	0.032132477
210	0x3d898df3	0.06716528
211	0x3ca7a552	0.020464573
212	0x3c8c6f9b	0.017143061
213	0xbc3f5fe7	-0.01168058
214	0x3d14d055	0.036331493
215	0xbca7854a	-0.0204493
216	0xbdad86c0	-0.08472967
217	0xbac8ae36	-0.0015310708
218	0xbd81e0ed	-0.06341729
219	0x3d9aa35b	0.07550689
220	0x3ccb34b3	0.024805402
221	0xbd2105d1	-0.039312188
222	0x3cdbe5e3	0.026843017
223	0xbb1ac09c	-0.002361334
224	0x3d072492	0.03299386
225	0xbd951914	-0.07280174
226	0x3d7b5e55	0.06136926
227	0xbcfebf4d	-0.031097079
228	0x3d30aaa0	0.04313147
229	0x3b92ea1b	0.004483474
230	0x3c9468e1	0.018116416
231	0xbcd5bb57	-0.026090307
232	0x3c69186a	0.014227012
233	0x3cb1cba0	0.021703541
234	0x398dd693	0.00027053486
235	0x3c011daf	0.007880612
236	0x3d8d5498	0.069009006
237	0x3cb44f6b	0.022010526
238	0xbc98ea1c	-0.01866632
239	0xbc2f695f	-0.010706275
240	0x3c07826c	0.008270841
241	0x3c2b9982	0.010473611
242	0xbc8cf90a	-0.017208595
243	0x3c9619de	0.018322881
244	0xbd6175f3	-0.055044126
245	0x3a333fc7	0.00068378117
246	0xbcec80e2	-0.02887005
247	0xbd22cbd8	-0.03974518
248	0xba9d5e0d	-0.0012006179
249	0xbcf654f4	-0.030069806
250	0xbd0187fb	-0.03162382
251	0x3c95fe8f	0.01830986
252	0xbd0b68a5	-0.034035344
253	0x3ce574a8	0.028009728
254	0x3d025805	0.031822223
255	0x3d76b3b3	0.06022997

sequential/dense_3/MatMul_bias f4 [128]
0	0x3ad4a67c	0.0016223933
1	0x3c5f0b2d	0.013613504
2	0xb989aeea	-0.00026260997
3	0x3c397836	0.011320164
4	0x3c9d6faf	0.019218294
5	0xbbcf965e	-0.006335064
6	0x3bd36c34	0.006452108
7	0xbc15b4c1	-0.009137333
8	0x3b7da4de	0.0038703005
9	0x3c8070a7	0.015678717
10	0xbc419bd8	-0.011816941
11	0x3c283724	0.010267053
12	0x3c20092b	0.009767811
13	0x3bf75dfe	0.0075490465
14	0x3bacf23f	0.0052779014
15	0x3c973ae0	0.018460691
16	0x3c55dc1f	0.013052969
17	0x3ca43b01	0.020047667
18	0x3c0c692d	0.008569998
19	0x3ca186c9	0.01971759
20	0x3a0089d8	0.0004903353
21	0x3ba12cfb	0.004918692
22	0x3c95bd09	0.018278616
23	0x3c249f85	0.010047798
24	0xbb3e2474	-0.0029013427
25	0x3af361d1	0.001856858
26	0xba6660d1	-0.00087882305
27	0x3ca5bab6	0.020230632
28	0xbba007d5	-0.004883746
29	0x3c4acc5e	0.0123778265
30	0x3a9566a9	0.0011398393
31	0x3c7ec395	0.01554956
32	0x3c191255	0.00934275
33	0x3b863393	0.0040955036
34	0xbc1512c1	-0.00909871
35	0x3ca0e814	0.019641913
36	0x3a89efd1	0.0010523741
37	0x3c6d2af3	0.014475572
38	0x3ccaeab8	0.024770126
39	0x3bcc2db4	0.006231034
40	0xbbd88c42	-0.006608517
41	0xbbeca4f3	-0.007221812
42	0x3c6a976f	0.014318331
43	0xbc0a4b68	-0.00844083
44	0x3b8a1984	0.0042144675
45	0x3c3551a0	0.011066824
46	0x3a1cca66	0.00059810875
47	0x3a39471d	0.00070677866
48	0x3c887fcc	0.0166625
49	0x3ab082b6	0.0013466689
50	0x3c87bc51	0.016569288
51	0xbc0648c7	-0.008196062
52	0x3ca943e3	0.020662254
53	0x3bcebdfc	0.006309269
54	0xbaee11f8	-0.0018163314
55	0xbc1b1aef	-0.009466871
56	0x3cb338d7	0.02187769
57	0x3b6f8927	0.0036550255
58	0xbbc73bb6	-0.006080116
59	0xbb4b8e2a	-0.0031060078
60	0x3c9efe69	0.019408422
61	0x3ca529b1	0.020161482
62	0xbc63adc9	-0.013896414
63	0xbbac7c73	-0.005263859
64	0x3ca0d2cf	0.019631771
65	0x3c577de9	0.013152578
66	0x3ba17a18	0.004927885
67	0xbc650adf	-0.013979643
68	0x3b6c4701	0.0036053064
69	0xbb5c3c39	-0.0033605231
70	0x3c958cb9	0.018255578
71	0x3be60538	0.007019665
72	0xbc66367b	-0.014051075
73	0x3c948ea9	0.018134432
74	0xbca4cdae	-0.020117607
75	0x3cbcf179	0.023064362
76	0x3c55138a	0.013005147
77	0x3c095a66	0.008383369
78	0x3c11324c	0.008862089
79	0xbc88875c	-0.016666107
80	0xbc4b9d0e	-0.0124275815
81	0x3bcaf163	0.0061933263
82	0xba02c3ed	-0.00049883017
83	0x3c8961f0	0.016770333
84	0x3c90158c	0.0175884
85	0xbcb95bd2	-0.022626791
86	0x3cb13cc0	0.021635413
87	0x3b830999	0.003998947
88	0xbc3bf825	-0.0114727365
89	0xbb9f3381	-0.0048584347
90	0x3c8ead6e	0.017416682
91	0x3c9a5004	0.018836983
92	0x3c03fd67	0.008056021
93	0x3b03001a	0.0019989074
94	0x3c8e0156	0.017334621
95	0xbcb24689	-0.02176215
96	0x3c3d6969	0.011560776
97	0x3c1b95c2	0.009496154
98	0x3b9c799d	0.0047752396
99	0xbbcb5dd1	-0.006206252
100	0x3c505387	0.012715227
101	0xbc90eef7	-0.017692072
102	0x3c8ff810	0.01757434
103	0x3c885623	0.016642636
104	0xbbc22c50	-0.0059256926
105	0x3c89c81d	0.016819054
106	0x3bc13a5c	0.0058968496
107	0xbc282868	-0.01026354
108	0x3c573c47	0.01313693
109	0x3c18af45	0.009319131
110	0x3c84714e	0.01616731
111	0x3c0f8e9a	0.008762026
112	0x3b8e3223	0.004339473
113	0x3b749825	0.003732213
114	0xbbad160f	-0.0052821706
115	0x3b89b1e0	0.0042021126
116	0x3c4c5e47	0.012473649
117	0x3af83e8e	0.0018939541
118	0xbc7fdb95	-0.015616317
119	0x3ca5c9a5	0.020237753
120	0x3cae81bc	0.021302097
121	0x3c727e18	0.014800571
122	0x3c9052c4	0.01761759
123	0x3b4ff67c	0.003173261
124	0x3cc11fa9	0.023574667
125	0xbc16bd84	-0.0092004575
126	0x3b8d86a3	0.0043190285
127	0x3b146764	0.0022644633
