app/src/main/assets/model.tflite (tflite, 38080 bytes, 8 tensors)

sequential/dense/BiasAdd/ReadVariableOp/resource f4 [32]
0	0x3c1c6578	0.009545676
1	0x3ae6628c	0.0017576977
2	0x3ba9fec4	0.005187841
3	0x3c1eab39	0.009684377
4	0x3c14a768	0.009073116
5	0xbc128e90	-0.008945122
6	0xbb8011ee	-0.0039083874
7	0x3c157002	0.009120943
8	0x3c22199f	0.009893804
9	0x3c1df6ec	0.00964139
10	0x3be32b96	0.006932686
11	0x3c236ec4	0.009975139
12	0x3a787967	0.00094785396
13	0x3bdfa6dc	0.006825311
14	0x3c259b20	0.010107785
15	0x3c18da6a	0.009329418
16	0x3c253031	0.0100822905
17	0xbbcb9c1e	-0.006213679
18	0x3c238829	0.009981194
19	0xbc1f8b9a	-0.009737873
20	0x3b709093	0.0036707267
21	0xb9c01900	-0.0003663972
22	0x3b5628d0	0.0032678135
23	0x3bb5a472	0.005543285
24	0x3c187c59	0.009306991
25	0x3c252170	0.010078773
26	0x3c245dca	0.010032127
27	0x3bca607f	0.006176054
28	0x3c20d2c7	0.009815878
29	0x3c2576f1	0.010099159
30	0x3b95d3a7	0.00457235
31	0x3b1b04a0	0.002365388

sequential/dense_1/BiasAdd/ReadVariableOp/resource f4 [64]
0	0xbbff67d4	-0.0077943597
1	0x3c20f1b6	0.009823253
2	0x3c20c498	0.009812497
3	0x3c264d08	0.010150202
4	0x3c20e284	0.0098196305
5	0x3c25e165	0.010124539
6	0x3c264cc6	0.01015014
7	0x3c23b422	0.0099916775
8	0xbbd68cae	-0.006547532
9	0xbb5349ff	-0.003224015
10	0xbb7c248c	-0.0038473932
11	0x3bc3f750	0.0059804097
12	0x3bac32da	0.0052550854
13	0x3c189532	0.009312915
14	0x3c1ef2d5	0.00970145
15	0x3c2658ca	0.010153005
16	0x3bbba83c	0.005726842
17	0xbb07df69	-0.0020732528
18	0xbb6968e0	-0.003561549
19	0x3c225268	0.0099073425
20	0x3c21c09a	0.00987258
21	0x3b59a2d0	0.0033208616
22	0x3c1fdff8	0.009757988
23	0xbbd28e9c	-0.006425692
24	0x3c2153f6	0.009846678
25	0x3c1c68f6	0.009546509
26	0xbb88c369	-0.0041736853
27	0x3c23c94a	0.0099967215
28	0x3bcc3f34	0.0062331203
29	0xbb8eaf5d	-0.004354401
30	0xbbee95fe	-0.007281064
31	0x3bf1819c	0.007370187
32	0x3a2a7a13	0.0006503176
33	0x3c125a12	0.008932607
34	0xbb1bb2bc	-0.0023757657
35	0x3c1d3fce	0.009597732
36	0x3ab15bbc	0.0013531367
37	0x3c251029	0.010074654
38	0x3c25f2bb	0.010128672
39	0x3c26087b	0.010133858
40	0xbb86b956	-0.0041114492
41	0xbbfe948d	-0.0077691735
42	0x3b0b18f6	0.0021224595
43	0xbba939a4	-0.005164342
44	0x3949d5ba	0.00019248473
45	0x3c261dd4	0.0101389475
46	0xba4b647a	-0.00077588076
47	0x3910593c	0.00013766153
48	0x3c21a795	0.009866615
49	0x3c2157c9	0.00984759
50	0x3c2624ce	0.010140611
51	0x3ac730e9	0.0015197071
52	0x3bdc55bd	0.006724088
53	0x3c24923c	0.010044631
54	0x3b147d9e	0.0022657881
55	0x3c175089	0.00923551
56	0x3be22724	0.0069016386
57	0x3c24b57a	0.010053033
58	0x3c25a6d3	0.010110575
59	0xbba6fa52	-0.0050957585
60	0xbbf6dd96	-0.0075337393
61	0x3c254b98	0.010088824
62	0x3c22ff39	0.009948545
63	0x3b139ac4	0.0022522667

sequential/dense_2/BiasAdd/ReadVariableOp/resource f4 [101]
0	0xbc23cea4	-0.009997997
1	0xbc23caf6	-0.00999712
2	0xbc23c6e6	-0.009996152
3	0xbc23ce02	-0.009997847
4	0xbc23d42b	-0.009999315
5	0xbc23c90f	-0.009996667
6	0xbc23cae1	-0.009997101
7	0xbc23c6e0	-0.009996146
8	0xbc23cac4	-0.009997074
9	0xbc23ccec	-0.009997588
10	0xbc23cbc8	-0.009997316
11	0xbc23c96a	-0.009996751
12	0xbc23c969	-0.00999675
13	0xbc23ce6a	-0.009997943
14	0xbc23d17d	-0.009998676
15	0xbc23d4dd	-0.009999481
16	0xbc23caed	-0.009997112
17	0xbc23c95d	-0.009996739
18	0xbc23c6e2	-0.009996148
19	0xbc23c647	-0.0099960035
20	0xbc23c765	-0.00999627
21	0xbc23d05a	-0.009998405
22	0xbc23c84e	-0.009996487
23	0xbc23cfeb	-0.009998302
24	0xbc23c92d	-0.0099966945
25	0xbc23ca08	-0.0099968985
26	0xbc23cae5	-0.009997104
27	0xbc23c1c3	-0.009994927
28	0xbc23cf5b	-0.009998168
29	0xbc23ce21	-0.009997875
30	0xbc23ca3d	-0.009996948
31	0xbc23cdce	-0.009997798
32	0xbc23ce54	-0.009997923
33	0xbc23cc98	-0.009997509
34	0xbc23c8a2	-0.009996565
35	0xbc23c9db	-0.009996857
36	0x3c23d379	0.0099991495
37	0xbc23cbb5	-0.009997298
38	0xbc23c7c7	-0.009996361
39	0xbc23cdfc	-0.009997841
40	0xbc23cbac	-0.00999729
41	0xbc23d36f	-0.00999914
42	0xbc23ce26	-0.00999788
43	0x3c23d293	0.009998935
44	0x3c23ce92	0.009997981
45	0x3c23ce70	0.009997949
46	0xbc23ce07	-0.009997851
47	0xbc23cce2	-0.009997578
48	0x3c23cf38	0.009998135
49	0xbc23c85d	-0.009996501
50	0xbc23c8bb	-0.009996588
51	0xbc23cc52	-0.009997444
52	0xbc23d0f4	-0.009998549
53	0x3c23ce1c	0.009997871
54	0x3c23ce15	0.009997864
55	0x3c23ce5d	0.009997931
56	0xbc23cecc	-0.009998035
57	0xbc23ca6f	-0.009996994
58	0x3c23d255	0.0099988775
59	0x3c23d3fc	0.0099992715
60	0xbc23cb2f	-0.009997173
61	0xbc23c523	-0.0099957315
62	0xbc23cd92	-0.009997742
63	0x3c23d183	0.009998682
64	0xbc23c9bd	-0.009996829
65	0xbc23d142	-0.009998621
66	0xbc23d065	-0.009998416
67	0xbc23c32b	-0.009995262
68	0xbc23d0c7	-0.009998507
69	0xbc23cdf4	-0.0099978335
70	0xbc23ccad	-0.009997529
71	0xbc23cbc8	-0.009997316
72	0xbc23ccbc	-0.009997543
73	0xbc23c874	-0.009996522
74	0xbc23ca44	-0.009996954
75	0xbc23cb3f	-0.009997188
76	0xbc23cf5b	-0.009998168
77	0xbc23cfdb	-0.009998287
78	0xbc23ca28	-0.009996928
79	0xbc23cabe	-0.009997068
80	0xbc23cb8a	-0.009997258
81	0xbc23c65c	-0.009996023
82	0xbc23c95c	-0.009996738
83	0xbc23cc71	-0.009997473
84	0xbc23cdf2	-0.009997832
85	0xbc23cd5c	-0.009997692
86	0xbc23c3bd	-0.009995398
87	0xbc23cc1e	-0.009997396
88	0xbc23cb34	-0.009997178
89	0xbc23c798	-0.009996317
90	0xbc23c416	-0.009995481
91	0xbc23c6a9	-0.009996095
92	0xbc23ce73	-0.009997952
93	0xbc23ce05	-0.009997849
94	0xbc23c6fb	-0.009996171
95	0xbc23ca10	-0.009996906
96	0xbc23cc60	-0.009997457
97	0xbc23cd20	-0.009997636
98	0xbc23cc2c	-0.009997409
99	0xbc23cd7b	-0.009997721
100	0xbc23c99c	-0.009996798

sequential/batch_normalization/batchnorm/mul f4 [7]
0	0x3f2033aa	0.62578833
1	0x3f5bb80f	0.85827726
2	0x3f627e2e	0.88473785
3	0x3f521405	0.820618
4	0x3f654ebc	0.89573264
5	0x3f858a6e	1.043287
6	0x3f86a3ee	1.0518777

sequential/batch_normalization/batchnorm/sub f4 [7]
0	0xc045a00b	-3.0878932
1	0xc094ac14	-4.6460056
2	0xc03e44d4	-2.972951
3	0xc074b8da	-3.8237824
4	0xc087f250	-4.248329
5	0xc0c9da00	-6.3078613
6	0xc0c3389d	-6.100661

sequential/dense/MatMul f4 [32, 7]
0	0xbd50c501	-0.050969128
1	0xbd6bb56b	-0.05754606
2	0x3d005150	0.031327546
3	0xbc61b394	-0.013775725
4	0xbc8c5d60	-0.017134368
5	0x3d3d2638	0.046179026
6	0x3c76f460	0.015072912
7	0xbd365960	-0.04451883
8	0xbd146387	-0.03622773
9	0xbcde5152	-0.027138386
10	0x3c527674	0.012845624
11	0x3d17a606	0.037023567
12	0x3d1008d6	0.035164677
13	0x3cfafede	0.030639108
14	0x3d39c76d	0.045356203
15	0x3d1dae41	0.03849626
16	0x3d6ef10e	0.058335356
17	0xbd1824c8	-0.037144452
18	0x3bca01e1	0.0061647748
19	0x3d7119c4	0.058862463
20	0xbd297d1f	-0.04137909
21	0x3d4fce3c	0.05073379
22	0x3cf8a26c	0.030350886
23	0x3bdca339	0.006733325
24	0x3ca418fa	0.020031441
25	0xbcdd5537	-0.027018173
26	0xbd02e1ae	-0.031953506
27	0xbd4acc86	-0.049511455
28	0x3c999d2f	0.018751709
29	0xbd326e4a	-0.04356221
30	0xbcc0c345	-0.023530612
31	0xba9a3baa	-0.0011767049
32	0xbc864ba9	-0.0163935
33	0xbc9e805e	-0.01934832
34	0x3c10c869	0.008836844
35	0xbccb4fb7	-0.024818284
36	0xbc410d0a	-0.011782894
37	0xbb5935bc	-0.00331436
38	0xbd043272	-0.03227467
39	0x3d225653	0.039633106
40	0x3ce2d092	0.027687345
41	0xbca5fb87	-0.02026154
42	0x3d12a2bd	0.03579973
43	0xbbd0b66e	-0.0063694036
44	0xbca9fda3	-0.020750826
45	0xbaacdebe	-0.0013188941
46	0xbd1a2c9c	-0.0376402
47	0x3ac09b0d	0.0014694646
48	0x3cff68c1	0.03117788
49	0x3c913d10	0.017729312
50	0x3d57e8d6	0.052712284
51	0x3c92e95b	0.017933538
52	0xbd59084d	-0.052986432
53	0x3bcfbef7	0.0063399035
54	0x3c890c27	0.016729428
55	0x3ce271ed	0.027642215
56	0x3d6d1181	0.05787802
57	0x3d720adb	0.059092384
58	0x3d14800d	0.03625493
59	0x3ce31b68	0.02772303
60	0x3a7c3b56	0.0009621879
61	0x3cdea460	0.02717799
62	0x3bb06933	0.0053836345
63	0xbc406924	-0.0117438175
64	0x3c5ba91c	0.013407018
65	0xbd4489a9	-0.047982845
66	0x3d65febd	0.05615114
67	0x3ab3abe2	0.0013707841
68	0x3cdaf965	0.026730249
69	0x3b2a5bf1	0.0025994743
70	0x3c0b51d9	0.008503401
71	0xbcde788c	-0.02715709
72	0xbcf5b391	-0.02999285
73	0x3cc03784	0.023463972
74	0xbbb3e81e	-0.005490317
75	0x3a806162	0.0009794647
76	0xbb71a9a9	-0.0036874807
77	0x3d24dfd0	0.040252507
78	0x3cfadfd1	0.030624302
79	0xbd2b5f36	-0.041838847
80	0xbcd597af	-0.026073305
81	0xbc56c648	-0.013108797
82	0x3d03135a	0.032000877
83	0xbd64cf9c	-0.055862054
84	0x3d398849	0.045295987
85	0xbd2ec893	-0.04267175
86	0xbc2d4d1c	-0.010577466
87	0x3b93dba2	0.0045122663
88	0xbcd40e8e	-0.025885846
89	0x3ce5209d	0.027969653
90	0x3b6e85ce	0.0036395672
91	0xbd5ec934	-0.0543911
92	0x3d4dfaff	0.050288197
93	0x3cae8019	0.021301316
94	0xbab52944	-0.0013821502
95	0x3d29b2b5	0.041430194
96	0x3d260bc6	0.04053857
97	0xbccf37c4	-0.025295146
98	0x3d3e6a54	0.04648812
99	0xbbb5eeab	-0.005552133
100	0x3b249827	0.0025115104
101	0xbd37b718	-0.044852346
102	0xbcfbff3d	-0.030761356
103	0xbcfc93a4	-0.03083212
104	0xbd28a637	-0.04117414
105	0xbd561929	-0.05227009
106	0xbd4c74ee	-0.0499162
107	0xbd2de117	-0.04245099
108	0x3cf8ff00	0.030395031
109	0xbcd51c6a	-0.026014525
110	0x3cd382c3	0.025819188
111	0xbd1c26a0	-0.038122773
112	0xbca0ca5c	-0.019627742
113	0xbd30d7a7	-0.043174412
114	0xbd5330f6	-0.051560365
115	0x3bddf2c1	0.0067733233
116	0xbc71006f	-0.014709576
117	0x3d3fa422	0.04678739
118	0x3aad30e0	0.0013213418
119	0x3bd2a318	0.0064281337
120	0x3afa7ba6	0.0019110336
121	0x3a38a677	0.0007043848
122	0xbd28efc2	-0.041244276
123	0x3d0bd01f	0.034134027
124	0xbcd3cdd5	-0.025854984
125	0xbc9b500f	-0.018959073
126	0x3cf2844e	0.029604103
127	0x3d2bc5b9	0.04193661
128	0x3d69ef34	0.057112888
129	0xbc6c7c63	-0.014433953
130	0x3c8f7d51	0.01751581
131	0x3d3da39e	0.046298616
132	0x3d0a4c56	0.033764206
133	0x3b489d1a	0.0030611218
134	0xbafb752a	-0.0019184698
135	0xbcdbc32d	-0.026826466
136	0x3bfb5c28	0.007670898
137	0x3c154a9d	0.0091120275
138	0x3c89290e	0.01674321
139	0xbd401629	-0.046896134
140	0x3c810189	0.015747802
141	0x3d691db5	0.056913096
142	0x3c85ac9f	0.016317664
143	0xbbd07bda	-0.0063624205
144	0x3d541a45	0.051782865
145	0x3d2a5afa	0.04159067
146	0x3c350aa4	0.0110499
147	0x3d16faeb	0.036860388
148	0x3c4e5929	0.0125945
149	0xbcc9cc10	-0.024633437
150	0xbc911318	-0.0177093
151	0x3c77591c	0.015096929
152	0xbd29adb0	-0.041425407
153	0xbca27b55	-0.0198342
154	0xbc80cc3d	-0.015722388
155	0xbd616104	-0.055024162
156	0x3d05da38	0.032678813
157	0x3d1e905b	0.038711887
158	0xbd0c26cb	-0.034216683
159	0x3d15f201	0.036607746
160	0xbd173a6c	-0.03692095
161	0x3c4b8666	0.01242218
162	0xbd111334	-0.035418704
163	0x3cfc99cd	0.030835057
164	0x3c868680	0.016421556
165	0x3d44cefc	0.04804896
166	0x3d23e944	0.04001738
167	0x3d141f7b	0.036162835
168	0x3cbcf315	0.02306513
169	0xbcc7ecd5	-0.024404923
170	0x3b48cd21	0.0030639844
171	0x3b965120	0.0045873076
172	0x3cf10d76	0.029425364
173	0x3d649996	0.055810533
174	0xbcba49fa	-0.022740353
175	0xbc9db0fa	-0.019249428
176	0x3d570c34	0.052501872
177	0x3ce1430f	0.027497796
178	0xba993fab	-0.0011691948
179	0x3c91b7a5	0.017787764
180	0xbd4d85ea	-0.05017654
181	0xbd28ad5e	-0.04118096
182	0xbd1357c8	-0.035972387
183	0x3d5c03ef	0.05371469
184	0x3d27d796	0.040977083
185	0xbc2320f9	-0.009956592
186	0xbcf74c7e	-0.030187842
187	0x3caab67c	0.020838968
188	0xbcd859f6	-0.026410084
189	0x3cfd9b65	0.030957887
190	0x3be85d39	0.007091191
191	0x3c2b18fd	0.010442969
192	0x3d06d750	0.03292018
193	0x3d529a34	0.05141659
194	0xbca98a9b	-0.020695975
195	0xbc1370a6	-0.008999025
196	0x3c5698a2	0.013097914
197	0xbcfb70cb	-0.030693432
198	0xbbb5fc1a	-0.0055537345
199	0x3d050f75	0.032485444
200	0x3cefe8d8	0.029285833
201	0x3c3d554d	0.011555982
202	0xbc6d1ee4	-0.014472697
203	0x3c92e0d2	0.017929468
204	0xbd2e254d	-0.04251604
205	0xbbabcae4	-0.0052426923
206	0xbd3edf8c	-0.04659991
207	0x3d23815e	0.039918296
208	0x3c60d081	0.013721586
209	0x3c360b62	0.011111112
210	0xbc267778	-0.0101603195
211	0x3d273219	0.04081926
212	0xbd04e8dc	-0.032448635
213	0xbd1f9672	-0.038961835
214	0x3c6528c9	0.013986775
215	0xbca2be12	-0.019866023
216	0x3d21c2e5	0.039492507
217	0x3d1e9f04	0.038725868
218	0x3d1f72de	0.038927905
219	0xbd22dde1	-0.03976238
220	0x3d2d41f5	0.04229923
221	0xbc0597ad	-0.008153838
222	0x3d253fd9	0.040344093
223	0xbc963332	-0.018334959

sequential/dense_1/MatMul f4 [64, 32]
0	0x3d5099be	0.05092787
1	0xbcc73c56	-0.024320763
2	0x3ab1ad71	0.0013555718
3	0x3cfc7738	0.030818567
4	0x3b364e8a	0.002781781
5	0x3ba8ddeb	0.005153408
6	0xbc3d2e56	-0.011546692
7	0x3bdc6943	0.0067264154
8	0x3d0915a0	0.03346789
9	0xbcb5f7d0	-0.022212893
10	0x3b925953	0.0044662147
11	0xbb7b190e	-0.0038314494
12	0xbcb6e391	-0.022325309
13	0x3cb2b8b6	0.021816593
14	0xbc528a2a	-0.012850324
15	0xbcdfec8c	-0.027334474
16	0xbcdc913a	-0.026924718
17	0x3d164597	0.03668746
18	0x3ce1fa05	0.027585039
19	0x3ce373e5	0.027765224
20	0x3d2252bf	0.039629694
21	0xbd52fb25	-0.05150904
22	0xbc91a80d	-0.017780328
23	0xbd5c36b0	-0.05376309
24	0xbd14c092	-0.03631646
25	0x3c299ca5	0.010352288
26	0x3cf3490f	0.029697923
27	0xbcd4b6e1	-0.02596611
28	0xbd68d3c0	-0.056842566
29	0x3c1e9b6c	0.00968061
30	0x3d1d8376	0.03845545
31	0x3a59d262	0.00083092425
32	0x3c4b817c	0.012421008
33	0x3cd72c6b	0.026266297
34	0x3c042ec6	0.008067792
35	0xbd4ba231	-0.049715225
36	0x3c723833	0.014783907
37	0xbcf7d7d8	-0.03025429
38	0xb8a1cc88	-7.715175e-05
39	0x3a91dffc	0.0011129375
40	0x3d012a9a	0.03153477
41	0xbc6c1c5b	-0.014411057
42	0xbbb70d6b	-0.0055863163
43	0xbbb625a8	-0.005558688
44	0xbca8f120	-0.02062279
45	0x3c02c769	0.007982113
46	0x3d27b3be	0.0409429
47	0x3d6448d2	0.05573351
48	0x3c6b6a57	0.014368615
49	0xbadbb51e	-0.0016762351
50	0x3c73dd23	0.014884266
51	0xbcb2e2e8	-0.021836713
52	0x3bfbcc60	0.0076842755
53	0x3c677ada	0.014128411
54	0xbbd4331b	-0.006475819
55	0x3cc615ae	0.02418026
56	0xbd04ad22	-0.032391675
57	0xbbf3d171	-0.007440739
58	0x3d6dcad0	0.058054745
59	0xbcd0d4d0	-0.025492102
60	0x3d0ac204	0.033876434
61	0xbcc80c02	-0.024419788
62	0xbcb9e24d	-0.022690916
63	0xbcfad19d	-0.03061753
64	0xbc85d9f2	-0.016339276
65	0x3d3bb5e9	0.04582778
66	0x3d70e5de	0.05881297
67	0x3c80dd65	0.01573057
68	0x3c994a8c	0.018712305
69	0x3c7ee074	0.0155564435
70	0xbd37b7b1	-0.044852916
71	0xbd36bac3	-0.044611704
72	0x3c62e3dc	0.013848271
73	0x3b6035ec	0.0034211827
74	0xbd0c1924	-0.034203663
75	0xbc8b956b	-0.017039021
76	0xbcc6667b	-0.024218788
77	0x3d62e6c1	0.055395845
78	0x3d270da9	0.04078451
79	0xbb89cc72	-0.00420528
80	0xbc60ca3d	-0.013720092
81	0xbd11ecc1	-0.035626177
82	0x3d287d32	0.04113502
83	0x3d12c349	0.03583077
84	0x3d57515e	0.052567832
85	0xbccbaed4	-0.024863638
86	0x3d30af2d	0.04313581
87	0xbc165c80	-0.009177327
88	0x3bc327d4	0.0059556756
89	0x3d354d3d	0.044263113
90	0x3d697657	0.056997623
91	0xb9b08150	-0.0003366568
92	0x3d2ad97a	0.041711308
93	0xbd2f26f6	-0.042761765
94	0xbd377f60	-0.04479921
95	0x3c32a277	0.010902992
96	0x3d6d937b	0.058001976
97	0xbc73c078	-0.014877431
98	0xbc8d4ec6	-0.017249476
99	0x3cdfe172	0.02732918
100	0x3d0442c6	0.032290243
101	0x3d11a849	0.03556088
102	0x3c98a36b	0.018632611
103	0xbc9467e7	-0.01811595
104	0xbd114435	-0.035465438
105	0x3d138e04	0.03602411
106	0xbbeb3dd0	-0.0071789995
107	0xbc144771	-0.009050236
108	0x3baa39d9	0.0051948843
109	0x3ca48fab	0.020088037
110	0xbc399f89	-0.01132954
111	0x3bdcc66e	0.006737522
112	0x3d669a68	0.056299597
113	0xbd1c2b3a	-0.03812716
114	0x3cda0209	0.026612299
115	0xbbcbd788	-0.0062207617
116	0xba9b2900	-0.001183778
117	0x3cccf545	0.025019297
118	0x3a9cf4b4	0.0011974783
119	0x3d1b7ed3	0.037962746
120	0x3b7e93b2	0.0038845357
121	0x3d6ca993	0.057778906
122	0x3c9d3e73	0.019194817
123	0x3c76aaa3	0.015055331
124	0x3b173106	0.0023069992
125	0xbd05aedf	-0.032637473
126	0x3cacdf6f	0.021102635
127	0xbd0383e8	-0.032108217
128	0x3d4f3cb6	0.050595008
129	0xba7db362	-0.0009677914
130	0xbcc5ac52	-0.02413002
131	0x3cd06539	0.025438892
132	0xbcc82c9b	-0.024435332
133	0x3b06c84c	0.0020566164
134	0x3d15f45f	0.036610004
135	0x3d079cde	0.033108585
136	0xbd07a185	-0.03311302
137	0xbcc1401e	-0.023590144
138	0x3d5cd4f2	0.053914018
139	0x3cb77339	0.02239381
140	0x3c8cdb59	0.017194437
141	0x3ba16ca7	0.0049262824
142	0xbcf24736	-0.029574972
143	0x3c21855f	0.009858458
144	0x3cac853d	0.021059627
145	0x3ca2708a	0.019829053
146	0x3d05ad5c	0.03263603
147	0xbd0f956d	-0.035054613
148	0x3d4ee0e0	0.050507426
149	0xbc9a0aee	-0.01880404
150	0xbc772fde	-0.015087096
151	0xbd024e5d	-0.031813014
152	0xbcec4353	-0.028840696
153	0xbd2b2331	-0.041781608
154	0x3d22c402	0.03973771
155	0xbc225f7a	-0.009910459
156	0xbd17fb16	-0.03710469
157	0x3cdd6c8f	0.027029304
158	0xbc92971c	-0.01789432
159	0x3d2bb699	0.041922186
160	0x3c4706d0	0.01214762
161	0x3c5d1c4e	0.013495518
162	0x3d2ada98	0.041712373
163	0xbc977571	-0.018488618
164	0x3d0ccf28	0.034377247
165	0x3a80ba28	0.0009821104
166	0x3bf032df	0.007330283
167	0x3d34682f	0.04404467
168	0xbd50a67c	-0.050940022
169	0x3d0765dd	0.03305613
170	0x3cd6e083	0.026230102
171	0x3ba5bc24	0.0050578285
172	0x3cedc29c	0.029023461
173	0x3d6f903f	0.058487173
174	0x3cb82a67	0.022481157
175	0xbd061c15	-0.032741625
176	0x3c65ec60	0.014033407
177	0xbd0b1256	-0.033953033
178	0xbce7f148	-0.028313294
179	0xbb8ce4e4	-0.004299747
180	0x3ce28d3e	0.02765524
181	0xbd31c6e0	-0.043402553
182	0x3bd92cbe	0.006627648
183	0x3d51126d	0.051042963
184	0x3d1f5477	0.03889891
185	0xbcf9812e	-0.030457105
186	0x3b9d50bd	0.0048008845
187	0x3cc6f1ba	0.024285186
188	0x3ca427a5	0.020038435
189	0x3d4878d3	0.048943352
190	0x3d04ddcd	0.03243809
191	0xbc8619d4	-0.016369738
192	0x3d4b8d48	0.049695283
193	0x3d51b7ad	0.051200558
194	0xbd146a39	-0.036234114
195	0xbced772e	-0.028987493
196	0x3d2960f8	0.041352242
197	0x3d630e06	0.055433296
198	0xbcd8ff11	-0.026488813
199	0xbcb98a75	-0.02264903
200	0xbcc3b33d	-0.023889178
201	0xbcba309c	-0.022728257
202	0xbcd0d768	-0.025493339
203	0x3d59f51d	0.053212274
204	0xbb17b8f4	-0.0023151012
205	0x3c01b22a	0.007916013
206	0x3cac525e	0.02103537
207	0x3c3df8ba	0.011594946
208	0xbbb01c3e	-0.0053744605
209	0xbccef483	-0.025263077
210	0x3d4c767a	0.049917676
211	0x3c2d9bab	0.010596196
212	0xbcdbe45b	-0.026842287
213	0xbcc2ae09	-0.023764627
214	0x3bd58d0a	0.0065170573
215	0xbc943c05	-0.018095026
216	0x3d701ebd	0.058623064
217	0x3c2add1d	0.010428694
218	0x3c98b1b4	0.018639423
219	0xbc27be2c	-0.010238212
220	0x3d06eacc	0.032938763
221	0x3d4021b4	0.04690714
222	0x3c5f0e89	0.013614305
223	0x3d037fbb	0.032104235
224	0xbd03241f	-0.03201687
225	0x3d55ed53	0.052228283
226	0x3ccdc780	0.025119543
227	0xbcaf2a21	-0.021382393
228	0x3cc90896	0.024540227
229	0x3afd2b10	0.0019315202
230	0xbca1e494	-0.019762315
231	0x3cd84b74	0.026403166
232	0x3d3ce7fc	0.046119675
233	0x3d6444b1	0.05572957
234	0xbd0141c1	-0.03155685
235	0x3d221e9e	0.03957998
236	0xbd10334c	-0.03520517
237	0x3ccfc30f	0.025361566
238	0x3d477565	0.04869594
239	0x3cf437b5	0.02981172
240	0x3d200822	0.039070256
241	0xbce88524	-0.028383799
242	0x3be1a21f	0.0068857814
243	0x3cd622ef	0.026139705
244	0x3d412d6c	0.04716246
245	0xbc94f9b0	-0.018185467
246	0xbd115fae	-0.035491638
247	0xbd143e2a	-0.036192097
248	0xbc2e9243	-0.010654989
249	0x3d628d00	0.05531025
250	0xbcdc3f4b	-0.02688565
251	0x3d22e4eb	0.039769094
252	0x3d109e05	0.03530695
253	0xbcb3eabd	-0.021962518
254	0xbd2fc6d5	-0.04291423
255	0x3c0e7789	0.008695492

sequential/dense_2/MatMul f4 [101, 64]
0	0xbd02a7bb	-0.03189824
1	0x3cb27efa	0.021789063
2	0xbc872d56	-0.01650111
3	0x3c7d57e7	0.015462852
4	0x3b0b121f	0.0021220518
5	0x3ad43c1e	0.0016192233
6	0xbb981820	-0.004641548
7	0xbd0f0ce4	-0.034924403
8	0x3cc0728c	0.02349212
9	0xbd507b8c	-0.050899073
10	0x3bf59e61	0.007495687
11	0x3beb9dfa	0.007190463
12	0x3b1faa5c	0.0024363017
13	0xbcf2f916	-0.029659789
14	0x3bf6686a	0.0075197713
15	0x3c4b3ff2	0.0124053825
16	0xbd45837a	-0.04822109
17	0x3c9d68bf	0.019214986
18	0x3d18a192	0.03726346
19	0xbcc02f20	-0.023459971
20	0xbd21b99f	-0.039483663
21	0x3c5a2482	0.013314368
22	0xbd472595	-0.048619825
23	0x3cae2d0d	0.021261716
24	0xbc4212ea	-0.01184533
25	0xbd5b091f	-0.053475495
26	0x3cbc71dc	0.023003511
27	0xbc1eccfd	-0.009692428
28	0xbcfdc6fc	-0.030978672
29	0xbc4b8ced	-0.012423736
30	0xbd6d39df	-0.05791652
31	0xbcb6662e	-0.02226552
32	0xbd06ac13	-0.032878947
33	0x3cd910d7	0.026497288
34	0x3cf5777c	0.029964201
35	0xbbd4bbf1	-0.006492131
36	0xbd049014	-0.032363966
37	0x3cf0e833	0.029407596
38	0x3cfc8ad4	0.030827917
39	0x3cc44d43	0.023962623
40	0x3cea3669	0.028590398
41	0x3d2c2535	0.04202767
42	0xbba228bf	-0.004948705
43	0xbd4588fb	-0.048226338
44	0x3cd5f364	0.026117034
45	0xbd25ae0e	-0.040449195
46	0xbc5a7877	-0.013334385
47	0x3d084bfd	0.033275593
48	0x3beb63ca	0.0071835266
49	0xbced047f	-0.028932808
50	0xbd34132f	-0.043963607
51	0x3bf89983	0.0075866594
52	0x3ca64dd3	0.020300781
53	0x3d0b9497	0.034077253
54	0xba7c2060	-0.00096178614
55	0xbd1d2157	-0.038361873
56	0xbc81f67d	-0.015864605
57	0xbaf6a377	-0.0018817027
58	0x3c7e3d7e	0.015517591
59	0xbd67b744	-0.05657126
60	0xbd3d3f74	-0.04620309
61	0x3aabde87	0.0013112583
62	0xbc8a969f	-0.016917525
63	0x3c3d5cb5	0.011557748
64	0xbd2ba150	-0.041901886
65	0xbd12dc52	-0.035854645
66	0xbd0e8ebc	-0.03480409
67	0xbc8a4a99	-0.016881274
68	0xbd26be6e	-0.04070895
69	0x3d0f7d7c	0.03503178
70	0xbca51703	-0.020152574
71	0xbcd5a4ec	-0.026079617
72	0xbcb6b892	-0.022304807
73	0x3c5f09e7	0.013613201
74	0x3ca39410	0.019968063
75	0xbd41891f	-0.04724991
76	0x3cef0c13	0.029180562
77	0xbb6aad0e	-0.0035808715
78	0xb79a1f80	-1.8372899e-05
79	0xbcd40b52	-0.025884304
80	0xbc0ea9d9	-0.008707487
81	0xbd299ba3	-0.041408192
82	0x3cbb6d23	0.022879189
83	0x3c92b555	0.017908731
84	0x3cb412eb	0.021981677
85	0x3ce2d67e	0.027690168
86	0xbd45f724	-0.048331395
87	0x3b416f5b	0.0029515836
88	0x3d0cfe5b	0.03442226
89	0x3ce1aaa0	0.02754718
90	0x37d6a21e	2.558628e-05
91	0xbc6d410c	-0.01448084
92	0x3d18d7d1	0.037315194
93	0xbccf1a0e	-0.025280979
94	0x3cca899f	0.024723826
95	0xbc2c1212	-0.010502355
96	0x3cbb834f	0.022889761
97	0xbd5f5fd4	-0.05453475
98	0xbc82ca54	-0.015965618
99	0x3c480233	0.012207556
100	0x3a7dd9ac	0.000968362
101	0x3d0d0e00	0.03443718
102	0xbd48a74e	-0.04898768
103	0xbb449bb2	-0.0030000028
104	0xbbeb5890	-0.0071821883
105	0xbb1720ee	-0.00230604
106	0xbbfbb174	-0.007681066
107	0xbcf4e96e	-0.029896464
108	0xbc46c3f3	-0.012131679
109	0xbc17fad5	-0.009276112
110	0xbca13109	-0.019676702
111	0x3cf3b465	0.029749105
112	0x3b4d10cc	0.003129053
113	0x3cfee0f0	0.031113118
114	0xbd59ae75	-0.05314489
115	0xbc9ae1cf	-0.018906502
116	0xbd30e7e2	-0.04318989
117	0xbc5b9ee4	-0.013404582
118	0xbd710525	-0.058842797
119	0xbd309ab7	-0.043116298
120	0xbb0576e6	-0.0020365058
121	0xbd64b95c	-0.055840835
122	0x3ca751a7	0.020424677
123	0xbcf8b91a	-0.0303617
124	0xbc9dbab5	-0.019254068
125	0xbd3655b8	-0.04451534
126	0xbce2c2fc	-0.027680866
127	0xbd317c89	-0.043331657
128	0xb92b6190	-0.00016344176
129	0x3ab473cb	0.0013767419
130	0xbc5f16ee	-0.013616307
131	0xbc8e94f1	-0.017405005
132	0x3d25463a	0.040350176
133	0xbd31c97a	-0.043405034
134	0xbbc546fc	-0.006020425
135	0xbd6724a0	-0.056431413
136	0x3c1e890a	0.009676227
137	0x3c901bb0	0.017591327
138	0x3cc79ee5	0.024367759
139	0x3bdb43b5	0.006691421
140	0x3c712a98	0.014719628
141	0xbca6c343	-0.02035678
142	0x3c0096e6	0.007848477
143	0xbd568cd9	-0.052380417
144	0xbc67f134	-0.014156628
145	0xbcdeaa78	-0.027180895
146	0x3cb5c365	0.022187898
147	0xbd4e0dcc	-0.050306126
148	0x3d1d78b9	0.03844521
149	0xbcf9c7b7	-0.03049074
150	0xbcd60b06	-0.026128303
151	0x3ccb5305	0.02481986
152	0x3d1b9933	0.0379879
153	0xbd1cd03b	-0.03828452
154	0x3d30c66f	0.04315799
155	0xbd02112c	-0.031754658
156	0x3c50d95a	0.012747133
157	0x3c813215	0.015770951
158	0xbc5f7a83	-0.013640049
159	0xbd4f258a	-0.05057291
160	0xbd067d60	-0.03283441
161	0xbc85b470	-0.01632139
162	0x3cda0629	0.026614266
163	0x3c3096d0	0.010778144
164	0x3c9a8ccc	0.018865965
165	0xbd4b662c	-0.049657986
166	0xbce202bb	-0.027589193
167	0xbcf361cc	-0.02970972
168	0x3ccbf77f	0.024898289
169	0xbb796034	-0.0038051726
170	0x3c8fae46	0.017539155
171	0xbce8f989	-0.0284393
172	0xbc8a8ba3	-0.016912287
173	0xbb67dab2	-0.0035378155
174	0xbcc68c1f	-0.024236737
175	0xbd535998	-0.051599115
176	0xbbcc321e	-0.0062315604
177	0xbd385d19	-0.04501066
178	0x3d04805b	0.03234897
179	0xbd5655f8	-0.05232808
180	0x39a0c718	0.00030665915
181	0xbd386a59	-0.045023296
182	0x3c39b215	0.011333962
183	0x3ae1dc11	0.0017231723
184	0xbc4ccb7d	-0.012499687
185	0xba28b81c	-0.0006436126
186	0xbd285ebe	-0.04110598
187	0xbce4d5ca	-0.027933974
188	0xbd022f0f	-0.03178316
189	0xbb5c2e48	-0.0033596922
190	0xbd4bc429	-0.04974762
191	0xbc8844e6	-0.016634416
192	0xbc4a46ae	-0.012345953
193	0x3cde7be5	0.027158687
194	0xbbe76a59	-0.007062238
195	0x3c610fe3	0.013736698
196	0xbd507cc4	-0.050900236
197	0x3bbf40d0	0.0058365837
198	0xbb8cd028	-0.004297275
199	0xbd14b2da	-0.03630338
200	0x3cad417d	0.021149391
201	0xbd39e414	-0.045383528
202	0xbd0cb490	-0.034351885
203	0xbd02b005	-0.031906147
204	0xbcd1227b	-0.025529137
205	0xbd6dd165	-0.058061022
206	0x3cf991ed	0.03046509
207	0xbcaaef3a	-0.020866025
208	0xbccae7eb	-0.02476879
209	0x3cb969f5	0.022633532
210	0x3c7a4164	0.015274379
211	0xbbfcf153	-0.007719198
212	0x3c8bdfab	0.017074427
213	0xbcb3680a	-0.021900196
214	0xbd45f572	-0.048329778
215	0x3cd832f4	0.026391484
216	0xbcbc3dc8	-0.022978678
217	0x3d03d782	0.032187946
218	0xbd1ae395	-0.037814695
219	0xbd52c6e5	-0.05145921
220	0x3d18e7f5	0.037330586
221	0xbc25c51f	-0.010117798
222	0x3aa31ceb	0.0012444531
223	0xbc123dc3	-0.008925858
224	0xbc6c086b	-0.014406304
225	0x3c8840e4	0.016632505
226	0x3cd49059	0.025947737
227	0x3d0c63c4	0.03427483
228	0xbd18b916	-0.037285887
229	0xbbc48097	-0.0059967744
230	0x3c7fffbd	0.015624938
231	0xbc5b22d4	-0.013375003
232	0xbd4c5ce9	-0.049893294
233	0xbce5fa0c	-0.028073333
234	0x3c162d2c	0.009166043
235	0xbc025ee5	-0.007957195
236	0x3d0b563e	0.034017794
237	0xbccb891e	-0.024845656
238	0x3d20e042	0.03927637
239	0xbd219bf4	-0.03945537
240	0xbc44f0f7	-0.012020341
241	0x3d05d991	0.03267819
242	0xbd0f989e	-0.035057656
243	0x3c5f3722	0.0136239845
244	0xbcd097f4	-0.025463082
245	0x3d14a0b1	0.03628606
246	0xbc69e10c	-0.014274847
247	0xbd504dd0	-0.050855458
248	0x3c3c9322	0.011509689
249	0x3d011326	0.031512402
250	0x3d00c079	0.031433556
251	0x3b94e57c	0.004543958
252	0xbccf3a39	-0.025296317
253	0xbbcfe6df	-0.0063446607
254	0xbd6bd835	-0.057579238
255	0xbd1a73ca	-0.03770808
