app/src/main/assets/model_yellow-all.tflite (tflite, 105488 bytes, 14 tensors)

sequential/dense_4/MatMul;sequential/dense_4/BiasAdd f4 [91]
0	0xbf38beda	-0.72166216
1	0xbe8b10ae	-0.27161163
2	0xbe8a7c26	-0.27047843
3	0xbe8cbeca	-0.2748931
4	0xbe17951d	-0.14802976
5	0xbe426df3	-0.18987255
6	0x3e4d2fc9	0.2003776
7	0xbe86bb09	-0.26314571
8	0xbd27e60a	-0.040990867
9	0x3e414922	0.18875554
10	0xbe8abaeb	-0.27095732
11	0xbe8b49bc	-0.27204692
12	0xbe8aaad2	-0.2708345
13	0xbe8bcb42	-0.2730351
14	0xbe8c1f5d	-0.27367678
15	0xbf889ebb	-1.0673441
16	0xbdea3d21	-0.11437441
17	0xbe8ae70c	-0.271294
18	0xbec8b0a3	-0.39197263
19	0x3f6cce40	0.9250221
20	0x3dbf3250	0.09335768
21	0x3e7db551	0.24776198
22	0xbe8c1e7f	-0.27367017
23	0x3f5afd97	0.855432
24	0x3f554f89	0.83324486
25	0x3f69c369	0.913138
26	0x3f23b157	0.63942474
27	0xbe880ae1	-0.265708
28	0x3f09667a	0.5367199
29	0xbe411229	-0.18854584
30	0xbe8d2eb6	-0.275747
31	0x3e27a159	0.16370143
32	0xbe887b86	-0.2665674
33	0xbe8caf14	-0.27477324
34	0x3e86b42d	0.26309338
35	0xbe6da782	-0.2320843
36	0x3f6b8d03	0.9201204
37	0xbe89cc48	-0.26913667
38	0x3f0b0241	0.54300314
39	0xbebd8cd7	-0.37021515
40	0x3c61f3b4	0.0137910135
41	0x3f50b701	0.8152924
42	0xbe8a8676	-0.2705571
43	0xbe87aa90	-0.26497316
44	0xbe86062f	-0.26176593
45	0xbee3a0b9	-0.4445856
46	0xbe8c14eb	-0.2735971
47	0xbe8a4e54	-0.27012885
48	0xbdb6fda5	-0.089350976
49	0xbe8c7c1e	-0.27438444
50	0xbe8a16f3	-0.26970634
51	0xbe8b818f	-0.27247283
52	0xbe8a0006	-0.26953143
53	0xbe8b6ede	-0.27233022
54	0x3ed37642	0.4130116
55	0xbe8c7d31	-0.27439263
56	0xbe8ad3cd	-0.27114716
57	0xbe86208d	-0.2619671
58	0xbe8b491e	-0.2720422
59	0xbe8c55fd	-0.27409354
60	0xbe8b9bb1	-0.2726722
61	0xbe8b1062	-0.27160937
62	0xbe8ade1c	-0.2712258
63	0xbe89f3c1	-0.26943782
64	0xbe8a6ebe	-0.27037615
65	0xbe8c0428	-0.2734692
66	0xbe8bac18	-0.27279735
67	0xbe8cface	-0.275351
68	0xbe8a47c4	-0.27007878
69	0xbe8b3af3	-0.27193412
70	0xbe8bd26c	-0.27308977
71	0xbe89e7ed	-0.26934758
72	0xbe89ea9b	-0.26936802
73	0xbe8c5210	-0.2740636
74	0xbe8a7d89	-0.270489
75	0xbe8aea59	-0.27131918
76	0xbe8af021	-0.2713633
77	0xbe8a11e2	-0.26966769
78	0xbe89a67b	-0.26884827
79	0xbe8a9fdf	-0.27075097
80	0xbe8c19c7	-0.27363417
81	0xbe8953c9	-0.26821736
82	0xbe8b0c43	-0.27157792
83	0xbe8a51a7	-0.2701542
84	0xbe8b3a22	-0.2719279
85	0xbe8ccdd1	-0.27500775
86	0xbe8a87f5	-0.27056852
87	0xbe8bd86c	-0.27313554
88	0xbe88ecdf	-0.26743218
89	0xbe8a4bae	-0.27010864
90	0xbe8a877e	-0.27056497

sequential/batch_normalization_3/batchnorm/add_1 f4 [64]
0	0x3d862623	0.06550243
1	0xbee41b21	-0.44551948
2	0x3f71d4d9	0.94465405
3	0x3ea1dd20	0.31614017
4	0xbe8f0f20	-0.27941227
5	0x3ea85602	0.3287812
6	0x3f608d4f	0.8771562
7	0x3f0f987b	0.5609204
8	0xbfc24faa	-1.5180562
9	0xbea7988d	-0.32733575
10	0xbc13eabc	-0.009028133
11	0xbfd8f6e8	-1.695035
12	0x3ee5bdfa	0.44871503
13	0x3e2a48d8	0.1662935
14	0xbd72716e	-0.059190206
15	0x3f520430	0.8203764
16	0xbfb1e7b6	-1.3898838
17	0xbff58ed2	-1.918421
18	0x3f933caa	1.1502888
19	0x3f7d6f10	0.9899759
20	0xbf41e4c2	-0.7573968
21	0xbf5405c5	-0.82821304
22	0x3ef3d64f	0.47624442
23	0xbeacfcc4	-0.33786595
24	0xbed051cf	-0.40687415
25	0xbeb70756	-0.35747784
26	0x3e1fc753	0.1560338
27	0xbf390f57	-0.7228903
28	0xbfeadd6d	-1.8348824
29	0x3f8c6f73	1.0971512
30	0xbfd5724f	-1.6675509
31	0xbf2e368f	-0.68052
32	0xc05c7e94	-3.4452257
33	0x3daa2b7d	0.08309076
34	0xbe8c0786	-0.2734949
35	0x3f175035	0.5910676
36	0xbece6de2	-0.4031821
37	0xbea2c829	-0.31793335
38	0xbf4aeaaf	-0.7926435
39	0x3e35d830	0.1775825
40	0xbf50ab13	-0.8151104
41	0x3f038c4f	0.5138597
42	0xbf4f47d3	-0.8096897
43	0x3fb32796	1.3996456
44	0x3dd4afbf	0.103850834
45	0xbddd83c6	-0.108161494
46	0xbd5499a2	-0.05190433
47	0x3e180fe8	0.14849818
48	0x3debbbf3	0.11510458
49	0xbfe8de07	-1.8192757
50	0x3dc43a4a	0.0958143
51	0x3ea055b0	0.31315374
52	0xbcd5d40a	-0.026102085
53	0xbf353a05	-0.70791656
54	0xbf4479cb	-0.7674834
55	0x3e8481b9	0.2588022
56	0x3f5a3bb6	0.8524736
57	0x3e438752	0.1909459
58	0xbdfe9966	-0.12431602
59	0x3f060193	0.5234615
60	0xc00b11b1	-2.1729548
61	0x3e39431f	0.18092011
62	0x3e1872d9	0.14887561
63	0x3ef4be5e	0.4780149

sequential/batch_normalization_3/batchnorm/mul_1 f4 [64, 48]
0	0x3ec08007	0.37597677
1	0x3eb74401	0.3579407
2	0xbe51e3fc	-0.20497125
3	0xbcdf7bb9	-0.027280675
4	0x3ea70110	0.32617998
5	0x3e849c82	0.25900656
6	0xbd96f65e	-0.073712096
7	0x3d89936d	0.06717572
8	0x3f0e6109	0.55616814
9	0x3b723483	0.003695757
10	0xbea629fd	-0.3245391
11	0xbde0e605	-0.10981373
12	0x3eb7db71	0.35909608
13	0xbe6131dd	-0.21991678
14	0xbef0da98	-0.47041774
15	0xbe86f892	-0.2636152
16	0xbe19e07a	-0.15027037
17	0x3ef4897d	0.47761145
18	0xbeb48276	-0.35255784
19	0xbee4165d	-0.44548312
20	0x3e9cedfc	0.30650318
21	0xbd591c09	-0.053005252
22	0x3e31e375	0.17371924
23	0xbe5cf69a	-0.21578446
24	0x3d89a459	0.067208
25	0xbeada041	-0.33911327
26	0xbe6dda8d	-0.23227902
27	0x3d79f547	0.06102493
28	0x3efc1d2c	0.49241006
29	0xbe6a9e93	-0.22912054
30	0xbe78eaf3	-0.24308376
31	0x3dcd6407	0.10028844
32	0xbe7576fe	-0.23971173
33	0xbe4bf07e	-0.19915959
34	0x3e0c73df	0.13716076
35	0xbeb7c16f	-0.35889766
36	0xbe978ed6	-0.29601163
37	0x3eae3130	0.34021902
38	0x3e91c820	0.28472996
39	0x3e83f2fa	0.25771314
40	0xbe83dc3a	-0.25753957
41	0xbeacd799	-0.33758238
42	0x3e86a057	0.26294205
43	0xbe0627bc	-0.13101095
44	0x3e36569f	0.17806481
45	0x3d0ac49c	0.033878908
46	0xbd87bee6	-0.06628208
47	0xbe394da9	-0.18096031
48	0xbeb82045	-0.3596212
49	0xbec2ca0e	-0.3804478
50	0x3e65d1af	0.22443269
51	0x3e3edc39	0.18638696
52	0x3e01a09a	0.12658921
53	0x3cfa0c32	0.030523393
54	0xbeafee27	-0.34361383
55	0x3e50a9ab	0.20377223
56	0xbe3524b9	-0.1768979
57	0xbe2f8294	-0.17139655
58	0xb9af15ec	-0.00033394934
59	0xbf84d8a1	-1.037861
60	0xbeceb78a	-0.40374404
61	0xbda2fd5a	-0.07958479
62	0x3e2f2c07	0.17106639
63	0xbb993e4b	-0.0046766154
64	0xbe13d5d2	-0.14437035
65	0xbd45f4dc	-0.04832922
66	0xbe939c68	-0.28830266
67	0x3ea030d5	0.31287256
68	0x3d8b0968	0.067889035
69	0x3e7b644c	0.24549979
70	0x3e221fb2	0.15832403
71	0x3d7e3ca1	0.06206954
72	0x3f09934c	0.5374038
73	0xbdf04829	-0.117325135
74	0x3d92fcdd	0.07177136
75	0xbfa2122f	-1.2661799
76	0x3f1c8910	0.6114664
77	0xbe5a79c5	-0.21335514
78	0xbe94d2a4	-0.29066956
79	0x3b557605	0.0032571566
80	0x3eb92a59	0.3616512
81	0xbe89b3df	-0.26895043
82	0x3f5457b3	0.8294632
83	0xbe009a8b	-0.12558953
84	0xbecb94bd	-0.39761916
85	0xbf1482cc	-0.5801208
86	0x3f906055	1.1279398
87	0x3e396133	0.18103485
88	0xbd81c3a5	-0.06336144
89	0x3f3055f7	0.6888117
90	0xbd593101	-0.05302525
91	0x3ef1d443	0.47232255
92	0x3f3078ad	0.68934137
93	0x3e1a6828	0.15078795
94	0x3ed854bf	0.42252156
95	0x3ee6b1fc	0.45057666
96	0x3e2a793f	0.16647814
97	0xbd4f7b89	-0.05065492
98	0x3f01902a	0.506106
99	0xbe833e39	-0.2563341
100	0xbf3b1357	-0.73076385
101	0x3f51f72d	0.82017785
102	0xbec78fe3	-0.38976964
103	0xbf255773	-0.6458656
104	0x3e84acf8	0.25913215
105	0x3ed33d75	0.41257825
106	0x3ee749f8	0.4517362
107	0x3d5e9aca	0.054346837
108	0xbf1ae773	-0.60509413
109	0xbe330854	-0.17483646
110	0xbecb3c79	-0.39694574
111	0xbe4c3ca1	-0.19945003
112	0x3e04b041	0.1295786
113	0x3ef00041	0.46875194
114	0x3d469204	0.048479095
115	0x3e513bde	0.20432994
116	0xbe939b93	-0.2882963
117	0xbf20bda6	-0.6278938
118	0x3f19b00e	0.60034263
119	0xbd93833f	-0.072027676
120	0x3e8ad480	0.2711525
121	0xbde180f9	-0.11010928
122	0xbefa9b46	-0.4894659
123	0xbf4276dd	-0.7596262
124	0x3de2f462	0.110817686
125	0xbec80c30	-0.39071798
126	0x3f1e3fa2	0.61815846
127	0xbe69a537	-0.2281693
128	0xbf11b322	-0.5691396
129	0xbefc9d25	-0.49338642
130	0xbcffb419	-0.031213807
131	0x3e50d547	0.20393859
132	0xbf0a0d7b	-0.5392682
133	0xbe08a3c1	-0.13343717
134	0x3e93ef77	0.28893635
135	0x3d4f692f	0.05063742
136	0x3ed1693d	0.40900603
137	0x3e6fa67d	0.23403354
138	0x3e3d457e	0.1848354
139	0xbd8139ed	-0.063098766
140	0xbdcf0e46	-0.10110144
141	0xbe65d585	-0.22444732
142	0xbe7e8083	-0.24853711
143	0xbe3cb3bc	-0.18427938
144	0x3ec08bae	0.37606567
145	0x3b9e74db	0.0048357076
146	0xbccb1c19	-0.024793671
147	0x3d1310d1	0.03590471
148	0x3e0e2dc2	0.13884643
149	0xbede1a38	-0.43379378
150	0xbe139cfa	-0.1441535
151	0xbcd2b8d4	-0.025722899
152	0xbe899ec5	-0.26878944
153	0x3e219433	0.1577919
154	0x3e7bbe8d	0.24584408
155	0xbd81996e	-0.063280925
156	0xbdf8e5ca	-0.12153204
157	0x3e4f6ce9	0.2025639
158	0xbe2d3fc7	-0.1691886
159	0xbe0b72d5	-0.13618024
160	0x3cbd5b28	0.023114756
161	0x3dca514e	0.09878789
162	0xbb8b29d7	-0.004246931
163	0xbea3b3b9	-0.31973055
164	0x3d5800bf	0.052735087
165	0xbe064a29	-0.13114227
166	0xbd01b693	-0.031668257
167	0x3f002525	0.5005668
168	0x3dc60937	0.09669726
169	0xbe8b57be	-0.2721538
170	0x3da53982	0.08067609
171	0xbeae4d7c	-0.3404349
172	0x3e55566c	0.20833749
173	0x3d95916e	0.07303129
174	0x3e876bd7	0.26449463
175	0x3c4aac85	0.012370233
176	0x3e0db9f3	0.13840465
177	0x3dbb55c8	0.09147221
178	0xbd418603	-0.047246944
179	0xbdb55e80	-0.08855915
180	0xbe26c8e7	-0.16287576
181	0x3d82bd96	0.06383817
182	0x3d95c668	0.073132336
183	0x3dd3b69c	0.10337564
184	0xbd1451e6	-0.036210917
185	0x3d6719b0	0.056420982
186	0xbe0755f2	-0.1321638
187	0xbe0bd0ec	-0.13653916
188	0x3e0a5dd6	0.13512358
189	0xbe8dd16b	-0.27698836
190	0xbed26f10	-0.4110036
191	0xbd8268bc	-0.06367633
192	0x3eb6ede8	0.35728383
193	0xbd9e8aee	-0.077413425
194	0xbe91af4f	-0.28454062
195	0x3ddabe42	0.1068082
196	0x3cd82396	0.026384156
197	0xbef0c53a	-0.47025472
198	0xbeea9c19	-0.45822218
199	0x3f020baa	0.5079905
200	0x3a999a23	0.001171891
201	0xbe886638	-0.26640487
202	0xbf07a8fa	-0.5299221
203	0xbe149292	-0.14509037
204	0xbe5b296c	-0.2140252
205	0x3edfa351	0.43679288
206	0xbdf7d5b4	-0.121013075
207	0x3f0621f9	0.5239559
208	0x3e43bb13	0.19114332
209	0x3dde6f24	0.10861042
210	0xbec836cc	-0.39104307
211	0xbdc96476	-0.098336145
212	0xbe81c35c	-0.2534436
213	0xbd91c7ec	-0.0711821
214	0x3cd84ef2	0.026404832
215	0x3e170ebb	0.14751713
216	0xbdd42b71	-0.10359848
217	0xbe8163a2	-0.25271326
218	0xbf1590d6	-0.5842413
219	0x3e852282	0.2600289
220	0xbef2802c	-0.47363412
221	0xbe969285	-0.2940866
222	0xbdfdb290	-0.12387574
223	0x3e0d2102	0.13782123
224	0x3ef8983f	0.48553655
225	0xbeaa1c48	-0.33224702
226	0xbe8ff581	-0.28116992
227	0x3c6f64a6	0.014611399
228	0xbe176ccd	-0.14787598
229	0xbea1cd11	-0.31601766
230	0x3f3be53a	0.73396647
231	0x3f3b41ae	0.73147094
232	0xbeb8bdd6	-0.36082333
233	0xbe07e69f	-0.13271569
234	0xbd1cb920	-0.038262486
235	0xbd701fc4	-0.058624044
236	0xbd777e44	-0.06042315
237	0xbe834827	-0.25640985
238	0x3ee9c4ad	0.45657864
239	0xbe828b6d	-0.25496998
240	0x3ec25a91	0.37959722
241	0xbd8f7235	-0.07004205
242	0xbeacaef3	-0.33727226
243	0xbd651f4e	-0.055938058
244	0x3e41c908	0.18924344
245	0xbd025cb6	-0.031826697
246	0xbd917a98	-0.07103461
247	0xbeff6d63	-0.49888143
248	0x3e6e719d	0.23285528
249	0x3aa7e853	0.0012810327
250	0x3e76efa3	0.24114852
251	0x3ee94467	0.4556
252	0xbdf006fc	-0.11720082
253	0x3ef8abfc	0.48568714
254	0xbf016921	-0.5055104
255	0xbeb823a0	-0.3596468

sequential/dense_1/MatMul;sequential/dense_1/BiasAdd f4 [48]
0	0x3d1d11e6	0.038347147
1	0x3de9e6f8	0.11421007
2	0x3dd6d247	0.10489326
3	0x3c877f82	0.016540293
4	0x3d1a9e1a	0.037748434
5	0x3e73652a	0.2376906
6	0x3d3bf06c	0.04588358
7	0x3e99b45b	0.30020413
8	0x3dc3a617	0.095531635
9	0xbdb0d8da	-0.08635111
10	0xbe77513a	-0.24152079
11	0x3cf326b5	0.029681543
12	0x3ce3523c	0.027749173
13	0xbdaafbb1	-0.083487876
14	0x3dacd9e4	0.08439997
15	0x3e379b93	0.1793044
16	0xbc998226	-0.018738817
17	0x3dd2e849	0.10298211
18	0x3e0c9776	0.13729653
19	0x3d757c34	0.059932902
20	0xbd5a7d40	-0.053342104
21	0xbe29c17b	-0.16577713
22	0x3e6123b8	0.21986282
23	0x3df5bf46	0.11999373
24	0xbd80170d	-0.062543966
25	0x3de5204c	0.11187801
26	0x3dc7d7e5	0.097579755
27	0x3e6d02a4	0.23145539
28	0xbe4f7f9f	-0.20263527
29	0xbdde88f0	-0.108659625
30	0xbb9eb009	-0.0048427624
31	0xbd35c58f	-0.04437786
32	0x3e473d94	0.19457084
33	0xbe30a054	-0.1724866
34	0x3e2c21b4	0.16809732
35	0xbdc83463	-0.09775617
36	0xbdae27d6	-0.08503692
37	0xbdb8427a	-0.089970544
38	0xbe47acc3	-0.19499497
39	0xbc0fe99f	-0.008783727
40	0x3a7400bc	0.0009307971
41	0x3df25f0b	0.11834534
42	0x3e8d60b9	0.27612856
43	0xbe187ecd	-0.1489212
44	0x3dae8bce	0.085227594
45	0xbe93131e	-0.28725523
46	0x3d108a55	0.035288174
47	0x3dc4ce2a	0.09609635

sequential/dense/MatMul;sequential/dense/BiasAdd f4 [32]
0	0xc025e9db	-2.5923984
1	0xc01e4625	-2.4730313
2	0x3eacf5bf	0.3378124
3	0x3f58207f	0.84424585
4	0xc18df02a	-17.742268
5	0xc0ca78c7	-6.3272433
6	0xc04d8bec	-3.2116652
7	0x40d96b9e	6.794387
8	0xc09c1d12	-4.8785486
9	0x41212e89	10.073861
10	0x40c6e8f8	6.2159386
11	0xc1a91599	-21.135546
12	0x41132d40	9.198547
13	0x3ff3e622	1.9054606
14	0xc03172e6	-2.7726378
15	0xbd3af5d5	-0.0456446
16	0xc1135a2b	-9.209514
17	0xc0cd257a	-6.410825
18	0xc17b7061	-15.714936
19	0xc13ccf77	-11.800651
20	0xc192d4f1	-18.353975
21	0x4062c5a4	3.543313
22	0xc171ead6	-15.119833
23	0xc113d35a	-9.2390995
24	0x41817015	16.179728
25	0xc002a2a8	-2.0411777
26	0x4107b703	8.482181
27	0xc0fec0ec	-7.96105
28	0xc15b0702	-13.689211
29	0x3fb400a5	1.4062697
30	0xc04fc936	-3.246656
31	0x41221ece	10.132521

sequential/dense_3/BiasAdd/ReadVariableOp/resource f4 [128]
0	0xbd6ae37c	-0.057345852
1	0xbba47095	-0.0050183036
2	0x3d8a9f7c	0.067687005
3	0x3d96713c	0.073458165
4	0x3d8c40b0	0.06848276
5	0x3c344a78	0.011004083
6	0xbcece765	-0.028918931
7	0x3d84a761	0.064772375
8	0xbd970b0d	-0.07375155
9	0xbe0201ff	-0.12696074
10	0xbe1dbdb7	-0.15404402
11	0xbdc6189a	-0.09672661
12	0xbccdbd0b	-0.025114557
13	0x3cd97d96	0.026549142
14	0x3d10ba9c	0.035334215
15	0x3e23e2ed	0.16004534
16	0xbd88a58d	-0.06672201
17	0xbd89ccce	-0.067285165
18	0xbca10ef5	-0.019660452
19	0x3e31f5de	0.17378947
20	0xbbe0e8de	-0.0068636974
21	0x3c8588b3	0.016300535
22	0x3dbe9826	0.09306364
23	0x3b95be2b	0.004569789
24	0xbd84c691	-0.06483186
25	0xbdce1a72	-0.10063638
26	0xbcce3f26	-0.025176596
27	0xbdd81ab9	-0.10551972
28	0x3c0f8b9f	0.008761316
29	0xbd941884	-0.072312385
30	0x3d6fdcbc	0.058560118
31	0xbc8522c9	-0.016251938
32	0xbc9a3dbb	-0.018828264
33	0x3c0c943d	0.008580265
34	0xbd93bd3d	-0.07213829
35	0xbdd36061	-0.10321117
36	0xbd0fc087	-0.035095718
37	0x3d302454	0.043003395
38	0xbd4fc575	-0.05072542
39	0x3def73e7	0.116920285
40	0xbccb1427	-0.024789883
41	0x3d827ec3	0.06371834
42	0x3cd71006	0.026252758
43	0xbd9e5021	-0.07730127
44	0xbd944d96	-0.07241361
45	0x3b5b24e8	0.0033438746
46	0xbd9df95b	-0.077135764
47	0xbd1499de	-0.03627955
48	0x3b829771	0.0039853384
49	0xbd820fc5	-0.06350664
50	0x3d04081b	0.032234292
51	0xbdf3d030	-0.11904943
52	0xbdd381cb	-0.103274904
53	0xbd13bb33	-0.0360672
54	0x3c8490ef	0.016182391
55	0xbd26815a	-0.040650703
56	0xbd2d66fa	-0.042334534
57	0xbd929675	-0.07157604
58	0xbd460bf5	-0.048351247
59	0xbd74c891	-0.059761588
60	0x3d551476	0.052021466
61	0xbe03e772	-0.12881258
62	0xb9ff7e41	-0.00048731457
63	0x3cf009d5	0.029301563
64	0x3e2d5963	0.1692863
65	0xbdc11a77	-0.09428876
66	0x3d9bcf01	0.07607842
67	0xbd02bc5f	-0.031917926
68	0xbcd6b1ce	-0.02620783
69	0xbd0faceb	-0.035077017
70	0xbda66bd9	-0.08126039
71	0x3d160978	0.036630124
72	0xbdb310b6	-0.08743422
73	0xbe3a3c20	-0.18186998
74	0x3cf30092	0.029663358
75	0xbd420f76	-0.047378026
76	0x3da15bb3	0.07878818
77	0xb7909124	-1.7233724e-05
78	0x3c0a7244	0.008450095
79	0xbb8358a7	-0.004008371
80	0xbcb4a25d	-0.022050077
81	0x3dcf400a	0.10119636
82	0x3d883f5f	0.06652712
83	0xbda0457f	-0.07825755
84	0x3d43abc4	0.04777123
85	0x3d437fbd	0.047729243
86	0x3d95cdbe	0.07314633
87	0x3d1a9919	0.03774366
88	0xbd95507d	-0.072907425
89	0x3d45a2e4	0.048251048
90	0xbd6978d3	-0.056999993
91	0xbcd62c96	-0.026144307
92	0xbbc184fc	-0.0059057456
93	0xbcb6ee7c	-0.022330515
94	0x3ca2d90a	0.019878883
95	0x3daa5c33	0.08318367
96	0xbd6b928d	-0.05751281
97	0xbd09ecb3	-0.033673
98	0x3cd871f1	0.026421519
99	0xbc077d26	-0.008269584
100	0x3c53bca0	0.01292339
101	0xbd07198f	-0.03298336
102	0xbdd68438	-0.104744375
103	0xbd96c2d0	-0.07361376
104	0x3cd422ae	0.025895443
105	0x3d93fecb	0.07226332
106	0x3d820afe	0.06349753
107	0xbd6ebfd8	-0.058288425
108	0x3d587260	0.05284345
109	0x3d3f592d	0.046715904
110	0xbc555884	-0.013021592
111	0xbdb68fcc	-0.08914146
112	0xbda184c0	-0.07886648
113	0x3cd6019d	0.026123816
114	0x3c97f646	0.01855005
115	0xbcccf5cc	-0.025019549
116	0x3d890308	0.06690031
117	0x3c8d8a72	0.01727793
118	0x3dba16ea	0.09086402
119	0x3b896c20	0.0041937977
120	0x3d2e0ccf	0.042492684
121	0xbd8d5c4f	-0.06902372
122	0x37cddaf9	2.4539871e-05
123	0x3dca3d6d	0.09874997
124	0xbddaf888	-0.10691935
125	0xbc6288e7	-0.013826585
126	0x3c294653	0.010331708
127	0x3c5cce83	0.013476971

sequential/batch_normalization/batchnorm/mul f4 [8]
0	0x3eabf3d1	0.33584455
1	0x3fcd8882	1.6057284
2	0x3ea86e89	0.32896832
3	0x3e8f5cc1	0.28000453
4	0x3fb77b7f	1.4334563
5	0x3fa196e5	1.2624174
6	0x3fa572da	1.2925675
7	0x3f1d2e6e	0.6139897

sequential/batch_normalization_1/batchnorm/mul f4 [32]
0	0x41a1425b	20.1574
1	0x418a358f	17.276152
2	0x41386967	11.525733
3	0x414c0082	12.750124
4	0x414306ad	12.18913
5	0x41383744	11.513493
6	0x412bbbff	10.7333975
7	0x411e308e	9.886854
8	0x41343dd2	11.265093
9	0x4124613d	10.27374
10	0x41027982	8.154665
11	0x40e1c0e8	7.054798
12	0x413daaa8	11.854164
13	0x41465542	12.395815
14	0x413d5c5b	11.835048
15	0x418e040f	17.751982
16	0x411ec9b9	9.924249
17	0x41276be2	10.463839
18	0x4100e77d	8.056516
19	0x415273c8	13.153267
20	0x40da5d63	6.8238997
21	0x4186c416	16.845745
22	0x41647722	14.279085
23	0x414a605e	12.648527
24	0x412bdaf8	10.740959
25	0x418fdf46	17.98402
26	0x40cfe58b	6.4967704
27	0x41a4aba7	20.583815
28	0x4132c702	11.173586
29	0x40e8eba0	7.278763
30	0x41801afb	16.013174
31	0x4111ecd4	9.120319

sequential/batch_normalization_2/batchnorm/mul f4 [48]
0	0x40f608a9	7.688557
1	0x41034f3e	8.206846
2	0x40c36d66	6.1071043
3	0x41195906	9.584234
4	0x41162cad	9.385907
5	0x4126dd0a	10.428965
6	0x40fb075c	7.8446484
7	0x40b287c7	5.5790744
8	0x4101150c	8.067638
9	0x41122eaf	9.136397
10	0x40f4ba53	7.6477447
11	0x40fbacc6	7.8648405
12	0x410ddc57	8.866294
13	0x40b4a2a5	5.644854
14	0x414c5fd2	12.773394
15	0x40c1fe30	6.0622787
16	0x40fa352b	7.81899
17	0x412515dd	10.317838
18	0x40cfa24c	6.4885616
19	0x40a889b1	5.266808
20	0x40e2b06e	7.084037
21	0x40d5d3aa	6.682088
22	0x41127bcf	9.155227
23	0x40c0fbe7	6.03075
24	0x4100baad	8.045575
25	0x4110bf20	9.046661
26	0x4159a8e3	13.603732
27	0x40f03635	7.506617
28	0x40cb3730	6.3504868
29	0x409be6fb	4.871946
30	0x40f57e63	7.671678
31	0x415d13c1	13.817323
32	0x4155a8dd	13.353726
33	0x4104e81c	8.306667
34	0x40cc266a	6.379689
35	0x41176f66	9.464697
36	0x40dc693a	6.887845
37	0x41195c24	9.584995
38	0x40eb6afe	7.3568106
39	0x41050c5e	8.315519
40	0x410ea38e	8.91493
41	0x41065d0f	8.397719
42	0x410386e2	8.22043
43	0x41382fbc	11.511654
44	0x41386d0c	11.526623
45	0x40f6898c	7.7042904
46	0x40d27de9	6.57787
47	0x41065eee	8.398176

sequential/batch_normalization_4/batchnorm/mul f4 [128]
0	0x40dc621c	6.8869762
1	0x40dec3c9	6.9613996
2	0x40b23c69	5.5698743
3	0x40a79598	5.237011
4	0x40b7ecfa	5.747678
5	0x40a36748	5.1063576
6	0x40a34abf	5.1028743
7	0x40dd65b1	6.9186635
8	0x40d42ade	6.630233
9	0x40f9b822	7.803727
10	0x4108b98f	8.545302
11	0x40da3da4	6.8200245
12	0x40d90b6a	6.7826433
13	0x40b094bf	5.5181575
14	0x40b1c024	5.5547047
15	0x407f191d	3.9859078
16	0x40fc938e	7.893012
17	0x40fe2358	7.9418144
18	0x40b149f4	5.5402775
19	0x40a0e58c	5.028021
20	0x408fe154	4.496256
21	0x40cf0e26	6.470477
22	0x40a1571c	5.0418835
23	0x40c94e49	6.2908063
24	0x40d3ff10	6.6248856
25	0x41103edb	9.015346
26	0x40b735d4	5.725321
27	0x40e82c99	7.255444
28	0x40d13d10	6.538704
29	0x40fa22fe	7.8167715
30	0x40a58cc0	5.1734314
31	0x40bafe85	5.8435693
32	0x40dd66d7	6.9188037
33	0x40e47617	7.1394153
34	0x40a8c3ef	5.2739177
35	0x40e206ff	7.063354
36	0x40e1d81c	7.0576305
37	0x409c997a	4.893735
38	0x40c69216	6.2053328
39	0x409dae0a	4.927495
40	0x4095ba2a	4.678975
41	0x409649ed	4.696524
42	0x40c88083	6.2656875
43	0x40d6fefa	6.718625
44	0x40c16063	6.043016
45	0x40a60024	5.187517
46	0x40c39151	6.111489
47	0x409eaaca	4.9583483
48	0x40bfec3e	5.997588
49	0x40e55c09	7.1674848
50	0x40ac3b48	5.3822365
51	0x40e4263e	7.129668
52	0x40f4e0df	7.65245
53	0x40dc2a88	6.880192
54	0x40d73ee7	6.7264285
55	0x4094ed3b	4.653959
56	0x410b6595	8.7123
57	0x40c8b76a	6.2723894
58	0x40ccc2d6	6.3987837
59	0x40e28b41	7.079499
60	0x40a9677d	5.293883
61	0x4105717c	8.340206
62	0x40d09a83	6.5188613
63	0x40cc0d2d	6.3766084
64	0x40aa72e7	5.326526
65	0x40c71d68	6.2223396
66	0x40bf996f	5.9874797
67	0x40d52044	6.6601887
68	0x40c48456	6.1411543
69	0x40d7fff4	6.7499943
70	0x40ede76b	7.4344993
71	0x40adfcd6	5.437114
72	0x409e4688	4.94611
73	0x40cdffde	6.437484
74	0x40a3e84b	5.122106
75	0x40dbd172	6.869317
76	0x409ee60f	4.9655833
77	0x40da9772	6.830987
78	0x40f0e1a6	7.527545
79	0x40e8679a	7.2626467
80	0x40c866d9	6.2625546
81	0x40a63e65	5.1951165
82	0x40a8ed16	5.278941
83	0x410c7806	8.779303
84	0x40cee281	6.4651494
85	0x409e8de5	4.954821
86	0x40ea449a	7.320874
87	0x40c8a50d	6.270148
88	0x40f45d64	7.6364
89	0x40b6e15d	5.71501
90	0x40cb5dde	6.3552084
91	0x40cf5c15	6.4799905
92	0x40d5c010	6.679695
93	0x40e8e45b	7.2778754
94	0x40c230cc	6.0684566
95	0x40b1fdfa	5.562253
96	0x40b93f23	5.788957
97	0x40f2802b	7.5781455
98	0x40dc8d09	6.892216
99	0x40e2109a	7.0645266
100	0x40bdbf88	5.9296303
101	0x410beb96	8.745016
102	0x40f109d7	7.532451
103	0x40cc2617	6.3796496
104	0x40d32b78	6.5990562
105	0x40981dcb	4.753637
106	0x4079502e	3.8955188
107	0x40e7e421	7.246598
108	0x40d1d4bb	6.557218
109	0x40b2d106	5.5880156
110	0x40c4a172	6.1447077
111	0x40e4366f	7.1316447
112	0x40d5d9b9	6.6828275
113	0x40bab378	5.834408
114	0x40d5b5ad	6.678427
115	0x40c5a0b0	6.175865
116	0x409e17a2	4.940385
117	0x40f0ad71	7.521172
118	0x40a7fb32	5.2494135
119	0x40af0131	5.4688954
120	0x40bc8bec	5.8920803
121	0x40cf7389	6.4828534
122	0x40cd4c94	6.415598
123	0x408efbfd	4.4682603
124	0x4100ed90	8.057999
125	0x40b6eb3b	5.7162147
126	0x40c029f9	6.0051236
127	0x40dd86cb	6.922704

sequential/dense/MatMul f4 [32, 8]
0	0x3d4c3d59	0.049863193
1	0x3caa4a0d	0.020787263
2	0x3cc62490	0.024187356
3	0xbd1c4d49	-0.038159642
4	0x3cb15603	0.021647459
5	0xbcb4a52a	-0.022051413
6	0xbd2e2724	-0.042517796
7	0x3d7895d2	0.060689755
8	0xbb7e7057	-0.0038824284
9	0x3c829172	0.015938494
10	0xbccd17cd	-0.025035763
11	0xbd8c60fc	-0.06854436
12	0xbc8826f0	-0.01662013
13	0x3c3b8e50	0.011447504
14	0x3d00931b	0.03139029
15	0x3ca96d43	0.020681983
16	0xbc601a18	-0.013678096
17	0x3d88d034	0.066803366
18	0xbc71c743	-0.01475698
19	0x3c4a3a66	0.012343025
20	0xbd3f8f9c	-0.046767816
21	0xbd2ef1e3	-0.04271115
22	0xbcc5d5f9	-0.024149882
23	0x3d45e7d7	0.048316803
24	0x3d3e537e	0.046466343
25	0xbb038e2b	-0.0020073752
26	0x3da6e767	0.08149605
27	0x3d9bc185	0.0760527
28	0x3ac03326	0.0014663681
29	0xbcd569a6	-0.026051354
30	0xbd21cfdd	-0.039504874
31	0xbbb48312	-0.005508789
32	0xbc5ebcbc	-0.0135948025
33	0x3daac55f	0.08338427
34	0x3be69a7f	0.0070374603
35	0xbcc7c9b5	-0.024388174
36	0x3c7d36f1	0.015454994
37	0x3d6a70ec	0.057236597
38	0x3d32aa68	0.043619543
39	0xbd115604	-0.03548242
40	0xbd905d93	-0.07049098
41	0x3d2b63ee	0.041843347
42	0xbc182f25	-0.009288584
43	0x3d9a6115	0.07538048
44	0x3cba56cb	0.022746464
45	0xbd0a518f	-0.033769187
46	0x3c867ecf	0.016417889
47	0x3d0d663c	0.034521326
48	0x3d40b681	0.04704905
49	0x3d610ea6	0.05494561
50	0xbce8cb13	-0.028417146
51	0xbd8f0147	-0.069826655
52	0x3aebf212	0.001800122
53	0xbd43a665	-0.047766108
54	0x3d25e6ff	0.0405035
55	0xbd5058d3	-0.05086596
56	0x3bc8ff1f	0.0061339284
57	0xbda3c8b9	-0.07997269
58	0xbd28265a	-0.0410522
59	0xbd1ac458	-0.037784904
60	0x3ba91c75	0.005160863
61	0x3d9ba8f4	0.076005846
62	0xbb4d9cf4	-0.003137407
63	0xbd72d428	-0.05928436
64	0x3dd50eca	0.104032114
65	0x3cf8861f	0.030337391
66	0xbd423f30	-0.04742354
67	0x3dae8ced	0.08522973
68	0xbd1e7f47	-0.0386956
69	0x3cef9f70	0.02925083
70	0xbb8ba123	-0.0042611524
71	0xbbe93b88	-0.0071176924
72	0xbb050cf8	-0.002030192
73	0xbdc23246	-0.09482245
74	0x3a848b9e	0.001011241
75	0xbc5c6f04	-0.013454203
76	0xbc847b15	-0.016171971
77	0x3d780d7c	0.060559735
78	0xbd0b7920	-0.03405106
79	0x3cbb95e9	0.022898631
80	0xbc1d95f8	-0.009618275
81	0xbcb9d2a7	-0.022683455
82	0xbda9a33f	-0.0828309
83	0xbd91d607	-0.071209006
84	0x3cadca38	0.02121459
85	0x3c3992c1	0.011326493
86	0xbd2de74e	-0.042456917
87	0x3c717494	0.014737267
88	0x3c18b757	0.009321055
89	0x3d1e6c40	0.038677454
90	0x3d892bc7	0.06697803
91	0x3ba46550	0.00501696
92	0x3da6d30e	0.08145724
93	0x3d44dd1e	0.048062436
94	0x3c908504	0.017641552
95	0x3d4e0703	0.050299656
96	0x3da0db34	0.0785431
97	0xbb6e4edc	-0.0036362922
98	0xbd0d681b	-0.03452311
99	0xb9eff0dc	-0.00045765087
100	0xbdcea6f2	-0.10090436
101	0x3cee3526	0.029078078
102	0xbc9f786b	-0.0194666
103	0xbd36161b	-0.044454675
104	0xbd498e78	-0.049208134
105	0x3c15aa2b	0.0091348095
106	0xb8b29232	-8.5149324e-05
107	0x3ce57b79	0.028012978
108	0xbcde9654	-0.027171291
109	0xbd511f2d	-0.051055122
110	0x3cf124e5	0.029436538
111	0x3d783da4	0.06060566
112	0x3d79841d	0.06091701
113	0x3d1f6dc5	0.038923044
114	0xbbee7b3b	-0.007277874
115	0xbd9a99f2	-0.07548894
116	0x3d8b94c3	0.068154834
117	0xbb0feadb	-0.0021960053
118	0xbdafb498	-0.085793674
119	0xbd14f2d1	-0.03636438
120	0x3c113c13	0.0088644205
121	0x3ca390ac	0.019966446
122	0xbda671c9	-0.081271715
123	0x3d9ddc1e	0.07708
124	0xbd0ac939	-0.033883307
125	0x3d83cb5f	0.06435274
126	0xbd35e9e0	-0.044412494
127	0xbcdc61b5	-0.02690206
128	0xbc3b01b2	-0.011413978
129	0x3ddd5681	0.10807515
130	0x3ca9e85d	0.020740682
131	0xbd4d0bd4	-0.05006011
132	0x3b64e041	0.0034923705
133	0xbd8a6e3b	-0.06759306
134	0xbab64323	-0.0013905506
135	0x3d87544c	0.06607875
136	0x3bf73421	0.007544056
137	0xbc89e1df	-0.016831337
138	0xbd789e6b	-0.060697954
139	0x3d7af16d	0.061265398
140	0xbc46eeb0	-0.0121418685
141	0x3c30186a	0.010748008
142	0x3dda63a2	0.10663535
143	0x3cadae9e	0.021201428
144	0xbbdc83ea	-0.0067295926
145	0xbca30b20	-0.019902766
146	0x3d23e62a	0.040014423
147	0xbd40f192	-0.04710538
148	0x3dc54f9a	0.096343234
149	0x3db37065	0.08761672
150	0x3d4be5bb	0.049779635
151	0xbd3ab17a	-0.04557941
152	0xbd01c740	-0.03168416
153	0x3b3529df	0.0027643365
154	0xbc7cad3d	-0.015422163
155	0xbbe9787a	-0.0071249576
156	0x3d8f1fd6	0.06988494
157	0x3d813ef9	0.06310839
158	0xbae05b7f	-0.0017117112
159	0x3d116af5	0.035502393
160	0x3ce3cfd0	0.027809054
161	0x3d6d52f9	0.057940457
162	0xbc3f0ca6	-0.0116607305
163	0x3d223647	0.039602544
164	0xbc77b66a	-0.0151191745
165	0x3d23c70b	0.039984744
166	0x3d919e53	0.07110276
167	0x3daf967c	0.085736245
168	0x3d47f840	0.048820734
169	0xbd3ff184	-0.046861187
170	0xbd642272	-0.055696912
171	0x3cc13580	0.023585081
172	0x3d809ce6	0.06279926
173	0xbd6937e2	-0.05693806
174	0x3bb0915d	0.0053884224
175	0x3c7c075d	0.015382615
176	0xbcca5483	-0.024698501
177	0x3dc9a37b	0.098456345
178	0xbbd2d1b6	-0.006433691
179	0x3c3114f5	0.010808219
180	0x3cd60172	0.026123736
181	0x3d3fbabd	0.046808947
182	0xbd7affa3	-0.06127895
183	0x3d769f45	0.060210485
184	0x3cc13721	0.023585858
185	0x3ce63cc5	0.028105149
186	0x3d9dd66b	0.077069126
187	0xbc8ceea7	-0.017203642
188	0x3cb8d7b7	0.022563798
189	0xbcd5ef89	-0.026115196
190	0x3d46cbfa	0.04853437
191	0x3b76c4cd	0.0037653924
192	0xbccb587f	-0.024822472
193	0xbd9b7c81	-0.075921066
194	0x3d01151e	0.03151428
195	0xbcbb6f6b	-0.022880277
196	0xbd56ffcd	-0.052490044
197	0x3b8986f0	0.004196994
198	0xbcb27961	-0.021786394
199	0xbca3b2bb	-0.019982686
200	0xbc71b492	-0.014752524
201	0xbb062037	-0.002046598
202	0xbda24a4b	-0.079243265
203	0x3d6a3989	0.057183776
204	0x3d367a7e	0.04455041
205	0x3a159696	0.0005706338
206	0xbc05b90a	-0.0081617925
207	0x3a939a49	0.001126119
208	0xbdec1bbf	-0.1152873
209	0xbd11967b	-0.0355439
210	0xbcc0c083	-0.023529297
211	0xbd8c9108	-0.068636
212	0xbd18d3f3	-0.037311506
213	0x3b8c3503	0.0042787804
214	0x3d460251	0.048342053
215	0xbbc24b61	-0.005929396
216	0xbbf5c7bf	-0.007500618
217	0x3d499004	0.04920961
218	0xbc65b0a5	-0.014019166
219	0xbcee2eec	-0.029075108
220	0x3ce33fac	0.027740322
221	0xbce66b91	-0.028127464
222	0x3cfb54a7	0.030680014
223	0x3c837102	0.016045097
224	0x3d6cd058	0.05781588
225	0x3dde13d8	0.10843629
226	0x3c6a24c2	0.01429099
227	0xbb6736d0	-0.0035280474
228	0x3c4b07fc	0.01239204
229	0xbc34e28c	-0.011040341
230	0x3c6a1c7d	0.014289019
231	0xbd91026b	-0.07080539
232	0xbe00a815	-0.12564118
233	0xbc8ff3c5	-0.017572293
234	0xbd9494d3	-0.072549485
235	0x3c77ab39	0.015116506
236	0xbd0f174d	-0.03493433
237	0x3d36731d	0.044543374
238	0x3d8d16b6	0.068890974
239	0xbc85367c	-0.016261332
240	0xbb82a645	-0.003987106
241	0xbb943307	-0.0045226845
242	0xbd4b4476	-0.049625836
243	0x3dc19c09	0.094535895
244	0x3be1a51c	0.0068861376
245	0x3c64d8a2	0.013967665
246	0x3d01d669	0.031698618
247	0xbcd70597	-0.026247783
248	0xbc88ce01	-0.016699793
249	0xbbfe4fe9	-0.007760991
250	0x3c3dbd60	0.011580795
251	0xb9cefbf7	-0.0003947911
252	0x3cf4b982	0.029873613
253	0xbd1bc904	-0.0380335
254	0xbda461a9	-0.0802644
255	0xbd96bd93	-0.07360377

sequential/dense_1/MatMul f4 [48, 32]
0	0xbdba0c2a	-0.09084351
1	0xbc707731	-0.014676855
2	0x3d09148e	0.033466868
3	0xbd4ff92c	-0.05077474
4	0xbc2c5e78	-0.01052057
5	0x3d04a5d7	0.03238472
6	0xbd102a81	-0.035196785
7	0xbd3c0566	-0.045903586
8	0x3cf557a3	0.029949015
9	0xbcd262f5	-0.025681952
10	0xbd8ecef5	-0.06973068
11	0x3d2ac499	0.041691396
12	0x3c01bab1	0.007918046
13	0x3d29a4b3	0.041416835
14	0xbc102bc1	-0.008799494
15	0x3d10a54f	0.0353139
16	0x3d1635b1	0.036672298
17	0x3d15fda2	0.036618836
18	0xbd0ebd14	-0.034848288
19	0xbda7beef	-0.081907146
20	0xbd57b304	-0.052660957
21	0x3b025ba5	0.001989105
22	0x3c8beb37	0.017079933
23	0x3d03479d	0.032050718
24	0x3d2eb7ad	0.042655636
25	0x3c13f80d	0.009031308
26	0x3d4b88a0	0.049690843
27	0xbdc8c125	-0.098024644
28	0xbd92b893	-0.07164111
29	0xbcb264ce	-0.021776583
30	0xbd97acc6	-0.07406001
31	0xbcd58ebc	-0.026069038
32	0xbb9d65a0	-0.0048033744
33	0x3d891fa0	0.06695485
34	0xbce89b40	-0.028394341
35	0x3d9192a5	0.07108048
36	0xbd8de3f1	-0.06928242
37	0x3d2ce02b	0.04220597
38	0xbda5172c	-0.0806106
39	0xbc8a74d3	-0.01690141
40	0xbd72d041	-0.059280638
41	0xbd8e48f6	-0.0694751
42	0x3d82bc5c	0.06383583
43	0xbdc774b9	-0.0973906
44	0xbdb05c2d	-0.08611331
45	0xbbde0a3f	-0.006776124
46	0x3c1f47e4	0.00972173
47	0xbd6666c3	-0.056250345
48	0x3db92a4e	0.09041272
49	0x3d636834	0.055519298
50	0xbd0f26da	-0.03494916
51	0xbd772085	-0.060333747
52	0x3d960978	0.07326025
53	0xbd528351	-0.051394764
54	0x3b99207a	0.004673061
55	0xbd1ec318	-0.038760275
56	0x3d1fdae5	0.039027113
57	0x3cf4b195	0.029869834
58	0xbd9a3f43	-0.075315975
59	0xbc7f3c37	-0.015578321
60	0xbbd3ed36	-0.0064674867
61	0xbd951df9	-0.072811075
62	0x3db48856	0.088150665
63	0xbc5fb27c	-0.013653394
64	0xbc33316d	-0.010937077
65	0xbb744332	-0.0037271497
66	0xbc68cd9c	-0.014209177
67	0xbd9e9f10	-0.077451825
68	0xbcc771bb	-0.024346223
69	0x3c44a14b	0.012001346
70	0x3cd33bed	0.02578541
71	0x3beda50c	0.007252341
72	0x3c41565a	0.011800373
73	0xbdc0e24e	-0.09418164
74	0xbcd8c80c	-0.026462577
75	0x3d217fee	0.039428644
76	0x3adfce4c	0.0017075031
77	0xbd105bd8	-0.03524384
78	0x3c8260dc	0.015915327
79	0x3d0e67ff	0.034767147
80	0x3be00636	0.006836678
81	0xbbfef118	-0.0077802055
82	0x3ca5c87b	0.020237198
83	0xbd9012c5	-0.0703483
84	0x3d98df4f	0.07464468
85	0xbda7a3d5	-0.08185545
86	0xbd392fc7	-0.04521158
87	0xbbb75d82	-0.005595864
88	0x3cf7e6e9	0.030261474
89	0xbd72a108	-0.059235603
90	0xbdb53581	-0.08848096
91	0x3d79e88b	0.061012786
92	0x3c6ad11b	0.014332081
93	0xbdbd8a7b	-0.09254929
94	0x3b5ca90d	0.0033670098
95	0xbc4d6741	-0.012536825
96	0x3c8c4882	0.017124418
97	0xbc2f65f7	-0.010705463
98	0x3d5df68f	0.054190215
99	0xbd8cd008	-0.06875616
100	0xbd851523	-0.06498172
101	0xbd50a6f7	-0.05094048
102	0xbcf45aa0	-0.02982837
103	0xbd2c3a74	-0.042047933
104	0x3d529efd	0.051421154
105	0x3ce81b75	0.028333405
106	0x3d69f53e	0.057118647
107	0x3c4cc64c	0.0124984495
108	0xbb8bf6d5	-0.004271368
109	0xbca1e676	-0.019763213
110	0x3c23e662	0.010003658
111	0x3ca2e0ab	0.01988252
112	0xbac9fa6b	-0.0015409713
113	0xbba35836	-0.004984881
114	0xbc265bd3	-0.010153729
115	0x3d064b94	0.03278692
116	0x3d31001e	0.043213002
117	0xbd8c627e	-0.068547234
118	0x3b1de5bd	0.0024093234
119	0x3cf3f5e3	0.029780334
120	0x3b7937c7	0.003802763
121	0xbdaf3da2	-0.085566774
122	0x3d8579bb	0.06517359
123	0x3d6f8bdc	0.05848299
124	0x3d714108	0.05889991
125	0xbb904c51	-0.004403629
126	0x3d0f2387	0.03494599
127	0xbd835bca	-0.06413992
128	0xbb244df2	-0.0025070873
129	0xbd5b04a2	-0.053471215
130	0x3b456c2b	0.0030124288
131	0xbd7aafe2	-0.06120289
132	0x3c93261f	0.017962513
133	0xbb8215f1	-0.003969901
134	0xbdba5a23	-0.090992235
135	0x3caeefe4	0.021354623
136	0xbc91d3c9	-0.017801182
137	0x3ccbd779	0.024883019
138	0xbd277dc7	-0.040891435
139	0x3bdfc2f6	0.006828661
140	0xbd946842	-0.07246448
141	0xbc8495d6	-0.016184729
142	0xbd0ba285	-0.034090538
143	0x3d29542a	0.04134003
144	0x3d3c6123	0.045991074
145	0xbd29a0a1	-0.041412953
146	0x3d3ab1de	0.045579784
147	0x3b4ea08d	0.0031528801
148	0xbbe80bec	-0.0070814993
149	0xbbd1ac5f	-0.006398722
150	0xbd5e1d59	-0.054227207
151	0x3c557d02	0.0130302925
152	0xbd30f2e3	-0.043200385
153	0x3c239754	0.00998481
154	0xbd31f365	-0.04344501
155	0xbd789a9e	-0.06069433
156	0x3d585d1d	0.052823175
157	0x3d17e977	0.037087884
158	0xbd013fe8	-0.031555086
159	0xbbf99a9e	-0.0076173088
160	0xbd8836fc	-0.066511124
161	0x3c3eb334	0.011639405
162	0xbbac8c6c	-0.005265763
163	0xbc8c8306	-0.01715232
164	0xbc00fca1	-0.007872731
165	0xbdd9621a	-0.106144145
166	0xbd720abe	-0.059092276
167	0xbd696fc1	-0.056991342
168	0x3c6d139d	0.014470008
169	0xbde692e3	-0.11258485
170	0x3c9f8fae	0.019477692
171	0xbd8e805f	-0.069580786
172	0xbd25bb69	-0.04046193
173	0xbb553277	-0.00325313
174	0xbd515e6f	-0.05111545
175	0xbbf0cbdc	-0.0073485207
176	0x3cf2cf00	0.02963972
177	0xbd0fe837	-0.035133567
178	0xba09f7ff	-0.00052630896
179	0x3d9876ef	0.0744456
180	0xbd61ca44	-0.055124536
181	0xbd801ea6	-0.06255846
182	0x3d921e58	0.07134694
183	0x3d31a745	0.04337241
184	0x3c78d1de	0.015186755
185	0x3c621ae6	0.013800358
186	0xbcd7b7b3	-0.026332712
187	0xbae91f3d	-0.0017785799
188	0x3be1144e	0.0068688756
189	0xbd6d3142	-0.057908304
190	0x3c468757	0.0121172285
191	0xbc9eb55c	-0.019373588
192	0xbc0ab051	-0.008464889
193	0x38a6df0e	7.957044e-05
194	0x3ca237a8	0.01980193
195	0xbcd295b9	-0.025706159
196	0xbd39a9d9	-0.045327995
197	0x3b21a956	0.0024667582
198	0x3b953e82	0.0045545707
199	0x3be7b3b8	0.0070709847
200	0xbdd4d12e	-0.1039146
201	0xbca1292b	-0.01967295
202	0x3cba1874	0.022716738
203	0x3d69fd5f	0.0571264
204	0xbb1f1d5c	-0.0024278974
205	0xbc79fd59	-0.015258157
206	0x3d92977b	0.07157799
207	0xbb9c25dc	-0.0047652554
208	0xbd0277d0	-0.031852543
209	0xbc0c82eb	-0.008576135
210	0x3c91e46b	0.017809113
211	0x3d9ba27f	0.07599353
212	0xbcee49f2	-0.029087994
213	0x3b780a0f	0.0037847792
214	0x3d672b90	0.05643803
215	0xbbde6e0d	-0.0067880214
216	0x3ba98369	0.005173136
217	0x3c2a48c6	0.010393327
218	0xbd8d5504	-0.06900981
219	0x3cb2c605	0.021822939
220	0x3d3c926d	0.04603808
221	0x3d627609	0.05528835
222	0xbd285846	-0.04109981
223	0x3d5f0f08	0.054457694
224	0x3d555836	0.052086078
225	0x3d2b7663	0.04186095
226	0xbdb2d325	-0.08731679
227	0xbcb1c314	-0.021699466
228	0xbd8a4e3d	-0.06753204
229	0xbdab78b1	-0.083726294
230	0xbc869210	-0.01642707
231	0x3c1db379	0.009625309
232	0x3b488770	0.0030598305
233	0xba2632a2	-0.00063399423
234	0xbcb0c237	-0.021576984
235	0xbd0871a5	-0.033311505
236	0xbd70cafa	-0.058787324
237	0xbda14ac5	-0.07875589
238	0x3d538bdb	0.05164705
239	0xbb876c0f	-0.0041327546
240	0xbd100e4e	-0.035169892
241	0xb8ea1ae8	-0.00011163001
242	0xbdf0a63f	-0.11750459
243	0x3d22c814	0.03974159
244	0x3c17baf8	0.009260885
245	0x3cbd4228	0.023102835
246	0x3d070591	0.032964293
247	0xbbbd26d2	-0.00577245
248	0xbd1c0ed9	-0.038100097
249	0xbd2e35a9	-0.042531643
250	0xbac8a8d9	-0.001530911
251	0xbc5b378b	-0.013379942
252	0xbc7acd4a	-0.015307734
253	0x3c156966	0.009119367
254	0xbdf0b81b	-0.11753865
255	0x3d022c9e	0.03178083

sequential/dense_3/MatMul f4 [128, 64]
0	0x3d9b83d0	0.075935006
1	0xbd94b46d	-0.07260976
2	0xbdb4a785	-0.08821014
3	0x3d4371b8	0.047715873
4	0x3d4081ad	0.04699867
5	0x3cf89419	0.030344056
6	0xbd346c3e	-0.04404854
7	0x3cb535ac	0.02212032
8	0xbdbb4d4a	-0.09145601
9	0xbd854000	-0.06506348
10	0xbd6d3441	-0.05791116
11	0x3baa2b77	0.0051931697
12	0x3db1e64a	0.08686502
13	0xbd2f1cee	-0.0427522
14	0x3c94f093	0.018181121
15	0xbd86c05b	-0.06579658
16	0x3d8f14ef	0.06986415
17	0x3d96a173	0.07355013
18	0x3dc87819	0.09788532
19	0xbd88c8b5	-0.06678907
20	0xbd643273	-0.055712175
21	0x3d434562	0.04767359
22	0x3d271e19	0.040800188
23	0xbb86811e	-0.0041047474
24	0xbd66d6d9	-0.05635724
25	0x3db9fe27	0.09081679
26	0x3c3b6fae	0.011440201
27	0xbc59dbb8	-0.013297014
28	0xbdd1f4a0	-0.10251737
29	0xbcaee897	-0.021351142
30	0x3cbce7b8	0.02305971
31	0xbd5f4ae2	-0.054514773
32	0x3b92d99a	0.0044815065
33	0x3d50f3ab	0.05101363
34	0xbdc0b5e2	-0.094096914
35	0x3d78f897	0.06078395
36	0xbdf12bf8	-0.117759645
37	0x3ba04326	0.004890817
38	0xbd7d63b8	-0.061862677
39	0xbc94c9ee	-0.018162694
40	0x3bb94e5a	0.005655092
41	0x3d29ff58	0.04150328
42	0x3a5a2cbe	0.0008322707
43	0xbc5a1a53	-0.01331194
44	0xbd82ebdd	-0.063926436
45	0x3c4a8270	0.0123602
46	0x3b350123	0.0027619086
47	0x3df7dbd8	0.12102479
48	0x3e0aa483	0.13539319
49	0x3dc6d9b1	0.0970949
50	0xbd8feab9	-0.07027192
51	0x3cc66fec	0.02422329
52	0x3dbc8eed	0.092069484
53	0x3ccce9e6	0.025013875
54	0xbcc8dcd8	-0.024519369
55	0x3d2d39f0	0.04229158
56	0x3d2239c5	0.039605875
57	0x3cf5c2a1	0.030000033
58	0x3b009197	0.0019618028
59	0xbc93d7fe	-0.018047329
60	0xbcf464fd	-0.029833311
61	0xbd1a5aa5	-0.0376841
62	0xbce3e41b	-0.02781873
63	0x3c8785cf	0.016543297
64	0xbc8e5bec	-0.017377816
65	0x3ddfe76b	0.10932811
66	0x3d17a169	0.037019167
67	0xbc07a694	-0.008279461
68	0x3dd14c25	0.102196015
69	0xbd0e7337	-0.034777846
70	0xbc261d0c	-0.010138761
71	0x3d81b73b	0.063337766
72	0x3ccddcf0	0.025129765
73	0x3b4c5961	0.0031181204
74	0xbd350f84	-0.04420425
75	0xbcf745d0	-0.030184656
76	0xbd76bec7	-0.060240533
77	0x3d29da11	0.04146773
78	0xbdd30651	-0.10303939
79	0x3c704edd	0.01466724
80	0xbe0c5d45	-0.13707455
81	0xbd0bf7fb	-0.03417204
82	0xbc943c3c	-0.018095128
83	0x3da42e94	0.080166966
84	0xbd0f8022	-0.035034306
85	0xbc1bb9f4	-0.009504784
86	0xbb055532	-0.002034497
87	0x3d553b24	0.052058354
88	0xbb6c5832	-0.003606331
89	0xbdf02604	-0.11726001
90	0x3cffe807	0.031238569
91	0x3daf9a75	0.08574382
92	0xbddfaee8	-0.109220326
93	0x3c2534ac	0.010083359
94	0x39cf52c8	0.00039543794
95	0x3d85a622	0.06525828
96	0x3c4aa78d	0.012369049
97	0xbb86f295	-0.0041182735
98	0x3d0b0e6f	0.03394931
99	0xbd0325c1	-0.032018427
100	0xbd516213	-0.05111892
101	0xbce8d19f	-0.028420268
102	0xbd07c435	-0.033146102
103	0x3cc304d4	0.023806013
104	0xbd834682	-0.06409933
105	0xbdbc74d0	-0.09201968
106	0x3d5d888b	0.054085296
107	0xbc02aaf6	-0.007975331
108	0x3c963131	0.018334003
109	0xbcb54c6b	-0.022131165
110	0xbd10596c	-0.03524153
111	0x3dbbbf79	0.0916738
112	0x3d0b9cc7	0.03408506
113	0xbd04c2f8	-0.0324125
114	0xbd0ed097	-0.034866896
115	0x3d6d4fc9	0.057937417
116	0x39e19a33	0.00043030232
117	0xbd82f073	-0.06393518
118	0xbc02f566	-0.007993078
119	0xbcd27e7c	-0.025695078
120	0x3aa31728	0.0012442814
121	0xbd03094f	-0.0319913
122	0x3db2d662	0.087322965
123	0x3d0a471e	0.03375923
124	0xbbc4feb6	-0.006011809
125	0x3d18b0bd	0.037277926
126	0x3c7a5374	0.015278686
127	0x3d456767	0.048194315
128	0x3c5971d0	0.013271764
129	0xbc9592e0	-0.018258512
130	0x3da268db	0.07930156
131	0xbdcd3988	-0.10020739
132	0xbbb75ab7	-0.005595531
133	0xbb869ad7	-0.004107814
134	0xbc05159f	-0.008122831
135	0x3d534dff	0.051588055
136	0x3d847534	0.06467667
137	0x3d0e3b9e	0.034724824
138	0x3dabed7f	0.08394908
139	0x3d20c9f1	0.039255086
140	0xbc413e68	-0.011794664
141	0xbd711a2c	-0.05886285
142	0xbae3ff9c	-0.0017394903
143	0x3d8f580c	0.069992155
144	0x3d30daeb	0.043177526
145	0x3d83ac5d	0.0642936
146	0x3d84f397	0.064917736
147	0xbd1635b5	-0.036672313
148	0x3c6700ae	0.014099283
149	0x3d80c097	0.062867336
150	0x3c3bfd0d	0.011473906
151	0xbb9baee1	-0.004751072
152	0xbcfda065	-0.030960271
153	0x3cdd163b	0.02698814
154	0xbcb20a0f	-0.021733312
155	0xbd4ea864	-0.05045356
156	0x3dd4f595	0.103984036
157	0x3d7c3256	0.06157144
158	0xbb41f97c	-0.0029598167
159	0xbc708cde	-0.014682023
160	0x3da621be	0.081119046
161	0x3d346b2b	0.044047516
162	0x3d99621c	0.07489416
163	0x3da8d41b	0.08243581
164	0x3c4ef780	0.012632251
165	0xbd7ef758	-0.062247604
166	0x3d9768d5	0.07393042
167	0xbc48c86b	-0.012254815
168	0x3d5aa6a6	0.053381585
169	0x3c6b8ac9	0.014376351
170	0xbd423ebf	-0.04742312
171	0xbbb2a6b1	-0.005452
172	0x3de71f7d	0.11285303
173	0xbd78a572	-0.060704656
174	0xbcb2b23d	-0.021813506
175	0x3d272b29	0.040812645
176	0xbd24d28a	-0.04023985
177	0x3db1f3b6	0.08689062
178	0xbd3ab021	-0.045578126
179	0x3d31ec6d	0.043438364
180	0x3c77ba3b	0.015120084
181	0xbd276ef6	-0.040877305
182	0xbce90112	-0.028442893
183	0xbc8ee8ee	-0.017445054
184	0x3d7e2663	0.062048327
185	0xbc30c736	-0.010789683
186	0x3d2fe694	0.042944506
187	0xbd8a3455	-0.06748263
188	0x3d2f84e5	0.042851347
189	0xbd69c3d8	-0.057071537
190	0x3d33171b	0.043723207
191	0xbb2361b8	-0.002493007
192	0xba0ffc78	-0.0005492638
193	0xbdb27c6d	-0.087151386
194	0x3c8b9907	0.017040743
195	0x3d98d26b	0.07462009
196	0xbadf1819	-0.0017020731
197	0x3d08f665	0.033438105
198	0x3d73ed5f	0.059552547
199	0xbdca268c	-0.098706335
200	0x3c10f275	0.008846869
201	0xbd0d7c51	-0.034542385
202	0x3c785c8b	0.015158783
203	0x3c6755a6	0.014119541
204	0x3d8a94a8	0.06766635
205	0x3cf6cdcd	0.03012743
206	0xbd8b5e7a	-0.06805129
207	0xbc47dfca	-0.012199352
208	0x3db6018f	0.08887016
209	0xbe0b7b6d	-0.13621302
210	0xbd7d06bd	-0.061774004
211	0xbd9a7ceb	-0.075433575
212	0x3e01dece	0.1268265
213	0xbb759f46	-0.0037478968
214	0x3cd627c5	0.02614201
215	0xbc069e82	-0.008216502
216	0xbd5a30aa	-0.053269066
217	0xbcaa9213	-0.020821607
218	0xbc0d79e8	-0.008635022
219	0x3c8bd45e	0.017069038
220	0x3cb13643	0.02163232
221	0xbca4fc3e	-0.02013981
222	0xbd8b115b	-0.0679042
223	0xbcc5941d	-0.024118477
224	0x3d95228a	0.072819784
225	0x3bb250fe	0.005441784
226	0xbb94dd51	-0.0045429845
227	0xbdb95a3c	-0.09050414
228	0x3d04959c	0.03236924
229	0xbd45552a	-0.048176922
230	0xbdb1fae8	-0.08690435
231	0xbcf49c37	-0.029859645
232	0x3cf3cac6	0.029759776
233	0x3da5f35e	0.08103059
234	0x3cf1d5ac	0.029520832
235	0xbc6c3acd	-0.014418316
236	0x3c84b856	0.01620118
237	0x3b83cf23	0.0040224954
238	0xbb84db4d	-0.004054463
239	0x3ced9760	0.029002845
240	0x3decacf7	0.11556428
241	0xbc5bb0f9	-0.013408893
242	0xbc8c987b	-0.017162552
243	0x3cbb9351	0.022897394
244	0xbd5490e5	-0.051895995
245	0x3c897d19	0.016783284
246	0xbc54a725	-0.0129793035
247	0xbc90ec6a	-0.017690856
248	0x3c4212f1	0.011845336
249	0xb96c0852	-0.00022509813
250	0x3c84b60d	0.01620009
251	0xbd12ea72	-0.035868116
252	0x3c630082	0.013855102
253	0xb9be58db	-0.00036305827
254	0xbb827f53	-0.0039824634
255	0xbd875bda	-0.06609316

sequential/dense_4/MatMul f4 [91, 128]
0	0x3e1a7625	0.15084131
1	0xbd9fa50e	-0.077951536
2	0x3d7e86b5	0.062140185
3	0x3cfdfde8	0.031004861
4	0xbc4b7656	-0.01241835
5	0x3c9fcb27	0.01950605
6	0x3da391ac	0.07986769
7	0x3c8a1961	0.016857805
8	0x3e3771cc	0.17914504
9	0x3d957148	0.07296997
10	0xbd0342ca	-0.032046117
11	0x3d9313ac	0.071814865
12	0xbc3ed3aa	-0.011647144
13	0x3dcd6270	0.10028541
14	0xbd410523	-0.04712404
15	0x3d86c23a	0.065800145
16	0x3da5975e	0.080855116
17	0xbd2e508a	-0.042557277
18	0xbbe0e7b7	-0.00686356
19	0xbb997731	-0.004683398
20	0x3d45d36d	0.048297334
21	0xbca20594	-0.01977805
22	0xbcc9e9c5	-0.024647603
23	0xbcf1ec24	-0.029531546
24	0xbb3298d9	-0.0027251749
25	0xbcc7923f	-0.024361728
26	0x3db27f67	0.08715706
27	0x3dc46a6b	0.0959061
28	0x3dc93081	0.098237045
29	0xbd0f2f6b	-0.03495733
30	0x3d0516e9	0.032492552
31	0x3cf4be72	0.029875968
32	0xbbc2fabe	-0.005950301
33	0xbd1b5950	-0.037926972
34	0x3ce43c25	0.02786071
35	0xbd37ac93	-0.044842314
36	0x3e1dfed2	0.15429237
37	0xbcec8d8d	-0.02887609
38	0x3db23ce5	0.08703021
39	0xbc4788ed	-0.012178642
40	0xbd096917	-0.033547487
41	0x3ce509e5	0.02795882
42	0xbd0b7902	-0.03405095
43	0x3ce6b004	0.028160103
44	0xbcbf9628	-0.02338703
45	0x3c089922	0.008337291
46	0x3cdf40e9	0.027252631
47	0xbd0d7202	-0.034532554
48	0x3d1a6155	0.03769048
49	0x3bf123b6	0.0073589934
50	0xbcb20d82	-0.021734957
51	0xbd315c75	-0.043301065
52	0x3defad98	0.11703032
53	0x3b9a160e	0.004702336
54	0xbc9418e2	-0.018078271
55	0xbbbbd06d	-0.0057316334
56	0xbd05d3ff	-0.03267288
57	0x3dc6c29c	0.097050875
58	0x3d53cb34	0.05170746
59	0xbc2f019f	-0.010681539
60	0x3d8f7d36	0.07006304
61	0xbcff8a0e	-0.03119376
62	0x3cede0f1	0.029037924
63	0x3d55eb8a	0.05222658
64	0x3cf8708b	0.030327102
65	0x3a16d760	0.0005754139
66	0xbd8d95f4	-0.06913367
67	0xbd37f42a	-0.044910587
68	0xbd25f5e4	-0.040517703
69	0xbc037dcc	-0.008025598
70	0xbc9f2c8c	-0.019430421
71	0x3ba1821f	0.0049288417
72	0x3cc113ae	0.023568954
73	0x3b1f15d8	0.0024274494
74	0xbc23d90c	-0.0100004785
75	0xbcfa3885	-0.030544529
76	0xbcfd11e3	-0.030892318
77	0xbaf4aa9b	-0.0018666567
78	0x3ce68ab4	0.02814231
79	0x3db84ed2	0.08999409
80	0xbd518160	-0.051148772
81	0x3d2db831	0.042411987
82	0x3d742ae6	0.059611224
83	0xbd3505fc	-0.04419516
84	0x3df912e2	0.12161805
85	0x3b9cf1ea	0.0047895806
86	0x3c10f63a	0.0088477675
87	0x3c0c51e7	0.008564449
88	0x3c7bcd49	0.015368768
89	0xbd4039dc	-0.04693018
90	0x3d77c1cd	0.060487557
91	0x3dfcbccf	0.123407
92	0xbd664bd2	-0.05622465
93	0xbd773c44	-0.06036021
94	0x3d871fca	0.0659786
95	0xbc52d496	-0.012868067
96	0xbd2c13ef	-0.042011198
97	0xbced3ad8	-0.028958723
98	0x3d97eaa9	0.07417805
99	0xbd679c7c	-0.05654572
100	0xbd20f6e0	-0.03929794
101	0x3e1660a9	0.1468531
102	0x3d46fe7a	0.04858253
103	0x3dcbc807	0.099502616
104	0xbca4002c	-0.020019613
105	0x3d44c84d	0.048042584
106	0xbc0c7541	-0.008572877
107	0x39ee1d05	0.0004541652
108	0xbcb29f01	-0.021804335
109	0xbc2407f1	-0.010011659
110	0x3db3e511	0.08783925
111	0x3d9f2e74	0.07772532
112	0xbcc55f6f	-0.024093358
113	0x3d74e804	0.05979158
114	0x3cb4cfc2	0.022071723
115	0x3da83313	0.08212867
116	0x3d13be96	0.03607043
117	0xbd8b5c83	-0.068047546
118	0xbc6bfe43	-0.014403882
119	0xbd485237	-0.04890653
120	0x3d0eada9	0.034833584
121	0x3db032de	0.08603452
122	0x3cb63b73	0.022245144
123	0xbc2112d1	-0.009831146
124	0x3a06c67e	0.0005141272
125	0xb89af690	-7.389218e-05
126	0x3de6146a	0.112343624
127	0xbd885193	-0.06656184
128	0xbaed4777	-0.0018102963
129	0x3ac940e7	0.0015354425
130	0xb96272da	-0.00021595825
131	0x3aa8eb59	0.0012887522
132	0x3ad62206	0.0016337044
133	0x3aa4788b	0.0012548132
134	0x3a725679	0.0009244453
135	0x37d4324b	2.5295789e-05
136	0xbace0c91	-0.0015720298
137	0x38c0e9ab	9.1987975e-05
138	0xba9aa364	-0.0011797962
139	0x3a464eb4	0.0007564828
140	0xba8a9ffe	-0.0010576246
141	0xba0cbb6b	-0.00053685036
142	0x39fa5fd1	0.00047755105
143	0x3a8cb659	0.0010735496
144	0xba3dd272	-0.00072411366
145	0xb9bc8283	-0.00035955393
146	0x3a3d7f67	0.0007228762
147	0x39cd6371	0.00039174737
148	0xb8ab398f	-8.1646365e-05
149	0x39ccfdd3	0.00039099026
150	0x3af9fac4	0.0019071926
151	0xb7a0e911	-1.9182016e-05
152	0xb9412f76	-0.00018423595
153	0x3814f4d9	3.5513982e-05
154	0xbb0ae4c8	-0.0021193493
155	0xba8b607e	-0.0010633615
156	0xb93d7ceb	-0.0001807098
157	0x39599f1f	0.0002075401
158	0x39a4a85b	0.00031405952
159	0x3a3c3b79	0.0007180493
160	0xbaa1794c	-0.0012319474
161	0x3a35199e	0.00069084193
162	0x3a871c95	0.0010308201
163	0xb8c6d196	-9.480414e-05
164	0x3948013f	0.0001907395
165	0x3a80d6a2	0.000982959
166	0xba7c1a75	-0.00096169795
167	0x396a2842	0.00022330976
168	0x3a8dcc58	0.0010818345
169	0xb9aa8767	-0.0003252581
170	0x3a8687ab	0.0010263821
171	0xb910285a	-0.00013747942
172	0x3a7a6beb	0.0009552824
173	0xb99a39e5	-0.00029416304
174	0xba848268	-0.0010109665
175	0x39856055	0.0002543951
176	0xba48b6d5	-0.00076566386
177	0x3904b866	0.00012657195
178	0x39e4756f	0.00043575044
179	0x3aa9b6ce	0.0012948157
180	0xba01e933	-0.0004955709
181	0xba97d632	-0.0011584221
182	0x3a98ace1	0.0011648202
183	0x3ad4bacd	0.0016229987
184	0x3a8e3928	0.0010850774
185	0x39461411	0.00018890227
186	0xb8319637	-4.2339987e-05
187	0x3a951bed	0.001137612
188	0xba8db983	-0.0010812733
189	0x3b12ba5d	0.0022388913
190	0xba287d56	-0.0006427368
191	0xbab13354	-0.0013519325
192	0x3aa9d918	0.0012958376
193	0x3a363491	0.0006950582
194	0x39f71ed3	0.00047134477
195	0x3a834bfa	0.001001715
196	0x3a5d0700	0.0008431524
197	0xbab067ba	-0.0013458647
198	0xb983ff88	-0.00025176653
199	0x39243389	0.00015659457
200	0xb9f6b513	-0.00047055687
201	0xbac925b4	-0.0015346319
202	0xb9c916fe	-0.00038354838
203	0xb98a787e	-0.00026411185
204	0x39f5cb2e	0.00046881422
205	0xb9fc22da	-0.00048091152
206	0x3aa0268b	0.0012218518
207	0x3a4623bb	0.0007558425
208	0xba035ce7	-0.0005011097
209	0x38c943c3	9.5970485e-05
210	0xb9027e98	-0.00012444926
211	0xb92205ea	-0.00015451727
212	0xb94f5e93	-0.0001977629
213	0x3a28f295	0.0006444839
214	0x39ac1e0f	0.00032828792
215	0x3ab342ea	0.0013676558
216	0xb992083e	-0.0002785343
217	0x398c8de0	0.00026808586
218	0x3a749a90	0.0009330893
219	0x3a236fe4	0.00062346295
220	0x39eee6cf	0.00045566863
221	0xba559ac5	-0.00081483676
222	0xbad0c88a	-0.0015928906
223	0x3840a51e	4.5930145e-05
224	0x389e70c4	7.555031e-05
225	0x390de524	0.0001353217
226	0x393925c2	0.00017657041
227	0x3abce8cb	0.001441264
228	0x39f7cd65	0.00047264542
229	0x39ccb964	0.0003904804
230	0x3a0e8149	0.0005436135
231	0xbb04bb33	-0.002025318
232	0x39dc1b81	0.00041982162
233	0xbaea4367	-0.0017872871
234	0x3ad1e014	0.0016012215
235	0xba659cff	-0.0008759051
236	0x3a4423cf	0.00074821425
237	0x3a93bb86	0.0011271096
238	0x3a52de66	0.0008044004
239	0xb9c12c01	-0.00036844614
240	0x3a18700a	0.0005815035
241	0xba2eac1a	-0.00066632184
242	0xba5d4ebc	-0.00084422133
243	0x37f7d11c	2.9542069e-05
244	0x38db85cb	0.00010467655
245	0x398426c8	0.00025205896
246	0x39183c97	0.00014518421
247	0x3a6d814c	0.0009060099
248	0x3a97d9e7	0.0011585326
249	0xbaf86441	-0.0018950776
250	0xba05a869	-0.00050986424
251	0x3a70b765	0.00091826014
252	0x38ab37cb	8.164308e-05
253	0x39d3802d	0.00040340555
254	0xb9ab7d83	-0.00032709175
255	0xb96f2a9a	-0.00022808686
