app/src/main/assets/model_red.tflite (tflite, 106984 bytes, 18 tensors)

sequential/batch_normalization/batchnorm/mul f4 [8]
000000 28 bf 0b 3e 12 bc 79 3e 82 c7 88 3e 40 3d a3 3e
       0.13647139 0.2438815 0.26714712 0.31882668
000010 be 8d 80 3f ab 78 24 3f 19 67 1f 3f e2 6d a1 3e
       1.0043256 0.64246625 0.6226669 0.31529146

sequential/batch_normalization/batchnorm/sub f4 [8]
000000 db ce 02 c1 6a a0 8a c1 79 f1 94 c1 fc c7 a4 c1
       -8.175502 -17.328327 -18.617907 -20.597649
000010 ec 30 7b c2 fe dc 27 c2 fa 6d 11 c2 04 4e 8d c1
       -62.797775 -41.965813 -36.3574 -17.663094

sequential/batch_normalization_1/batchnorm/mul f4 [32]
000000 03 04 76 41 94 93 71 41 b2 af 93 41 0b 51 fd 40
       15.375979 15.09853 18.460789 7.916143
000010 1a 27 2e 41 2d 63 33 41 0b 79 8f 41 31 c5 67 41
       10.884546 11.211713 17.934103 14.485642
000020 1f 04 87 41 70 b5 0b 41 74 d3 a9 41 83 73 4d 41
       16.877012 8.731796 21.228249 12.840701
000030 95 7d 10 41 56 9c de 40 7c b1 d7 40 23 da 3c 41
       9.03066 6.956584 6.7404156 11.803256
000040 45 be 5a 41 ad 4e 14 41 62 a3 47 41 dc 61 99 41
       13.6714525 9.269208 12.477388 19.172783
000050 4b a9 63 41 a6 94 97 41 0b 23 8e 41 19 85 00 41
       14.228831 18.947582 17.76711 8.032495
000060 20 f3 da 40 11 3d 59 41 82 7c 2b 41 9f e2 60 41
       6.8421783 13.577409 10.717897 14.055327
000070 49 60 65 41 ed f7 0b 41 2e 5c 26 41 ac 2b b6 40
       14.336007 8.748029 10.397505 5.692831

sequential/batch_normalization_1/batchnorm/sub f4 [32]
000000 28 ed 78 be 35 65 ab be 68 67 7c be ba d7 db be
       -0.24309218 -0.33475652 -0.24648821 -0.42938024
000010 1f 64 8e be 82 8c c3 be d6 c1 03 be b3 f6 a9 be
       -0.2781076 -0.38193136 -0.12866911 -0.3319603
000020 1e ff 55 be d5 67 6f be 5c 9b 1d be 46 68 61 be
       -0.208981 -0.23379453 -0.15391296 -0.22012433
000030 54 89 04 bf de 0e ca be c9 0c fa be 26 22 dc be
       -0.51772046 -0.39464468 -0.4883788 -0.42994803
000040 4e 9b e9 be 76 d3 8e be 36 9e d5 be 59 e4 ba bd
       -0.456263 -0.27895707 -0.41722268 -0.09125585
000050 4d 86 ad be 7b 77 63 be 20 d8 39 be 50 3e 01 bf
       -0.33891526 -0.22213547 -0.18148851 -0.50485706
000060 01 1c f4 be 89 c1 89 be 15 bc 05 bf 7e 26 b2 be
       -0.47677615 -0.26905468 -0.52240115 -0.34794992
000070 cb 70 9b be e5 8d 9a be 86 67 13 bf 2b f2 99 be
       -0.30359492 -0.30186382 -0.5757984 -0.30067572

sequential/batch_normalization_2/batchnorm/mul f4 [48]
000000 46 f6 c9 40 4f 73 13 41 fd cf ce 40 f3 87 31 41
       6.3113127 9.2156515 6.462889 11.095691
000010 50 85 b8 40 30 7d d8 40 b4 e6 31 41 95 bd 95 40
       5.7662735 6.7652817 11.118824 4.6793923
000020 fc 30 1a 41 54 0c 95 40 56 a9 ea 40 b7 a2 88 40
       9.636959 4.657755 7.333171 4.2698627
000030 40 a2 c3 40 9c fa 63 41 e9 79 c5 40 78 80 35 40
       6.113556 14.248684 6.1711316 2.835966
000040 84 cb e6 40 9e 5f 52 41 3e ff 20 41 bb 35 b6 40
       7.212343 13.148344 10.062315 5.694059
000050 70 1e 73 40 8e d4 22 41 06 ad a0 40 05 e9 a3 40
       3.7987328 10.176893 5.021121 5.122195
000060 9f be ac 40 3d 4b 0f 41 cb c5 95 40 2d 8a f1 40
       5.398269 8.955869 4.6803946 7.548117
000070 01 d3 11 41 32 18 17 41 83 fa 84 40 0a 56 fa 40
       9.114015 9.443407 4.15558 7.823003
000080 98 82 d6 40 db a2 02 41 f7 d9 9f 40 b5 e6 0f 41
       6.7034416 8.16476 4.995357 8.993825
000090 33 65 f4 40 95 89 e8 40 11 9e 6c 40 1b 25 b2 40
       7.6373534 7.2667947 3.6971476 5.5670295
0000a0 ab 4e e1 40 92 e7 91 40 f5 35 bc 40 68 a6 a4 40
       7.040853 4.559518 5.8815866 5.1453133
0000b0 bd 2a 8b 40 0f 9e 35 40 d3 40 20 41 35 8f a3 40
       4.348967 2.8377721 10.015826 5.1112313

sequential/batch_normalization_2/batchnorm/sub f4 [48]
000000 07 12 c2 be 50 20 a3 be 0e 0a 03 bf f8 73 eb be
       -0.3790438 -0.3186059 -0.5118722 -0.45986915
000010 5c ef 9c be bb 78 b8 be 3b 28 a7 be ec 6f ba be
       -0.30651367 -0.3602961 -0.3264788 -0.36413515
000020 85 11 a4 be 11 c9 05 bf f0 d8 b2 be fd 45 b4 be
       -0.32044616 -0.5225993 -0.34931135 -0.35209647
000030 f0 57 f1 be 87 54 91 be f1 ca ba be b0 47 e2 be
       -0.47137403 -0.28384802 -0.36482957 -0.44195318
000040 41 ee 03 bf 97 79 17 bf 87 ff 62 be 6f 9a ec be
       -0.5153542 -0.59169906 -0.22167788 -0.46211573
000050 ca 43 bb be b0 cd 84 be ea 59 b1 be c3 50 96 be
       -0.36575156 -0.25938177 -0.3463891 -0.2935849
000060 e5 4f 13 bf 29 0e 25 bf 4a 91 ae be cf a5 8b be
       -0.57543784 -0.6447473 -0.34095222 -0.2727494
000070 79 b3 ae be 7c c6 23 bf c2 18 01 bf 7e 73 9b be
       -0.34121302 -0.6397474 -0.504284 -0.3036155
000080 b1 8e c2 be 71 4e 8c be f1 ad 9f be ab 80 9e be
       -0.3799949 -0.27403596 -0.31187394 -0.3095754
000090 86 cc 48 be 1c eb a6 be b8 52 89 be 71 7b 71 be
       -0.1960927 -0.3260125 -0.26820922 -0.23582245
0000a0 26 ca 09 bf 64 ed d2 be cc 02 d5 be a1 a1 1a bf
       -0.5382408 -0.4119674 -0.41603696 -0.60402876
0000b0 ed d1 19 bf 99 c8 b2 be 77 43 aa be b6 78 ed be
       -0.60085946 -0.3491867 -0.33254597 -0.46381158

sequential/batch_normalization_4/batchnorm/mul f4 [128]
000000 9b 05 2e 40 31 2e b9 40 4a 8b bb 40 9a bd 88 40
       2.7190921 5.7868886 5.860753 4.2731447
000010 0e 44 d2 40 da cc 7c 40 75 ff fc 40 83 ad d8 40
       6.5708075 3.9500031 7.9061837 6.7711806
000020 60 02 7f 40 cf 49 b0 40 0a 2b ac 40 e8 a5 4b 40
       3.98452 5.50901 5.380254 3.182001
000030 16 ef d2 40 08 68 ad 40 6d 6f b4 40 6f d1 00 41
       6.5916853 5.418949 5.638602 8.051131
000040 f6 ab 67 40 31 10 e7 40 c6 69 a7 40 83 1f 84 40
       3.6198707 7.2207265 5.231662 4.1288466
000050 81 2d 9e 40 9f bc b6 40 b9 ef 93 40 16 9b 26 40
       4.9430547 5.710525 4.623013 2.6032157
000060 57 93 bf 40 db ea 64 40 42 9b 7d 40 7c af b0 40
       5.986736 3.5768344 3.9626012 5.5214214
000070 db 60 f1 40 fa 09 8d 40 f9 93 df 40 aa 1b b7 40
       7.543073 4.407468 6.986813 5.722127
000080 0d 16 72 40 40 d9 b4 40 20 bf a3 40 b3 4b ca 40
       3.7825959 5.65152 5.1170807 6.3217406
000090 3c a5 9d 40 0a ba a3 40 6f b1 d6 40 63 9e a5 40
       4.92642 5.11646 6.7091594 5.1755843
0000a0 18 95 ca 40 dd fd d9 40 d1 8b b5 40 f1 b8 94 40
       6.3307 6.812239 5.6733174 4.647576
0000b0 c3 cf c6 40 b4 82 06 41 b3 6e a0 40 fb 76 c0 40
       6.2128615 8.40691 5.013513 6.014524
0000c0 85 2f 9e 40 cf e2 8e 40 1c 3e 62 40 d9 1b 2c 40
       4.9433007 4.4651866 3.5350409 2.6891997
0000d0 55 d3 ac 40 c0 26 ab 40 55 47 8d 40 59 d0 fe 40
       5.4007974 5.34848 4.4149575 7.962933
0000e0 24 11 01 41 7a c6 e2 40 b2 8d e9 40 84 6e bf 40
       8.066685 7.086728 7.298547 5.9822407
0000f0 c6 46 c7 40 aa c4 b3 40 c9 ea 90 40 f7 1d b1 40
       6.2273893 5.617757 4.5286603 5.534908
000100 72 13 ea 40 d9 d3 6a 40 d8 9d ae 40 b6 ba 9c 40
       7.3148737 3.6691802 5.456768 4.897792
000110 ee a5 e3 40 22 3d 03 41 77 ce 98 40 af 50 b2 40
       7.114005 8.202425 4.775203 5.572349
000120 35 84 ee 40 90 b2 9a 40 e6 d4 9c 40 f3 91 83 40
       7.4536386 4.834297 4.9009886 4.111566
000130 32 07 f2 40 6d 68 a3 40 8a 26 01 41 ba fc a1 40
       7.5633783 5.1064973 8.071909 5.0621004
000140 56 c9 bc 40 5f ca d9 40 75 6a a3 40 d4 c5 e2 40
       5.899577 6.8059535 5.1067452 7.086649
000150 45 b1 b4 40 8f 90 81 40 4d 69 95 40 83 4e 9e 40
       5.6466393 4.0488963 4.669104 4.947084
000160 c6 a2 c9 40 25 eb 8e 40 3c e1 87 40 c9 c8 db 40
       6.30112 4.466204 4.2462444 6.86826
000170 4d 14 b2 40 e8 3d b1 40 28 4b a3 40 5a 23 ca 40
       5.564978 5.538807 5.1029243 6.3168154
000180 c5 a5 92 40 33 34 c9 40 e7 c3 aa 40 1e 7d d0 40
       4.5827355 6.287622 5.336414 6.515273
000190 8d ab c1 40 e4 03 a6 40 45 63 c9 40 72 b1 a8 40
       6.0521913 5.187975 6.293368 5.271661
0001a0 14 9e d0 40 7b 28 e9 40 f0 0e 9d 40 1e 23 a0 40
       6.5192966 7.2861915 4.9080734 5.004287
0001b0 e0 58 94 40 e0 38 f1 40 d3 75 c1 40 bc 92 c1 40
       4.635849 7.5381927 6.045633 6.049162
0001c0 5a a1 bc 40 b5 f0 a8 40 53 00 c6 40 e4 ea 57 40
       5.894696 5.279383 6.1875396 3.3737116
0001d0 39 41 f5 40 31 66 f2 40 14 cc 80 40 25 c2 b8 40
       7.6642118 7.5749745 4.024912 5.7736993
0001e0 50 d0 b7 40 cf bf 8f 40 af 30 8c 40 55 68 3c 40
       5.744179 4.492164 4.380943 2.943868
0001f0 d3 78 a4 40 d7 82 e9 40 62 07 c3 40 7a a1 b0 40
       5.139749 7.2972217 6.094651 5.5197115

sequential/batch_normalization_4/batchnorm/sub f4 [128]
000000 da 41 ac be f2 06 ed be 2c a5 cd be 1a 83 00 bf
       -0.3364399 -0.4629436 -0.4016508 -0.50200045
000010 ab 22 df be 31 72 f1 be c0 e2 c0 be 9a df 72 be
       -0.43581137 -0.47157434 -0.37672997 -0.2371811
000020 e1 a6 cb be 96 3c ef be 28 04 24 bf 4b 0a f0 be
       -0.39775756 -0.4672591 -0.6406884 -0.46882853
000030 62 83 d0 be b0 dc 0c bf c1 95 f7 be da 8d 29 bf
       -0.40725237 -0.5502424 -0.4835644 -0.66232073
000040 55 64 17 bf f7 15 cf be 8e 1e 06 bf e0 8d e6 be
       -0.5913747 -0.40446445 -0.5239037 -0.45030117
000050 f4 96 02 bf be 84 cf be ca f0 0b bf 43 ba d7 be
       -0.51011586 -0.40530962 -0.5466429 -0.42134294
000060 91 14 ce be e5 cc db be 02 5d a5 be d1 cf 98 be
       -0.40250066 -0.4292976 -0.32297522 -0.2984605
000070 ff 10 f9 be d8 f8 d7 be 47 d8 0b bf da 92 e0 be
       -0.4864578 -0.4218204 -0.5462689 -0.4386204
000080 0f ae ea be e1 4c a0 be 32 d7 0a bf d6 3e b2 be
       -0.4583592 -0.31308654 -0.5423461 -0.34813565
000090 65 83 e9 be 77 c7 ba be 63 f1 9f be 6c 34 bb be
       -0.4560806 -0.36480305 -0.3123885 -0.36563432
0000a0 3b 89 e5 be 23 c6 a3 be 8f a7 16 bf 24 3d 04 bf
       -0.4483126 -0.31987104 -0.58849424 -0.51655793
0000b0 53 e5 ae be e6 1b 23 bf 70 c4 e0 be f4 99 f9 be
       -0.34159335 -0.63714445 -0.4389987 -0.4875027
0000c0 24 b0 db be be 6f 06 bf 61 d3 f8 be 5d 5e ae be
       -0.42907822 -0.52514255 -0.4859877 -0.34056368
0000d0 cf 6a f6 be b6 78 ea be 8a 1b 0c bf ef bc 02 bf
       -0.48128363 -0.4579522 -0.5472952 -0.5106954
0000e0 ee 15 86 be a4 35 a3 be ed 06 6c be c5 86 be be
       -0.26188606 -0.31876862 -0.23049517 -0.37212196
0000f0 36 e9 d4 be d9 5a 2d bf 4c 9a fe be 78 5f c6 be
       -0.41584176 -0.6771675 -0.49727094 -0.38744712
000100 d5 c4 cc be f5 67 e2 be ee 97 f9 be 4e 8c ab be
       -0.3999392 -0.44219938 -0.48748726 -0.3350548
000110 df df de be fc e6 1c bf 13 bd 14 bf 81 14 f3 be
       -0.43530175 -0.61289954 -0.58101004 -0.4747658
000120 92 86 01 bf 5f bc 0a bf ec 92 b9 be 3c 1a d9 be
       -0.50595963 -0.5419368 -0.36244905 -0.42402828
000130 da 0f 8e be 44 40 06 bf 2f c3 14 bf 1b 17 b9 be
       -0.2774647 -0.5244181 -0.58110327 -0.3615044
000140 8f c2 df be 2a ad 07 bf 5d 22 15 bf 9c 93 ec be
       -0.43703124 -0.529986 -0.5825556 -0.46206367
000150 ca de b7 be ac 5e d2 be f8 d7 03 bf 3f 31 1f bf
       -0.35912162 -0.41087854 -0.5150142 -0.6218452
000160 32 89 db be be 97 02 bf 2d 00 d5 be d7 a8 11 bf
       -0.4287811 -0.5101279 -0.41601697 -0.56898254
000170 cd bd e6 be 2c 3e e9 be 9b cc c9 be a4 e5 18 bf
       -0.45066682 -0.45555246 -0.39413914 -0.59725404
000180 f4 47 14 bf 13 80 f6 be 79 4b d8 be 68 7d f4 be
       -0.5792229 -0.48144588 -0.4224508 -0.47751927
000190 16 7e 1d bf 8d 07 1c bf 60 12 c8 be 53 92 da be
       -0.61520517 -0.6094902 -0.3907652 -0.42689762
0001a0 02 24 20 bf 3b 21 dc be 19 7d 10 bf ea c2 dd be
       -0.62554944 -0.42994103 -0.56440884 -0.4331277
0001b0 9e a2 b9 be 17 ef 1e bf 09 11 20 bf f5 32 10 bf
       -0.3625688 -0.6208357 -0.62525994 -0.56327754
0001c0 3c 5d a9 be a6 d1 af be 93 81 0f bf c5 12 10 bf
       -0.33078945 -0.34339637 -0.5605709 -0.5627864
0001d0 d6 e1 db be ef 5f 29 bf ce 39 c8 be 19 04 de be
       -0.42945737 -0.6616201 -0.391066 -0.433625
0001e0 4b a3 98 be ff 02 f5 be 54 ca bd be 00 2f c9 be
       -0.29812083 -0.47853848 -0.37068427 -0.3929367
0001f0 94 66 b5 be d2 01 17 bf bc 5f c3 be eb 3f d6 be
       -0.35429823 -0.5898715 -0.38158977 -0.4184564

sequential/dense/MatMul/ReadVariableOp/transpose f4 [32, 8]
000000 5d 62 ee 3c ba 51 fc 3a 67 f0 9e 3c 74 9d b1 bc
       0.029099638 0.0019250431 0.019401742 -0.021681525
000010 94 40 af 3d 9d 60 e5 bc 69 83 23 3d 88 8d 75 bc
       0.08557239 -0.02800017 0.039920244 -0.014987357
000020 a1 c6 75 3d 7f a9 15 bd ed a8 7f 3d 3c c1 9b bd
       0.06000388 -0.036538597 0.06241696 -0.07605216
000030 3c 09 17 bd 6f 1c 87 3d ad d7 81 bd 95 e4 b8 bb
       -0.03687404 0.0659722 -0.06339965 -0.0056424835
000040 46 8d 2d 3d 0a 2e 56 bb fe 81 84 3c 3d ff 24 bd
       0.042371057 -0.003268125 0.016175266 -0.040282477
000050 2b 32 85 3d 7e 48 9c bd a3 bd a3 3d db 89 07 bd
       0.065037094 -0.07631014 0.07995155 -0.033090454
000060 3c a2 3b bd 6c 69 2a 3d 47 55 2f 3c 04 d3 a3 bd
       -0.045809016 0.041604444 0.010701484 -0.079992324
000070 94 e7 94 bd d0 d2 3c bd fb db 35 b9 eb b8 81 b9
       -0.072707325 -0.046099484 -0.00017343454 -0.00024742572
000080 39 98 ac bb a5 c9 9d 3d 67 ca 48 3d 01 94 85 3d
       -0.00526717 0.07704476 0.04902115 0.0652237
000090 c1 10 77 bd 0f e3 6b 3c 97 9e 79 3c 70 2e 63 bd
       -0.060318712 0.014397397 0.015235565 -0.055464208
0000a0 eb 1b b2 bc 18 ac ee 3d b8 e0 32 3d 94 92 46 3c
       -0.021741828 0.11653918 0.04367134 0.012119908
0000b0 b3 7e 66 bd 64 14 52 bd 5d 8d aa 3d 58 fb 8b 3b
       -0.056273174 -0.051288977 0.08327744 0.004271906
0000c0 2c 44 01 3b 72 b7 00 bd 32 7f 81 bd c5 14 9c 3c
       0.0019724471 -0.031424947 -0.06323089 0.019052872
0000d0 91 e8 c6 3c 0f ab 55 3d 9c b0 ec bc 35 75 e2 bc
       0.024280818 0.052165087 -0.028892808 -0.02764378
0000e0 5d 91 af 3d 22 88 e9 bb 91 ca 80 3c 6a 84 d8 3c
       0.08572648 -0.007126824 0.015721591 0.026430327
0000f0 e2 08 48 bc 3d 76 8e 3c ce 71 92 bd 29 f2 d2 bb
       -0.012209149 0.017390365 -0.07150613 -0.006437559
000100 62 4e 88 3d 7c 4a 1d bd 55 a6 89 3c fc 42 c7 bd
       0.06655575 -0.038401112 0.016802946 -0.09729573
000110 e8 23 15 3d be 78 21 3d e4 0d 21 bd 33 94 0f 3d
       0.036411196 0.03942179 -0.039319888 0.035053443
000120 10 d8 e3 3c 04 74 7c bb d2 57 7c bb ac 78 73 3d
       0.027812988 -0.00385213 -0.0038504493 0.059441254
000130 14 57 67 bd d0 c0 ba 3c 95 28 f3 bd ce 69 66 bd
       -0.05647953 0.022797018 -0.11872975 -0.056253247
000140 0c 27 4b bb ad 93 80 bc ce b5 61 bc 33 7a 53 bc
       -0.0030998616 -0.015695417 -0.013776256 -0.0129075525
000150 46 f8 b4 3c 3f b4 6e 3d 60 73 29 bc 1c 7b 2d bc
       0.022091042 0.058277365 -0.010342449 -0.010588434
000160 c9 bf dc bd e2 0f 26 3d 0d 52 8b 3c 12 c1 18 3d
       -0.107787676 0.04054249 0.017006898 0.0372935
000170 a8 4e 4b 3d 95 50 cb bd fb f9 bd 3c 19 ba 12 bd
       0.04963556 -0.09927479 0.023190489 -0.035822008
000180 9f 83 95 bc 8c 57 26 3d fb 30 90 3c 2b 68 23 3d
       -0.018251238 0.040610835 0.01760148 0.039894264
000190 70 eb 46 3c cf 44 99 3d 8b b7 2f bc f3 ea 47 3d
       0.012141094 0.07483827 -0.010724912 0.04880805
0001a0 19 d9 bf bc 94 45 60 3d d6 3e ae 3d 24 9d 99 3d
       -0.02341895 0.054753855 0.08508079 0.07500675
0001b0 80 a5 b1 3c d0 8e b9 3c c9 e0 8b bc ca df 94 3a
       0.021685362 0.022651106 -0.01707496 0.0011358198
0001c0 29 4b 35 3d 82 98 ae bd 4e c4 be 3c d3 76 97 3b
       0.04426113 -0.08525182 0.023286965 0.0046223192
0001d0 11 8f 86 3c e3 d4 a9 bd 25 0e 75 bd c9 17 ba bd
       0.016425641 -0.08292558 -0.059827942 -0.09086568
0001e0 9d 7c 8d bc 00 52 9a 3c ba df c8 3c a0 a4 ab bb
       -0.017271334 0.018837929 0.024520744 -0.0052381307
0001f0 9b a2 06 bd 8a fc 2d bd 71 24 da ba 04 5e 55 bd
       -0.032869916 -0.04247717 -0.001664294 -0.052091613
000200 91 58 51 bc cc 04 d8 3b da ad 1c bd 36 b9 4d bd
       -0.0127774635 0.0065923687 -0.038251735 -0.05022546
000210 e8 7e 9c bc fe a1 6b 3c da 82 e9 bc 90 af 37 3d
       -0.019103482 0.014381884 -0.028504778 0.044845164
000220 e3 cd 8f bc 6b dd a5 3c e1 fa 0d 3e 4b 32 58 3c
       -0.01755423 0.020247182 0.13865234 0.0131955845
000230 ac f4 06 bb 3d 8a 1d 3d 1d c7 d8 bc a2 94 12 bc
       -0.0020592613 0.038461912 -0.026462132 -0.00894657
000240 4f 83 92 3d 0a f9 4a 3d 39 3a 45 bb fb fc b3 3b
       0.071539514 0.04955391 -0.0030094518 0.005492804
000250 9b f1 e7 ba 78 23 86 bc 7f 4b c9 bc 52 6f 1d 3d
       -0.0017695905 -0.016374335 -0.024572132 0.03843624
000260 17 80 b0 bb 86 11 d1 bb 2a 24 d3 3c e9 6e ee bc
       -0.0053863632 -0.006380263 0.02577408 -0.02910562
000270 87 4c 9b bb 55 4a ed bc aa 51 18 bb d4 ad db bc
       -0.0047393474 -0.028966108 -0.0023242035 -0.026816286
000280 5a e9 53 3d 73 9b cd 3c 5e af eb bc ac 9e 18 3c
       0.051736213 0.025098538 -0.028770145 0.009315174
000290 27 88 7b 3c fc 5a 8d bd 09 ad 49 bc 76 73 e8 bc
       0.0153522855 -0.069021195 -0.012309321 -0.028375369
0002a0 be b3 4e bb 0c ab 19 3d 78 83 f0 3c 0f 6b e8 3c
       -0.003154024 0.03751664 0.029359564 0.028371362
0002b0 01 99 22 bd 60 20 5f 3c af 03 14 3c 6a 11 f4 bc
       -0.039696697 0.013618559 0.009034081 -0.02979346
0002c0 32 07 6d bd 53 a0 a2 3d f6 dd c2 3c 74 f0 49 bd
       -0.05786819 0.07940736 0.02378748 -0.04930158
0002d0 5b 74 7a 3d 01 77 20 3d 95 fc f3 bc bf 03 cf 3a
       0.06114612 0.03917599 -0.029783526 0.0015793963
0002e0 39 1e 98 bd f1 81 8e 3d 4c 79 8c bd b3 22 91 bc
       -0.074276395 0.06958378 -0.06859073 -0.017716741
0002f0 e2 c2 8b bd 4b c4 aa bd 5d a7 5a 3d 27 42 2f bb
       -0.0682428 -0.08338221 0.053382266 -0.002674231
000300 4d b1 11 bd 5b f3 6a bd fe 14 bf 3c 6e 2c 35 3d
       -0.035569478 -0.057360988 0.02332544 0.044231825
000310 ee d7 00 bd 4d 94 ad bd 1b 46 93 3a 7a d4 c6 bd
       -0.031455927 -0.08475552 0.0011236103 -0.097084954
000320 99 24 de 3d 5a c0 85 bc 20 1d f7 bc 78 85 36 3d
       0.10846824 -0.016327072 -0.030165255 0.04456088
000330 6f 7b 79 bd 9b bd 21 3d d7 86 85 bd 8e 48 ee bc
       -0.06090873 0.039487462 -0.06519859 -0.029087331
000340 2c 13 d6 bd b3 1c ef bc 8a 40 22 3d d2 47 73 3d
       -0.104528755 -0.02918849 0.03961233 0.059394665
000350 f5 27 92 b9 9b 41 14 3d c2 cf 59 3d fd c8 93 bc
       -0.0002787706 0.03619538 0.05317665 -0.018040175
000360 9c e4 57 3d 1c d5 ea bd 40 33 3b 3d ad 0c 37 3d
       0.052708253 -0.11466429 0.045703173 0.044689823
000370 8a eb 98 3b 7d be 33 3d 5d a6 b8 bd eb 2b 04 ba
       0.0046667503 0.043882836 -0.09016106 -0.00050419447
000380 c1 cf 16 bd c6 90 19 3d cd a8 a9 3c 84 e8 29 3c
       -0.036819223 0.037491582 0.020710373 0.010370377
000390 20 4f d5 3d ee 51 c8 bd 3d ce da bc af ec 05 3c
       0.104154825 -0.09781252 -0.02670967 0.008174106
0003a0 0e 0d 73 3c 59 d4 2b 3d 70 ad 9d 3d 2b 4f 1d 3d
       0.014834655 0.041950557 0.07699096 0.03840558
0003b0 05 39 d0 3c a0 7d 94 3d 95 81 c8 bc da 8b 83 bd
       0.025417814 0.072505236 -0.024475852 -0.06423159
0003c0 12 8a fd bc 74 49 60 bb f7 d0 ae 3c ce 1f 31 bc
       -0.030949626 -0.003422347 0.021339877 -0.0108108055
0003d0 25 2c 54 bd b5 8c 2e 3d 52 cb e3 3d 1f 93 ff 3b
       -0.051799912 0.042614657 0.11122765 0.0077995206
0003e0 f8 4c 51 bd 16 65 e8 bd 84 4a 96 3d 61 e4 aa bd
       -0.051098794 -0.113474056 0.073384315 -0.08344341
0003f0 2e 01 e8 bd db 36 66 3c 8e 11 e9 3b ec 23 bb bc
       -0.1132835 0.0140511645 0.0071126884 -0.022844277

sequential/dense/MatMul_bias f4 [32]
000000 49 2c 6d bc af 60 82 3a 8b 7b 5e bc ee 28 24 3c
       -0.01447589 0.0009947027 -0.01357926 0.010019524
000010 a4 c5 a5 bc 24 ae 05 bc b9 08 b1 bc 39 fc 1f bc
       -0.020235844 -0.008159194 -0.021610605 -0.009764724
000020 8d f1 7a bc 9b 0c a9 bc bc 92 27 bc 91 77 aa bc
       -0.015316379 -0.020635894 -0.010227855 -0.020808967
000030 0b 3e a1 3c 91 85 7c 3c d4 13 ac 3c ee 50 49 3c
       0.019682905 0.015412704 0.021005549 0.012287362
000040 28 0e c0 3b 53 b1 be bc cc fe fc 3a 74 65 b9 bc
       0.0058610626 -0.023277914 0.001930201 -0.022631384
000050 fa cd 90 bb 4f 20 17 bc 9b 0c 69 bc 85 b2 aa 3c
       -0.0044190856 -0.009224012 -0.014224197 0.020837078
000060 89 04 94 3c 3c 81 88 bc f0 2b a1 3c 28 75 49 3a
       0.018068569 -0.016663186 0.019674271 0.0007684999
000070 f8 f7 4b bc 72 72 81 bc b1 ee 01 3d 77 50 d7 bc
       -0.012449257 -0.015801642 0.031721774 -0.026283486

sequential/dense_1/MatMul/ReadVariableOp/transpose f4 [48, 32]
000000 d2 10 81 3a 31 2e cc 3c 1d ab 73 3d 21 f2 83 3d
       0.0009846932 0.02492437 0.05948936 0.06442667
000010 da f9 39 bd 51 29 4d bd 8d 77 29 bd 4e 2b 36 bb
       -0.045404293 -0.05008823 -0.041373778 -0.0027796808
000020 19 b3 31 bd fc bc ba bd 54 98 62 3d 43 df d1 bc
       -0.04338369 -0.09118077 0.055321053 -0.025619155
000030 fa 9b 0e bd 2c 27 ef bc 42 c3 3c 3d 8f 39 7b 3b
       -0.03481672 -0.029193483 0.04608465 0.0038333868
000040 2a c4 69 3c b9 cc 81 3d a3 d7 c1 bb 85 48 3a 3d
       0.014267961 0.06337876 -0.0059155985 0.045479316
000050 8d 31 41 3d bd c6 4f bd de 92 2e bd 11 cb 16 bd
       0.047166396 -0.05072664 -0.042620532 -0.036814753
000060 44 76 92 3d 76 11 e7 3c f0 ee 13 bd ac e7 40 3d
       0.07151464 0.028206568 -0.03611654 0.04709594
000070 82 6c 38 3d 19 7c 27 3d 10 70 ef 3c fa c4 7c 3c
       0.045025356 0.040889833 0.02922824 0.015427822
000080 61 c0 f8 bc 52 e2 6c bc c8 ea 6a 3c c8 0f 42 bc
       -0.03036517 -0.014458256 0.014338203 -0.011844583
000090 87 ea a8 3c d1 61 b2 bc 4a 01 e9 3c 1d 26 72 3d
       0.020619644 -0.021775158 0.028442997 0.05911838
0000a0 d1 c8 ce bd c6 94 e8 3c 60 08 03 3d 5c 48 16 3a
       -0.100968964 0.028391253 0.03199041 0.0005732828
0000b0 1f 58 f4 bb 67 f2 8c 3c 51 a9 8c 3d 36 18 6d bd
       -0.007456794 0.01720543 0.06868232 -0.057884417
0000c0 70 36 f5 3c 16 a3 7a bd 5e 66 13 bc 9c f4 9f 3c
       0.029933184 -0.061190687 -0.008996574 0.019525819
0000d0 ef 0a 38 3d 33 71 c2 bd bd a4 28 3c e6 1c 7e bd
       0.044932302 -0.09494247 0.010293183 -0.06203928
0000e0 6b 22 a6 3c 61 bc 64 b9 9e 5a eb 3c e4 b8 69 bc
       0.020280084 -0.00021813951 0.028729733 -0.014265273
0000f0 45 04 99 bc 69 d7 15 3c f6 1c 25 3b 8b a0 40 bc
       -0.018678794 0.009145596 0.0025194264 -0.011757026
000100 47 4c 7e bd bb c1 21 bd 99 30 19 3c 37 ab 5e bc
       -0.062084462 -0.039491396 0.0093499655 -0.0135906255
000110 7e f8 9b bc bb ab 6c bd 0d 3b fc bc a8 d9 52 3d
       -0.019039389 -0.057780962 -0.030789876 0.051477104
000120 7e 32 e8 bc 84 90 d2 3b 73 02 73 3d 59 61 77 bc
       -0.028344389 0.006425919 0.059328508 -0.015098893
000130 06 d1 11 bb 95 33 7c bc 4d d8 c8 bc 88 6a 03 3d
       -0.0022249832 -0.0153931575 -0.024517203 0.032084018
000140 e4 31 c8 bd 8f f4 e5 bc 65 00 df 3c b9 02 fa bb
       -0.09775141 -0.028070716 0.027221868 -0.007629719
000150 35 6c 6a bd b6 02 6e 3c 24 ed bf 3d f2 90 b7 bb
       -0.0572321 0.0145270135 0.09371403 -0.0056019956
000160 a0 1b b9 bd 02 49 31 3d eb 39 de 3d 47 ee 05 3d
       -0.09038472 0.043282516 0.10850891 0.032697942
000170 42 36 7f 3d 91 be 93 bb 20 a3 b6 3c c1 ce 28 3d
       0.062307604 -0.0045088013 0.022294581 0.0412128
000180 cc c6 5f 3d 36 a6 8d 3c 2f d7 ba bd c2 2d 4f 3d
       0.054632947 0.01729117 -0.09123074 0.050580747
000190 54 c6 e7 bc 71 17 4c 3d b4 ff 5e 3d 5e 14 cc bd
       -0.028292812 0.049827043 0.054443076 -0.09964822
0001a0 5d d2 c1 3c 02 3f c3 bc fe 97 9a bb db c4 bf bc
       0.02365988 -0.023833755 -0.004717826 -0.023409298
0001b0 66 db 9d bc 87 7f cb bc a1 96 21 bd fb 52 94 b9
       -0.019269656 -0.024841083 -0.03945029 -0.00028290585
0001c0 77 20 08 bd 1f 0e 05 3d 0e d6 b4 3c 45 a2 a2 3b
       -0.033234086 0.03248417 0.022074725 0.0049631917
0001d0 7f a8 a5 3d d3 9b ef 3c e3 62 7c bd 99 00 43 3b
       0.08088779 0.029249107 -0.061617743 0.0029754995
0001e0 af 2f f6 bc 2d 19 b9 bd 6b 11 6f 3b 94 7b ba bc
       -0.030052034 -0.09038005 0.0036478888 -0.022764005
0001f0 79 e5 7c 3c e1 e5 b1 3d 43 23 bf 3c 37 69 cf bc
       0.01543557 0.08686424 0.023332244 -0.025318725
000200 7e d5 e2 3c 39 3f 6d ba e7 a8 01 bd 1e 13 7d bc
       0.027689692 -0.00090502534 -0.03165522 -0.015446452
000210 ef 32 df bc 1c 67 25 3b 74 73 cd 3d 1f bc 4d 3c
       -0.027245967 0.002523846 0.100317866 0.012557059
000220 24 b2 b7 bb 1b 18 c3 bb 38 f3 d0 bd fc 99 98 bd
       -0.005605953 -0.0059538013 -0.1020264 -0.07451245
000230 62 6f fd 3c b1 ee 5e bc 5a d7 70 bd 57 c0 fc bc
       0.0309369 -0.013606713 -0.058799125 -0.030853434
000240 72 f7 6c 3d 73 8f 33 ba 8b 94 47 3d 09 21 31 bc
       0.05785317 -0.00068496837 0.048725646 -0.010811099
000250 9f 3f b1 3c 0b c8 7f bd 88 37 da 3c 89 42 70 3d
       0.021636782 -0.062446635 0.026637807 0.058657203
000260 68 65 b8 bc a2 3d 5d bb 9b 05 91 3d 55 ef bc 3d
       -0.022509292 -0.003375866 0.07081147 0.092253365
000270 fa 3a 0c bd 24 a0 64 bc c8 69 6d 3d 05 12 c3 3c
       -0.034235932 -0.013954196 0.05796221 0.023812303
000280 b4 28 3b bd 46 7d 22 bd 2f 97 13 3d 40 55 83 3c
       -0.045693114 -0.03967025 0.03603285 0.016031861
000290 25 e6 12 bd 0f 11 c3 3c d5 9a 37 3d 40 6a 53 bc
       -0.035864014 0.023811845 0.044825394 -0.01290375
0002a0 ec 43 55 3d 22 ef 86 3d 17 1f 12 bc d3 1f 10 3c
       0.05206673 0.0658858 -0.008918545 0.00879665
0002b0 a3 f9 82 3d ed 84 5a 3d 21 4d 25 bb c0 0d 89 3c
       0.06395271 0.053349424 -0.0025222974 0.01673019
0002c0 d6 d4 98 3b 65 52 52 3d b9 72 53 3c 53 f2 70 bd
       0.004664044 0.05134811 0.01290577 -0.05882485
0002d0 a3 aa 8e 3c 68 b3 99 bc 5f d1 56 bd d8 a1 d2 3c
       0.01741535 -0.018762305 -0.052445766 0.025711939
0002e0 39 df 62 bd 09 9d 69 bb ea 15 eb 3c ae cc 4d bb
       -0.055388663 -0.0035646579 0.028696973 -0.0031402516
0002f0 2b f4 0c 3b 50 83 a2 3d 4e 4c 7b 3d 00 af d8 bc
       0.002150784 0.07935202 0.061352067 -0.026450634
000300 bd 5a 0d bb 78 b6 c5 bc 72 55 de 3b 1a 65 b7 3b
       -0.0021568977 -0.02413486 0.006785088 0.005596769
000310 ed 51 96 bc 83 a7 fb 3c 31 71 89 bc 2f c0 39 bc
       -0.018349612 0.030719524 -0.016777607 -0.011337324
000320 8a c5 c2 3c 84 83 cb bc 2b a2 34 bd 00 38 30 bd
       0.023775835 -0.024842985 -0.044099968 -0.043022156
000330 74 41 36 3d d3 b2 33 bd 8a af 24 3d e5 66 4d 3d
       0.044496015 -0.043871712 0.04020647 0.050146956
000340 ea 30 69 bd de cb 59 3d be d4 9e ba cb 68 58 3d
       -0.056931414 0.05317294 -0.0012117845 0.052834313
000350 8f 25 ba 3b f8 8a c9 bb e6 84 36 3d 01 c7 4f bd
       0.005680747 -0.0061505996 0.044560336 -0.050726894
000360 fa 75 28 bd 91 4e 15 3d 42 e7 3d 3d 1e ea 87 bc
       -0.041128136 0.03645188 0.046363123 -0.016591128
000370 12 9e 89 ba c0 46 d3 3b 2b 80 32 bd c6 b4 6e 3c
       -0.0010499379 0.006447643 -0.04357926 0.014569467
000380 9e f6 ad 3a 05 47 f8 3b c9 90 92 3d 1e 04 aa bd
       0.001327235 0.0075768256 0.07156522 -0.083015665
000390 e1 ac 80 bd 31 ae b3 3d 6e 55 96 bb 78 c0 30 3d
       -0.06282974 0.08773459 -0.0045878207 0.043152303
0003a0 31 ab 38 bd a3 a6 06 3d 7b a7 82 bc 96 67 4f 3c
       -0.045085136 0.03287376 -0.015949002 0.012658974
0003b0 ae 5f 3c 3d a9 e7 b0 3c 13 ae 98 3c 36 61 00 bd
       0.045989685 0.02159484 0.018637693 -0.031342708
0003c0 aa d6 8e bd 3f c0 c2 3b d3 14 31 3d 1f 62 cb 3b
       -0.06974538 0.0059433277 0.04323275 0.0062067653
0003d0 70 22 0a bd 5a 8c 2e 3d 5c 24 30 bc 1d 77 0a 3c
       -0.03372425 0.04261432 -0.010750856 0.00845125
0003e0 2b c2 0b bc 98 d3 5f bc 91 01 6d 3d 5e f7 06 be
       -0.00853018 -0.013661288 0.057862822 -0.131803
0003f0 10 87 dd 3c 1e 8d 71 bd 69 ce 36 bc 4d 48 57 bd
       0.027041942 -0.05897247 -0.01115761 -0.052559186

sequential/dense_1/MatMul_bias f4 [48]
000000 3b 0c 93 3c 67 31 7c bc 75 19 bc 3c b0 29 63 3b
       0.017950168 -0.015392638 0.022961358 0.00346623
000010 c2 c9 98 bc a0 4f 14 bc 67 bb 29 bc 92 5f 4f bc
       -0.018650893 -0.009052187 -0.010359622 -0.012657063
000020 d3 80 84 bc 8a 08 14 3d e8 d8 58 bc 1f cc e5 bb
       -0.01617471 0.036140956 -0.013235308 -0.0070128585
000030 72 ca 93 3b cd 6f 1f bc 43 b5 52 bb 24 ad 04 3b
       0.0045102173 -0.009731245 -0.0032151497 0.0020244801
000040 3f 32 9d 3c 3e 1a f1 3b 37 89 26 bd cf 6f a6 3c
       0.019188998 0.0073578646 -0.040658202 0.020316986
000050 c7 6a d3 3b 00 55 0d bc 91 0e 1c bc 12 cf 94 b9
       0.006451938 -0.008626223 -0.009524957 -0.0002838304
000060 93 e1 12 3d b3 48 72 3c c8 f0 78 bc d2 35 de bc
       0.035859656 0.014787841 -0.0151941255 -0.027125273
000070 be e9 bd bb a3 b9 e5 3c 30 3d e7 3c 65 b3 1f bc
       -0.0057956865 0.02804262 0.028227419 -0.009747361
000080 a5 5c 0f bc e6 6c e5 bc 4e 54 cf bc 0f c7 81 bc
       -0.0087501155 -0.028006028 -0.025308754 -0.015841989
000090 28 48 09 bd 47 40 88 bc 4f e1 f0 bc ba cd 55 bd
       -0.03351608 -0.016632212 -0.02940431 -0.05219815
0000a0 17 fb 9c 3c 2f d6 64 3c 68 65 3d 3c 9c f2 33 3d
       0.019162698 0.013967081 0.011559822 0.043932542
0000b0 17 30 08 3d 7d 55 b1 bb 94 bc 9d bc a0 d9 84 3b
       0.033248987 -0.0054118023 -0.01925496 0.0040542632

sequential/dense_2/MatMul/ReadVariableOp/transpose f4 [64, 48]
000000 ff 8e 84 be 74 b3 94 be e7 40 79 bf c8 33 e4 3e
       -0.25890347 -0.29043162 -0.9736466 0.44570756
000010 a7 66 13 3f 77 0b 64 3e d2 3e fd 3e 15 1e 93 be
       0.5757851 0.22269998 0.4946199 -0.28733888
000020 9b 11 00 be 87 75 e0 3e 4f ad 29 bd 6c a1 da 3d
       -0.12506716 0.43839666 -0.041425046 0.1067532
000030 13 61 7f 3e 1e dc 4a 3f 8c 17 f4 bd c8 f6 06 bf
       0.24939375 0.7924212 -0.11918554 -0.5272031
000040 86 4d b3 be c5 58 03 3f 54 09 26 3d 88 61 4c 3f
       -0.35020083 0.51307327 0.04053624 0.7983632
000050 98 0d 1a 3e f0 f8 de 3e 93 d2 2f bf 5c 12 00 bf
       0.15044248 0.435493 -0.68680686 -0.50028014
000060 d1 05 a8 3d e9 83 8b bf 07 e9 f2 3d 44 87 43 3e
       0.082042344 -1.0899631 0.11860853 0.19094568
000070 25 30 ef 3e cf 28 36 bf d5 45 58 3f 70 59 84 3e
       0.4671642 -0.7115602 0.84481555 0.25849485
000080 06 bd 88 3c 27 4a 20 3f 6e 5f b3 3e 2d 89 cb 3e
       0.016691696 0.6261315 0.35033745 0.39753094
000090 f8 8b b6 be a1 6e b0 be d8 bc 2b bf b1 f4 2e bf
       -0.35653663 -0.34459403 -0.6708503 -0.6834212
0000a0 ae 1c 61 bf f2 05 3a bf e1 c7 c1 bc fa cd 63 bd
       -0.87934387 -0.7266532 -0.02365488 -0.055616356
0000b0 1b d8 34 bf 46 80 b7 bd 67 2f 31 3e 83 48 8c 3e
       -0.7064225 -0.08960013 0.17303239 0.27399072
0000c0 d9 87 3c be 12 c9 5c be 2c d3 23 3d e9 96 69 3f
       -0.18411197 -0.21561077 0.03999631 0.91245896
0000d0 7a 59 fd be 42 aa fa bc 0d 94 85 3e d6 1f 2d bd
       -0.49482328 -0.030598763 0.26089516 -0.04226669
0000e0 25 39 88 be e6 0c ec 3e 60 90 8b be 97 81 75 3e
       -0.26606098 0.4610359 -0.27258587 0.23975216
0000f0 f9 8d 47 be 0b 12 7f bd 7b 77 24 be f5 ef 34 bd
       -0.19487752 -0.062273066 -0.16061203 -0.044174153
000100 98 7c bd 3e 84 c3 84 bd 52 3a 17 3e b5 27 21 bf
       0.3700912 -0.06482604 0.14768341 -0.62951213
000110 9f f4 10 bf c8 a4 18 bf cb 62 c2 3e af 49 61 bd
       -0.5662326 -0.59626436 0.37965998 -0.05500191
000120 9c 5e 69 be ae 85 8f bd ac 62 8c 3d 95 ff 01 3e
       -0.22789997 -0.07007919 0.06854758 0.12695153
000130 0a 0a 1f 3f 08 93 58 be 2e 70 9e be cc 04 85 3d
       0.62124693 -0.21149838 -0.3094496 0.064950556
000140 14 3a 78 3e 5a ec ca be c2 2f a1 3d fd d9 63 bd
       0.24240905 -0.39633447 0.07870437 -0.05562781
000150 5e 71 86 3e c8 d7 1d be 92 4f d8 bc 6f f8 fb 3d
       0.26258367 -0.15414345 -0.02640513 0.12303244
000160 05 84 f9 bd 12 67 50 3e b2 7b c0 be 09 fd 36 3e
       -0.12183384 0.20351818 -0.37594372 0.17869963
000170 7b 5e 7b bc ec a6 a3 be 09 94 cb 3d f9 26 bd 3d
       -0.01534235 -0.3196329 0.09940345 0.09235949
000180 3e ce 22 be d1 83 2e 3e 18 17 26 3e 9e 46 28 be
       -0.15898988 0.17042471 0.16219747 -0.16433188
000190 2e 37 09 be f2 89 bc bd a5 4c c7 3c 93 36 28 3c
       -0.13399956 -0.092059985 0.02432854 0.010266918
0001a0 2a 3c b2 bc 95 86 a2 3a 86 64 61 bc 1b 43 e8 bc
       -0.021757204 0.0012399728 -0.013756877 -0.02835231
0001b0 e6 5c a5 3d 04 2a 0f be d0 aa 6b bd c4 d7 ab 3c
       0.080743596 -0.13980871 -0.057535946 0.020976909
0001c0 6c a5 70 be f3 16 04 3e 41 39 47 3e e6 53 98 bc
       -0.23500603 0.1289938 0.19455434 -0.018594693
0001d0 dd 09 63 be c2 b0 48 3e 03 07 6b bd 32 24 ab 3d
       -0.22171731 0.19598678 -0.057379734 0.08356513
0001e0 7e 57 b8 3e 1d d2 a7 3d ca bd 83 bd 44 a7 68 3d
       0.3600425 0.08194373 -0.06432684 0.056800142
0001f0 f7 d7 4d bd 88 2e 9a be 87 ce 53 3c 73 02 4b bc
       -0.05025479 -0.30113626 0.012927658 -0.012390721
000200 ee 39 af bc 66 79 26 be cf 7d ab 3c ea ce da bb
       -0.021389928 -0.16257247 0.020934014 -0.006677498
000210 6c 7e 18 3d 23 e2 4b bd 7a 05 b4 3d bf 4a be 3c
       0.03722994 -0.049776208 0.08790107 0.023229001
000220 ec dc db bc 9e 3b aa 3c 71 b1 2d 3d 76 07 8a 3d
       -0.026838742 0.02078038 0.04240555 0.06739704
000230 14 0e 25 bd 5f 8a d9 3c bc a0 03 3e 14 64 a5 3c
       -0.04029663 0.026555238 0.12854284 0.020189323
000240 08 29 67 3e c0 82 28 3e 26 a0 4e 3d 6a fa fc 3d
       0.22574246 0.16456127 0.0504457 0.1235245
000250 0c 10 b7 be 6e 6a c7 3e 80 b4 1c 3f 1f b8 1e 3f
       -0.3575443 0.38948387 0.6121292 0.61999696
000260 83 20 f8 3e b4 ca 0c bf fe 88 f2 3e 82 bc 30 3e
       0.48462304 -0.549968 0.47370142 0.1725941
000270 f1 1c cb 3c 83 41 d6 bd e2 e3 d8 be 58 b2 9b 3e
       0.024794074 -0.10461714 -0.4236136 0.30409503
000280 68 f7 88 be 81 2c 13 bf e6 1b 3a 3f e6 2c d4 be
       -0.26751256 -0.5748978 0.7269882 -0.41440505
000290 84 e3 14 3e e1 14 33 bd 06 83 cb 3d 9e 88 1e bf
       0.14539915 -0.043721084 0.099371 -0.6192721
0002a0 0d 2a d2 be 0e da 6e be aa 71 2e 3d 75 5b 11 3f
       -0.41047707 -0.23325369 0.042588867 0.5678018
0002b0 ae 20 19 3f 79 88 63 be c4 97 05 be a2 c9 af 3e
       0.5981549 -0.22220029 -0.13046175 0.3433352
0002c0 23 53 ae bc ef e3 b2 be 8f 49 11 be 00 cb 3c 3d
       -0.021279877 -0.34939525 -0.14188217 0.046092033
0002d0 6e 32 7e be b4 88 15 3e a9 0b 10 3e 24 6a d9 3e
       -0.24823925 0.1460293 0.14066948 0.4246379
0002e0 d7 cb 48 be fd 24 5d 3e 9c 64 a1 3e 3f 5d 3f 3f
       -0.19609009 0.21596141 0.3152207 0.7475166
0002f0 56 a7 da 3e c5 ef e9 be 7e e0 8a 3e 9c 4d 0e be
       0.42705792 -0.45690742 0.271244 -0.13896793
000300 5f 7f 57 3d a2 5e 86 bb 8b 5e fd bb 9f 5a 0e bf
       0.052611705 -0.0041006366 -0.0077322177 -0.55607027
000310 1c a6 90 be 1d 5c 88 3e aa 90 9a 3e 65 45 88 be
       -0.2825173 0.26632777 0.30188495 -0.26615444
000320 ea 87 81 3e f4 0c 72 3d 87 fb a4 3e ee b0 ea be
       0.25299007 0.059094384 0.3222315 -0.45838112
000330 60 f7 f8 3d 23 b8 38 3e 64 b4 08 bd f0 0e 48 bc
       0.12156558 0.18038993 -0.03337516 -0.012210593
000340 22 12 fa bc c6 0c 7a be b1 0c bd be 78 b3 52 bd
       -0.030526225 -0.24418935 -0.36923745 -0.051440686
000350 57 d3 d3 bc cc b2 5d be 0f 92 49 bd 9c 78 a5 be
       -0.02585761 -0.21650237 -0.049211558 -0.3231858
000360 ee 3f c3 3d 75 6b 89 3e d7 c1 d2 bd 3e ca 37 bd
       0.09533678 0.26839796 -0.10290878 -0.044870608
000370 ac 97 5f 3e a3 74 c5 3d 1f b3 6e be fe c7 3a be
       0.21835202 0.09641387 -0.23310517 -0.18240353
000380 70 59 6e 3c 5b 46 1e 3d bb 32 f6 be 5f d9 8a 3e
       0.014547691 0.038641315 -0.4808558 0.27118966
000390 ab 84 12 3d 1a 22 23 3e b1 70 88 bc 4c 71 b1 bd
       0.035771053 0.15930977 -0.016655298 -0.08664188
0003a0 73 3b ad 3e 41 34 78 3e 56 05 8c 3e 55 78 e4 bc
       0.3383442 0.24238683 0.2734782 -0.02788941
0003b0 d1 27 96 3d 96 fa 34 3d 43 51 8e 3d 2e ba 0c 3f
       0.07331813 0.04418429 0.06949093 0.5497159
0003c0 3c 31 87 3c 05 11 9c 3d d3 17 a9 39 03 b8 db bd
       0.016502969 0.07620434 0.00032251942 -0.10728457
0003d0 25 43 d1 3d e1 ae 02 be 19 e6 dd 3d a0 2a 14 be
       0.10217885 -0.12762024 0.10834903 -0.14469385
0003e0 87 7f 35 bd ec 5b 23 bc 07 c6 93 3e 95 91 5f be
       -0.044311073 -0.009970646 0.2886202 -0.21832879
0003f0 4c 0b 95 bd cd 8d ce 3d dd 5e 39 bc ac 47 09 be
       -0.07277545 0.1008564 -0.011314121 -0.13406247

sequential/dense_2/MatMul_bias f4 [64]
000000 12 a5 f8 3a c0 e1 c9 3b 5d 5e 0f 3c f6 63 03 3d
       0.0018970093 0.0061609447 0.008750525 0.032077752
000010 61 43 02 3d 45 26 e2 3c 94 a0 45 bc 39 f6 56 bc
       0.03180254 0.027606139 -0.012062211 -0.0131202275
000020 39 e5 2e 39 b5 f1 d8 3a 46 95 2e bd 3f 41 29 bd
       0.00016679325 0.0016551526 -0.042622827 -0.04132199
000030 c1 b2 b0 bb 88 5e 08 3d 39 40 97 3c f9 6b 5d b9
       -0.005392403 0.033293277 0.018463241 -0.00021116425
000040 0c 40 e6 bc 9c a3 1e bd fe a3 f5 ba 3d db ca 3b
       -0.028106712 -0.03873025 -0.001874089 0.006190686
000050 92 a3 4e bb 93 f2 97 bc f4 2a 32 bc 60 5a 2b bc
       -0.00315306 -0.018548286 -0.010874499 -0.010458559
000060 e1 f3 9c 3c fb b6 1f bc 85 19 ea bc df e7 8b bc
       0.01915926 -0.009748216 -0.028576622 -0.017078338
000070 73 0e 5f 3b 5c fb 51 3c 99 3e aa 3c de a7 89 3c
       0.0034035712 0.012816276 0.020781802 0.016803678
000080 33 0a 3b 3b 51 51 07 bd e7 2a f2 3b b1 ef 74 3c
       0.0028540015 -0.033036534 0.0073903683 0.014949725
000090 77 49 56 bb 1d 5f 86 3b 16 d5 49 ba 46 d6 8a 3c
       -0.0032697597 0.004100694 -0.0007699294 0.016947877
0000a0 f9 ff 1a bd 98 6e 8a 3c a0 10 2f 3c 64 83 8c bc
       -0.03784177 0.016898438 0.010685116 -0.017152496
0000b0 75 5f c5 3b 9d d8 db bc 3c 7a ce 3c 8c 33 07 3d
       0.0060233423 -0.026836688 0.02520477 0.033008143
0000c0 25 25 13 bd 2a 3e c0 3c 32 5b 14 bc d3 38 28 3c
       -0.035924096 0.023467142 -0.009054946 0.010267454
0000d0 98 d1 aa bc 36 55 0b 3c f7 8a e8 3c fe 9c fd bc
       -0.020851895 0.008504203 0.028386576 -0.030958649
0000e0 75 32 a7 3b a5 fd 64 bc 40 7e 14 3a 35 7f e0 bc
       0.0051024505 -0.013976489 0.00056645647 -0.027404407
0000f0 c5 79 98 bc 50 38 80 bc 7f b1 db bc b1 7e 54 bc
       -0.018612752 -0.015651852 -0.026818035 -0.012969659

sequential/dense_3/MatMul/ReadVariableOp/transpose f4 [128, 64]
000000 ee 8a 4b bd 5f 23 3f 3d 82 a8 62 3d e5 65 11 bd
       -0.04969304 0.046664592 0.055336483 -0.035497565
000010 cb e9 07 bc f6 4a bc 3a 11 40 68 bd e2 48 3f bd
       -0.008295487 0.0014365602 -0.056701723 -0.046700366
000020 39 88 b9 3d 51 3a 92 3c 67 fc cf bd a7 fa 10 bc
       0.090591855 0.017850073 -0.10155564 -0.008848823
000030 ed ff 94 3d df 60 39 bc 71 ee 72 bc 4a 9c 83 bb
       0.072753765 -0.0113146 -0.014827357 -0.004016434
000040 8c 62 f8 bc d2 c0 b5 3d 51 93 40 bd ac 1f a6 3c
       -0.030320428 0.08874668 -0.047015492 0.020278774
000050 b3 f8 da bd 9e 41 52 bd 5e 22 a8 3b 64 a0 a4 bd
       -0.10691967 -0.05133211 0.00513105 -0.080384046
000060 3c 1b 20 3c ff 36 b6 3c d0 b0 f1 3b 58 72 8e bd
       0.009772118 0.022243021 0.007375814 -0.06955403
000070 76 43 5f 3d e4 1a ab 3c 1a 4a 36 3d a7 2b 3a bd
       0.054507695 0.020886846 0.044504263 -0.045451786
000080 22 b3 f8 3c 75 1a 07 3c fa c0 e1 3c 82 18 6d bc
       0.030358855 0.008246054 0.027557839 -0.014471175
000090 25 02 a5 bd 23 47 a0 bc 29 1a c8 3d 54 33 b0 3d
       -0.0805705 -0.01956517 0.09770615 0.0860354
0000a0 65 4e 8e 3c da a0 92 bc d8 f9 64 3d 58 21 1a 3c
       0.017371366 -0.017898966 0.055902332 0.009407364
0000b0 c9 a4 ec 3c 1b 69 ca bd 42 29 c1 3c 70 51 a6 bc
       0.02888717 -0.098833285 0.023579244 -0.020302504
0000c0 a0 5d e3 bd 28 a1 59 3c e4 4a 9d 3c 38 54 c6 bc
       -0.11101842 0.013283052 0.01920075 -0.02421008
0000d0 95 fa db bb f1 24 a6 bb 43 19 ad bd 97 fc 84 3c
       -0.0067132213 -0.0050703217 -0.08452084 0.016233725
0000e0 bc a1 d9 bd d0 84 61 3d fc e5 0a bc 17 41 03 3c
       -0.106265515 0.0550583 -0.008477684 0.008011124
0000f0 19 ec f8 3c ea 3d b0 3d 1b de cb 3d 48 59 55 3d
       0.030386018 0.08605559 0.09954473 0.0520871
000100 30 c9 83 bc 86 d4 6c 3d 8c 08 22 3d 68 10 14 3b
       -0.016087145 0.057819866 0.039558932 0.0022592787
000110 e0 ab 78 3d 5e a7 56 bd 49 46 8e 3c 33 f3 ba 3d
       0.060710788 -0.052405708 0.017367499 0.09128418
000120 c1 01 16 3d 20 6e 98 bd a1 76 26 3d 72 57 da bc
       0.036622766 -0.0744288 0.040640477 -0.026653025
000130 2c e3 7c 3c 31 5c d9 3c 2e 2b c3 bc bf 8a a2 3d
       0.015435021 0.026533218 -0.0238243 0.0793662
000140 1a 1d 65 bc e5 1a f1 bb 82 7e 27 3c 67 20 a0 3c
       -0.013983989 -0.0073579424 0.010223033 0.0195467
000150 ba 52 f7 3b 7e ca cb bc 5d 6a e3 3c 22 fa 55 bc
       0.0075477036 -0.02487683 0.027760679 -0.013060125
000160 26 6a a9 bc b2 91 2a 3d e0 db 0d bd a8 76 44 bc
       -0.020680498 0.041642852 -0.034633517 -0.0119911805
000170 dc f4 2c bd d4 77 e2 bb 6f 9e ae 3b d6 b0 fe bc
       -0.042225704 -0.0069112573 0.0053289453 -0.031090181
000180 0a d0 f2 3d d1 6e 4c bd 1a 51 63 3c bb 87 fa bd
       0.118560866 -0.04991037 0.013874317 -0.1223292
000190 92 61 0f 3c f7 d9 5b bd 38 f2 9a bd 63 f3 15 3d
       0.00875129 -0.053674664 -0.07565731 0.036609065
0001a0 9b 03 50 3b 7a 85 c7 3c ee d0 b2 3c c6 a5 81 bb
       0.003174043 0.024355639 0.021828141 -0.0039565293
0001b0 5c 13 08 bd 34 9e 1b 3c b8 b8 c0 3d b4 33 1f 3c
       -0.033221588 0.009498168 0.09410232 0.009716917
0001c0 95 e2 56 3d 0b 38 83 3d cc 48 ab 3d 96 4e df 3b
       0.05246218 0.06407174 0.08363494 0.006814788
0001d0 b3 76 23 bd 52 56 a3 bc 23 f0 a5 bb 5d cc ac bc
       -0.039908122 -0.019938622 -0.005064027 -0.021093542
0001e0 4f fa 1e 3d 80 4b 1b 3d de 60 0b bd 1f 25 16 bd
       0.03881293 0.0379138 -0.034027927 -0.036656495
0001f0 50 4a 88 3d b3 73 c3 3c 3a 56 00 3c be e6 98 3b
       0.06654799 0.02385888 0.007833058 0.0046661785
000200 60 20 06 3d 5d 73 b1 3c ee c3 9f bd 82 8f 22 bd
       0.03274572 0.021661455 -0.078010425 -0.03968764
000210 a1 8f ba bd 74 ae fe bc d9 b0 06 bd 4c 66 33 bc
       -0.09109426 -0.031089045 -0.0328835 -0.010949682
000220 04 93 8c 3c 2a 30 3f 3d b2 77 9e 3d 4a bb bd 3d
       0.017159946 0.046676792 0.07737674 0.09264238
000230 7a 15 14 bd ee 15 b7 3d e9 d5 f0 3d 19 20 2a bd
       -0.036153294 0.0893973 0.1175955 -0.041534517
000240 16 ca c1 3a cc 53 f4 3c 65 ea 8d 3d ae 77 ef 3c
       0.0014784958 0.029825114 0.06929473 0.029231872
000250 2d 30 00 bd 28 74 94 bc 46 9b b1 3b 49 db 57 bc
       -0.031295944 -0.018121794 0.0054201214 -0.01317484
000260 ee 27 39 bd 15 d3 7b bb a5 e9 7c bd 53 3d 42 3c
       -0.045204096 -0.0038425375 -0.06174626 0.011855441
000270 3e 30 13 3d 1e 25 fa bc cf 56 3d 3d 54 cb f7 3c
       0.03593468 -0.030535277 0.046225365 0.030248322
000280 d2 d6 86 3c 54 bc 15 3d c8 d6 de bc 0f d4 4e 3d
       0.016459856 0.036556557 -0.027202025 0.050495204
000290 b1 01 c8 bd 33 0e b8 bb cc 6c 59 bd ea 7b 1f 3d
       -0.097659476 -0.005616927 -0.053082272 0.038936533
0002a0 4a 6e 2b bc 89 a1 44 3d 0b 3e d2 bd fe c8 20 3d
       -0.010463307 0.048005614 -0.1026574 0.03925418
0002b0 68 96 1e 3c 09 6a f6 3c f4 86 59 bd 5e 68 6b bb
       0.009679414 0.030079858 -0.053107217 -0.0035920362
0002c0 72 65 c1 bb c2 a4 86 bc 5e be ae bb e8 dd 6c 3d
       -0.005901986 -0.016435985 -0.005332752 0.057828814
0002d0 99 1c 62 bc 24 48 5f bd 08 d3 a1 bc 27 52 99 3d
       -0.0138007635 -0.054512158 -0.019753948 0.074863724
0002e0 97 1e ca bc 75 11 2d 3d 4a 33 d6 3c 91 d2 c2 bd
       -0.02467279 0.042252976 0.026147503 -0.095128186
0002f0 40 1c 3a bd eb 23 a4 3c 69 ea e3 3b ac 02 d2 bc
       -0.045437098 0.020036658 0.006955434 -0.02563604
000300 84 4b f4 bc 17 3e 8b 3c 35 60 cb bb 96 4b 75 bd
       -0.029821165 0.01699738 -0.006206537 -0.059886537
000310 29 e1 99 3b 20 71 6e 3d aa 23 95 3d b5 dd e1 bd
       0.0046960306 0.058213353 0.07282193 -0.110286154
000320 eb 96 31 3d 7f 6f 5e bc e5 b3 94 bd 68 d7 fa bd
       0.043356817 -0.013576387 -0.07260875 -0.12248117
000330 29 61 fa 3c 8b 39 8e 3c 17 82 f8 bd 70 60 f5 bc
       0.030563908 0.017361423 -0.12134188 -0.029953212
000340 14 9b 92 bd 64 c9 1a bb 17 4d 4e 3d 8e 62 9a 3d
       -0.07158485 -0.0023618573 0.050366487 0.07538329
000350 11 7b 3c bd dc fa 59 bb ae 9e 4a 3d 5f fd 75 3c
       -0.046015803 -0.0033261096 0.049467735 0.015014022
000360 fd 88 0a bd eb 65 0c 3d 72 3d c0 bd 75 dc 93 3d
       -0.03382205 0.034276884 -0.0938672 0.07219783
000370 b4 1f 8d 3c 62 27 57 3c be a2 9e bd 5e 16 98 bd
       0.017227031 0.013131948 -0.07745884 -0.07426141
000380 00 80 68 3d 90 c5 e1 3c 55 8f 72 3d 94 e8 e7 bc
       0.056762695 0.027560025 0.059218723 -0.028309144
000390 9d d9 87 bd f0 f5 0f 3c 55 91 76 3c 77 c8 c8 bc
       -0.06633303 0.008786663 0.015049298 -0.024509652
0003a0 c4 4d 79 ba ce 71 5c bd 4a 09 12 3d 52 11 bb bc
       -0.0009510184 -0.05381947 0.03565339 -0.022835407
0003b0 a6 97 b4 bc c3 23 8e bb 79 9a 4c 3d 3d c4 0a bd
       -0.022044968 -0.004337759 0.049952004 -0.033878554
0003c0 d5 67 ed 3b 12 ae 0d 3d 43 3f 8d 3d d4 ef 38 3d
       0.0072450438 0.034589835 0.06896832 0.045150593
0003d0 97 6e ec 3b b8 1d 11 bd d1 52 56 3d a2 85 12 3d
       0.007215332 -0.035428733 0.052325074 0.035771973
0003e0 6c b7 bb bc 5d 0b 96 bc 8f 38 19 bd 2f 00 0f 3d
       -0.02291461 -0.018315965 -0.037407454 0.034912284
0003f0 5a 66 fa 3b e8 82 0d 3e 50 ae f8 3c 05 6f be bc
       0.007641596 0.13819468 0.030356556 -0.023246298

sequential/dense_3/MatMul_bias f4 [128]
000000 fc 7c a1 3b 5e 40 40 bc 66 43 5b bc b2 d4 11 3c
       0.0049282294 -0.011734096 -0.013382768 0.008900808
000010 9b 7b b7 3b f6 84 06 3c 89 5f 9d bc 03 fb d3 bc
       0.0055994517 0.008210411 -0.019210594 -0.025876528
000020 83 b7 80 bc 4e 0f d7 3b 10 5c dc 3c a5 ab 62 bc
       -0.015712505 0.0065631038 0.026899368 -0.013834869
000030 a8 2b 05 3c 5f e1 b5 3c db 9e 04 3c 2a 3f db 3c
       0.008128084 0.022202192 0.008094515 0.026763517
000040 c3 16 b0 3c ed e6 6a 3c 8a a1 90 3c cd 52 be 3c
       0.021495229 0.014337284 0.017655153 0.023232842
000050 9a aa a1 3c 6b a7 ec ba 91 4c 46 3c c8 41 49 bd
       0.01973467 -0.0018055266 0.012103216 -0.049135
000060 06 b7 c8 bc 02 b7 44 3b 2a c9 af bc 0c 21 e6 bc
       -0.024501335 0.0030016308 -0.021458227 -0.02809193
000070 4b 05 20 3b 6c 18 59 3b 2e 59 c5 3b 53 c9 c6 3c
       0.0024417217 0.003312613 0.006022594 0.02426592
000080 1d 30 f5 ba 5f 08 c7 bc a0 e8 66 3c 6f 44 a3 bb
       -0.0018706355 -0.024295984 0.014093548 -0.004982523
000090 4f e9 c0 3a 9c 5f 76 bc 17 4e 53 bc 0c 1a b3 bc
       0.0014717969 -0.0150374435 -0.012897036 -0.021863006
0000a0 55 ae 8a 3c 46 07 f1 bc 3c 04 07 3c a4 fe f7 3c
       0.016928831 -0.029422414 0.008240756 0.03027279
0000b0 da ff e7 bb 32 3b db 3c d9 29 b7 bc 46 9b 76 3b
       -0.0070800604 0.026761625 -0.022358822 0.0037629171
0000c0 66 c3 8e bc aa 5e db 3c a8 72 e1 3c 75 4d 11 bd
       -0.017427158 0.026778538 0.027520493 -0.03547426
0000d0 d0 1d 9e 3c 35 91 ab ba d4 01 7f 3c e3 4e 75 3c
       0.019301325 -0.001308954 0.015564401 0.014972421
0000e0 2d 3a bf bc b6 5b 12 bc c9 91 12 bd 6b 6e a2 bb
       -0.02334317 -0.008932998 -0.035783563 -0.0049570105
0000f0 65 83 11 3c b5 5e 23 3d a9 03 8e 3c 70 e4 86 bb
       0.008881425 0.03988524 0.01733573 -0.0041165873
000100 ce 61 73 bb 23 8e 44 bc ef cb ae ba 11 7c f7 bc
       -0.0037137154 -0.011996779 -0.0013335923 -0.030210527
000110 43 f2 57 bb 49 66 f1 3c c9 a7 04 3d 9d 23 6c 3b
       -0.0032950796 0.029467719 0.032386575 0.003603197
000120 b8 bb 9e bb d7 95 bc 3c bb 0b 67 bc 5d 33 96 bc
       -0.004844155 0.023020668 -0.014101918 -0.018335039
000130 1b d8 ec bc cd e5 09 3d 13 97 78 3c a0 09 b6 bc
       -0.02891164 0.03366642 0.015172738 -0.022221386
000140 18 e4 dc 3b c4 5d a3 3c 03 60 d6 3c ef 1c a4 bb
       0.006741058 0.019942172 0.026168829 -0.005008332
000150 6c a3 29 bc 37 6e 66 bb 52 f5 65 3c c4 54 03 3d
       -0.010353904 -0.0035160908 0.01403554 0.03206326
000160 56 d1 cf bb cd 2f fe 3c 12 62 ab 3a 46 e2 fe 3a
       -0.0063420935 0.031028653 0.0013075492 0.0019446097
000170 d0 a6 78 3c 5c 1b 01 bc a1 f0 1e 3a 03 bd 97 3c
       0.01517649 -0.007880058 0.0006063078 0.018522745
000180 df c4 1c 3d ca e3 e4 3c 26 ac 83 ba f9 a4 0c bc
       0.03827369 0.02794065 -0.0010045811 -0.008584254
000190 07 aa 21 3d ad c8 07 3d 2e 41 b6 bb ee 8f 71 3c
       0.03946879 0.033150364 -0.0055619692 0.014743788
0001a0 5a 57 21 3d a0 ee b9 3b 66 4f 7d 3c 7f 70 be 3b
       0.039389946 0.0056741983 0.015460825 0.0058117504
0001b0 e2 13 d7 bb b9 f2 11 3d 4a 3b 0c 3d 63 c3 d8 3c
       -0.0065636495 0.03563187 0.03423623 0.026460355
0001c0 e7 1a 31 bc 17 fc 90 bc 0d 44 ac 3b dc b8 25 3d
       -0.010809637 -0.01769833 0.0052571357 0.0404595
0001d0 27 ef 14 3a a8 b9 10 3d f8 23 cb bc 68 6e 62 bc
       0.00056813884 0.035333306 -0.024797425 -0.013820268
0001e0 c8 77 12 bd 41 e8 e3 3c 38 fd b0 bc f0 de 70 bc
       -0.035758764 0.027820708 -0.02160512 -0.01470159
0001f0 7f 14 6e bc c6 cb 29 3c e8 0e 1c 3b 50 3a 01 bd
       -0.014531254 0.010363525 0.0023812596 -0.03154975
