app/src/main/assets/model.tflite (tflite, 37920 bytes, 8 tensors)

sequential/batch_normalization/batchnorm/mul f4 [7]
0	0x4258f491	54.238834
1	0x4219804b	38.375286
2	0x4253ce28	52.951324
3	0x42674b0b	57.823284
4	0x42567a92	53.619698
5	0x425b173c	54.77269
6	0x4266d25a	57.70542

sequential/batch_normalization/batchnorm/sub f4 [7]
0	0xc24e486d	-51.57073
1	0xc2084268	-34.06485
2	0xc246940a	-49.64457
3	0xc25fbf94	-55.937088
4	0xc2472a90	-49.791565
5	0xc24b6f50	-50.858704
6	0xc2571a2c	-53.77556

sequential/dense/BiasAdd/ReadVariableOp f4 [32]
0	0x3e1f7b7f	0.15574454
1	0x3dd318fa	0.10307498
2	0x3ebcd1c3	0.36878785
3	0x3e5cb44c	0.21553153
4	0x3e940849	0.2891257
5	0x3ed4fb0e	0.4159779
6	0x3f003b86	0.50090826
7	0x3ef9893f	0.48737523
8	0x3d9a0efe	0.07522391
9	0xbe6b11b2	-0.22955969
10	0x3ea7bd4e	0.32761616
11	0x3ec6a86e	0.38800377
12	0x3ec38363	0.38186178
13	0x3e5cc99a	0.2156128
14	0x3dc2d445	0.095131435
15	0x3e21702f	0.15765451
16	0x3eac8291	0.33693364
17	0x3d05a0a6	0.03262391
18	0x3f02cfe9	0.51098496
19	0x3da8c7d2	0.08241238
20	0x3e5ef07e	0.21771428
21	0x3ef0d985	0.47040954
22	0x3db0c5e8	0.086314976
23	0x3e07241f	0.13197373
24	0x3ea0be40	0.3139515
25	0xbcc4effc	-0.024040215
26	0x3f037c2d	0.5136135
27	0x3efbd9bb	0.49189553
28	0x3e9fc979	0.312084
29	0x3e8e1245	0.27748314
30	0x3e17e7ca	0.14834514
31	0xbdb3b449	-0.08774621

sequential/dense_1/BiasAdd/ReadVariableOp f4 [64]
0	0x3e30a45e	0.17250201
1	0x3d804677	0.0626344
2	0xbd433286	-0.047655605
3	0xbe3c1f9d	-0.18371435
4	0xbde13744	-0.10996869
5	0xbdba9676	-0.091107294
6	0x3e19cae7	0.15018807
7	0xbdd20d67	-0.102564625
8	0x3d2de36c	0.042453215
9	0xbc825b0b	-0.015912553
10	0xbc8ba0e2	-0.017044488
11	0x3d3ba91e	0.04581558
12	0xbe682d67	-0.2267357
13	0xbd18538d	-0.037189055
14	0xbea198b1	-0.31561807
15	0x3e893878	0.26800895
16	0xbeb813d0	-0.35952616
17	0x3e8de989	0.27717236
18	0x3e1a1acd	0.15049286
19	0xbc9dd370	-0.01926586
20	0x3d554265	0.052065272
21	0x3edc8c14	0.4307562
22	0x3e2820c9	0.16418757
23	0xbcb1e30e	-0.021714713
24	0xbe2e8700	-0.17043686
25	0xbe5d1e1f	-0.21593522
26	0x3ec4a423	0.38406476
27	0xbbbdb049	-0.005788837
28	0x3df8ac6c	0.12142262
29	0xbe1cba82	-0.15305522
30	0x3e06431a	0.13111535
31	0xbca01b4f	-0.019544272
32	0xbc84112e	-0.016121473
33	0x3e1421f9	0.14466085
34	0xbddc93ea	-0.107704
35	0xbcebbb27	-0.028775765
36	0xbd952a52	-0.072834626
37	0xbd7d3137	-0.061814513
38	0x3e55fe24	0.20897728
39	0x3e93eb6f	0.2889056
40	0xbe0d8e37	-0.13823782
41	0x3c69d977	0.014273039
42	0xbe88c653	-0.2671381
43	0x3e2c8d7f	0.16850851
44	0xbc78d14a	-0.015186617
45	0x3ed5eb1f	0.41780946
46	0x3e17a664	0.14809567
47	0x3e20cb82	0.15702632
48	0xbd9ac4bd	-0.07557056
49	0x3e022ff9	0.12713613
50	0x3dabf66a	0.08396609
51	0x3ed83af1	0.4223247
52	0x3e511ca8	0.20421088
53	0x3db39d3b	0.08770224
54	0x3ef12421	0.47097877
55	0x3d190154	0.037354782
56	0x3e4e07c7	0.20120154
57	0xbcb938e5	-0.022610137
58	0xbd2bec97	-0.041973677
59	0x3e0c6575	0.13710578
60	0x3e104e1e	0.140923
61	0x3e188dc9	0.14897837
62	0x3e769df5	0.24083693
63	0xbe2da155	-0.16956075

sequential/dense_2/BiasAdd/ReadVariableOp f4 [101]
0	0xbdc8bcbf	-0.098016255
1	0xbdc9c29a	-0.098515704
2	0xbdccf381	-0.10007382
3	0xbdc394e5	-0.09549884
4	0xbdc09d11	-0.09404958
5	0xbdc5079c	-0.09620592
6	0xbdc84325	-0.09778432
7	0xbdc6191f	-0.0967276
8	0xbdcb11db	-0.09915515
9	0xbdccccba	-0.09999986
10	0xbdc892dd	-0.09793637
11	0xbdc5a1dc	-0.09650013
12	0xbdc6ed6c	-0.097132534
13	0xbdc36063	-0.09539869
14	0xbdc74b9e	-0.0973122
15	0xbdccb1de	-0.09994863
16	0xbdc60934	-0.09669724
17	0xbdc97162	-0.09836079
18	0xbdc88abc	-0.097920865
19	0xbdc81512	-0.09769644
20	0xbdc9e1b6	-0.09857504
21	0xbdc73f81	-0.09728909
22	0xbdcaea77	-0.09908002
23	0xbdcc5ad1	-0.09978259
24	0xbdc270f4	-0.094942
25	0xbdcb616c	-0.09930691
26	0xbdc9b2f8	-0.09848589
27	0xbdc9b51f	-0.09848999
28	0xbdc3beff	-0.09557914
29	0xbdc93a51	-0.09825576
30	0xbdc67c2d	-0.096916534
31	0xbe434b4f	-0.19071697
32	0xbdc6d8fd	-0.09709356
33	0xbdb4edde	-0.08834432
34	0x3e6c8610	0.23098016
35	0x3dfc1f34	0.12310639
36	0xbe5cfdd1	-0.21581198
37	0xbdc928d8	-0.098222435
38	0x3d4236f4	0.04741569
39	0xbc897fb0	-0.016784519
40	0xbdc56565	-0.0963848
41	0xbe427b58	-0.18992364
42	0xbdc71472	-0.097206965
43	0xbdc8fd8a	-0.09813984
44	0xbdc5f808	-0.09666449
45	0x3d8b867b	0.068127595
46	0xbe898f69	-0.26867226
47	0xbdc9df63	-0.09857061
48	0x3d1134bd	0.035450686
49	0x3e8d8ae9	0.27645043
50	0x3ce89da3	0.02839548
51	0x3e826d4b	0.2547401
52	0xbdc9d0cf	-0.0985428
53	0xbdc9ac8b	-0.09847363
54	0xbc89dac9	-0.016827958
55	0xbcf77d2b	-0.030211052
56	0x3da5d232	0.08096732
57	0xbdc4d7c4	-0.096114665
58	0x3a83d73e	0.0010058654
59	0x3e53a8d6	0.20669875
60	0xbdc4cf41	-0.09609843
61	0xbdc96749	-0.09834153
62	0xbdc73746	-0.097273394
63	0xbdc8cd00	-0.09804726
64	0xbdc65676	-0.0968446
65	0xbdc65748	-0.09684616
66	0xbdc2fa22	-0.09520365
67	0x3be79835	0.007067705
68	0x3df5c07f	0.11999606
69	0xbdc9aa47	-0.09846931
70	0x3e634f70	0.22198272
71	0xbdcab3f8	-0.098976076
72	0xbdc7de41	-0.097591884
73	0xbdc980fa	-0.098390535
74	0xbdc9bd20	-0.09850526
75	0xbdca910d	-0.098909475
76	0xbdc64d3a	-0.096826985
77	0xbdc7bcb5	-0.0975279
78	0xbdc38872	-0.09547509
79	0xbdc30d9b	-0.095240794
80	0xbdc2803f	-0.09497117
81	0xbdc851a7	-0.09781199
82	0xbdcadcc7	-0.09905391
83	0xbdc8ec5a	-0.098107055
84	0xbdc8c3ea	-0.09802993
85	0xbdc96ad5	-0.0983483
86	0xbdc5f09f	-0.096650355
87	0xbdc64bb5	-0.09682409
88	0xbdc92b73	-0.098227404
89	0xbdc45d0a	-0.09588058
90	0xbdc27eb5	-0.09496824
91	0xbdc9b761	-0.0984943
92	0xbdc307de	-0.09522985
93	0xbdc72596	-0.09723966
94	0xbdc49577	-0.09598821
95	0xbdc47d96	-0.09594266
96	0xbdceae29	-0.10091812
97	0xbdc8653d	-0.09784935
98	0xbdc10bab	-0.094260536
99	0xbdcb283c	-0.099197835
100	0xbdcce8f6	-0.10005371

sequential/dense/MatMul f4 [32, 7]
0	0x3ed47565	0.41495815
1	0xbd95a910	-0.07307637
2	0x3e60b82c	0.21945256
3	0xbf9c2b85	-1.2200781
4	0xbec747e1	-0.38922027
5	0x3f0dbd2f	0.55366796
6	0x3c2e08e0	0.010622233
7	0xbf06ae21	-0.5260945
8	0x3f225659	0.63413006
9	0x3d321df6	0.043485604
10	0xbee469f8	-0.44612098
11	0x3d7a03f9	0.061038945
12	0x3e04c6cc	0.1296646
13	0x3f7b724c	0.9822128
14	0x3e2807f0	0.16409278
15	0x3f1d9b07	0.6156468
16	0xbf405481	-0.7512894
17	0x3e37264a	0.178857
18	0x3e84a384	0.25906003
19	0xbe1e781d	-0.15475507
20	0xbe2a4150	-0.16626477
21	0xbf16432a	-0.58696234
22	0x3eaf2fd4	0.34216177
23	0x3e8dc2c0	0.27687645
24	0xbe85faf3	-0.26168022
25	0xbed0f582	-0.40812308
26	0xbeda50d3	-0.4263979
27	0x3e5a4ec1	0.21319105
28	0xbf55fb5e	-0.8358668
29	0x3e91c67a	0.28471738
30	0xbeeb8c52	-0.46005493
31	0xbed108e0	-0.40827084
32	0x3f20b454	0.6277516
33	0xbe8b331e	-0.27187437
34	0x3ee21195	0.4415404
35	0x3eb10058	0.34570575
36	0x3eb78c51	0.3584924
37	0xbebb9274	-0.36635172
38	0x3e446ffc	0.19183344
39	0xbe597762	-0.21236947
40	0x3977082a	0.00023558797
41	0xbe227e24	-0.15868431
42	0x3a8b5652	0.0010630584
43	0xbcc5db61	-0.02415246
44	0xbf224b3c	-0.6339605
45	0x3e1c3cab	0.15257518
46	0xbc94c58b	-0.018160602
47	0x3ecef55f	0.40421578
48	0x3e975234	0.29554904
49	0xbc032b21	-0.008005888
50	0xbe992aed	-0.29915562
51	0x3f120ca7	0.57050556
52	0xbd28c8e1	-0.041207198
53	0x3ed2096b	0.4102281
54	0xbeb8da3c	-0.36104
55	0x3e8755e2	0.2643271
56	0xbe0bcb3f	-0.13651751
57	0x3dcb7739	0.09934849
58	0x3f0c9793	0.54918784
59	0xbeff9805	-0.4992067
60	0xbf2d3cc1	-0.6767083
61	0xbe95e6a2	-0.2927752
62	0x3efe1cae	0.49631256
63	0x3e85b738	0.26116347
64	0xbe59a2e1	-0.2125354
65	0xbe610790	-0.21975541
66	0xbe79b3d4	-0.24385005
67	0xbe836460	-0.25662518
68	0xbf82feb9	-1.0233985
69	0xbcb4fb19	-0.022092389
70	0xbe598c4b	-0.21244924
71	0x3b8658e8	0.004099954
72	0x3ec63aa3	0.3871661
73	0x3ecf33c6	0.40469187
74	0xbf2d6fa4	-0.67748475
75	0xbe9a5c25	-0.30148426
76	0x3f09d492	0.5383998
77	0x3eaa0a95	0.33211198
78	0xbdb655e8	-0.08903104
79	0xbf1430d3	-0.57887
80	0xbdc5b133	-0.09652939
81	0x3dc7cabc	0.097554654
82	0x3ea86309	0.32888058
83	0xbe6a7dbc	-0.22899526
84	0x3d9a74b5	0.07541791
85	0x3f259bcd	0.6469086
86	0xbe679606	-0.22615823
87	0x3ea9e62f	0.3318343
88	0x3eac3f6c	0.33642137
89	0xbf5398e9	-0.826552
90	0xbec519c8	-0.38496232
91	0xbd3aa45d	-0.045566905
92	0x3e423a8b	0.18967645
93	0x3f02dfdf	0.5112285
94	0x3cfccdaf	0.030859796
95	0xbe82526d	-0.2545351
96	0xbf74acf6	-0.9557642
97	0x3ed6a929	0.41925934
98	0x3e809798	0.25115657
99	0x3ea472e7	0.32118914
100	0x3d87e48c	0.06635389
101	0xbfa1ff2d	-1.2655998
102	0xbe3a7955	-0.18210347
103	0x3eed4e64	0.4634887
104	0xbde8449c	-0.11341211
105	0xbeb67e97	-0.35643455
106	0xbede1b5c	-0.4338025
107	0x3c1c4cc5	0.009539788
108	0xbe1c0c2b	-0.15239017
109	0x3f2a7ac8	0.665936
110	0xbe07f008	-0.13275158
111	0x3f0d4c0c	0.55194163
112	0x3ec5fa0c	0.38667333
113	0xbe5a1889	-0.21298422
114	0x3f38b995	0.72158176
115	0xbead1098	-0.33801723
116	0x3df4d41a	0.11954518
117	0x3e13653b	0.14394085
118	0xbecc7829	-0.39935425
119	0xbea37b93	-0.31930217
120	0x3e983e30	0.29734945
121	0x3ea8f19a	0.32996827
122	0xbebaa124	-0.36451066
123	0xbee9698f	-0.45588347
124	0xbf172bc2	-0.59051144
125	0x3d4151d5	0.04719718
126	0x3e8c73bb	0.27432045
127	0xbeaa2345	-0.33230034
128	0x3f58bf61	0.8466702
129	0xbd8e2b05	-0.06941799
130	0x3ebd7b78	0.37008262
131	0xbc8a195d	-0.016857797
132	0xbedcdb85	-0.4313623
133	0xbf5487c1	-0.83019644
134	0x3c571eb4	0.013129879
135	0xbef33fe7	-0.4750969
136	0xbeeef554	-0.46671546
137	0x3f606071	0.8764716
138	0x3da1ae77	0.07894605
139	0x3e7ee13a	0.24890605
140	0xbf08af7f	-0.53392786
141	0xbef0ed54	-0.47056067
142	0xbea8cd2a	-0.32969028
143	0xbee882fd	-0.45412436
144	0x3f10c6d3	0.5655338
145	0x3f152d7c	0.5827253
146	0x3edca0cb	0.43091425
147	0xbe80aa8b	-0.25130114
148	0xbd3d1a49	-0.046167646
149	0xbee27d91	-0.44236425
150	0xbce34ec5	-0.027747521
151	0xbdaecaf7	-0.08534806
152	0x3f0acf0c	0.5422218
153	0x3ed9603c	0.42456234
154	0x3e33b97f	0.1755123
155	0xbf10c06a	-0.565436
156	0x3d8fb008	0.07015997
157	0xbeda47b1	-0.4263282
158	0xbf491866	-0.78552854
159	0x3e45e3da	0.193252
160	0x3e8dbf2f	0.27684924
161	0xbe471352	-0.19440964
162	0xbd9fc028	-0.07800323
163	0x3f0b9b2e	0.5453366
164	0xbe9901ec	-0.2988428
165	0xbf25c7c7	-0.6475796
166	0xbdc02f97	-0.09384077
167	0x3f2c1c0a	0.67230284
168	0xbd86ceeb	-0.06582435
169	0x3ef02e66	0.469104
170	0xbecc7d39	-0.39939287
171	0x3e1eda36	0.15512928
172	0x3e34a5e2	0.17641404
173	0xbf374ecb	-0.71604604
174	0x3dd5e610	0.104442716
175	0x3eaebe79	0.34129694
176	0x3cf37806	0.029720318
177	0xbe8139e0	-0.25239468
178	0xbc7eba57	-0.015547357
179	0xbe2df8c5	-0.1698943
180	0xbf813b4d	-1.0096222
181	0xbd38bd4d	-0.045102406
182	0x3e9f3703	0.31096658
183	0xbebb7051	-0.36609128
184	0x3f6b84b9	0.91999394
185	0xbc60dc91	-0.013724462
186	0x3de827f2	0.11335744
187	0xbc9aef06	-0.018912803
188	0xbe98a4f5	-0.29813352
189	0xbd61d528	-0.055134922
190	0x3d6a03ff	0.057132717
191	0xbf1c887b	-0.6114575
192	0x3de7027f	0.11279773
193	0xbd9b7a77	-0.07591718
194	0x3e9fe9cf	0.3123307
195	0x3eecc400	0.46243286
196	0xbebdba52	-0.37056214
197	0x3d4bacee	0.049725465
198	0xbe5486e2	-0.20754579
199	0xbc2a6653	-0.010400373
200	0x3f38c47a	0.721748
201	0xbe71b6f1	-0.23604943
202	0x3f27acfb	0.6549832
203	0x3dc6c784	0.09706023
204	0x3cc22f5a	0.02370422
205	0x3f34d6c2	0.70640194
206	0xbeaa55c8	-0.3326857
207	0x3ebf5678	0.37370658
208	0x3deaac4b	0.114586435
209	0xbf23af16	-0.63939035
210	0x3d3e6a4d	0.046488095
211	0xbe35d4ca	-0.17756954
212	0x3f0b8c29	0.5451074
213	0x3e6d1080	0.23150826
214	0xbf233c06	-0.63763463
215	0xbf0062a4	-0.50150514
216	0x3f31416e	0.6924046
217	0xbf7ac2eb	-0.9795367
218	0xbf40ace1	-0.7526379
219	0x3d2e7dd5	0.04260047
220	0x3e41016f	0.18848203
221	0xbdb192d9	-0.08670587
222	0x3e83bf34	0.25731814
223	0xbe1a9a0e	-0.1509783

sequential/dense_1/MatMul f4 [64, 32]
0	0x3f448cf3	0.7677757
1	0x3f29b087	0.66284984
2	0xbe9c3e98	-0.30516505
3	0x3f089ff0	0.53369045
4	0xbe7382b0	-0.23780322
5	0x3d089325	0.033343453
6	0x3d6c6102	0.0577097
7	0x3d5cef22	0.053938992
8	0x3ed8ebcc	0.423674
9	0x3dde33e0	0.10849738
10	0x3f4e5b64	0.806082
11	0x3cb14aba	0.021642078
12	0xbea7c3de	-0.32766622
13	0x3d8ad7d6	0.06779449
14	0x3f0c49c3	0.5480005
15	0xbc5fd9a7	-0.013662732
16	0x3e915934	0.2838837
17	0x3ecf832b	0.4052976
18	0x3e0ad9e1	0.13559677
19	0xbea8be53	-0.32957706
20	0xbe3162fc	-0.17322916
21	0x3d9fae5f	0.077969305
22	0x3dbe2a4f	0.092854135
23	0x3eda7514	0.4266745
24	0xbe1e03a1	-0.15431072
25	0x3e07f066	0.13275298
26	0x3e938c35	0.28817907
27	0x3e128109	0.14307036
28	0x3dc3b8b8	0.09556717
29	0x3d206f12	0.039168425
30	0x3ed05a43	0.40693864
31	0x3d9461b0	0.07245195
32	0x3c1b4695	0.009477277
33	0x3de20b14	0.11037269
34	0xbe7388cb	-0.23782651
35	0x3e98284e	0.2971825
36	0xbdfaa714	-0.12238899
37	0xbca79a07	-0.020459188
38	0x3e93cba6	0.2886631
39	0x3c962039	0.018325912
40	0x3f04fc9d	0.5194796
41	0x3ec0c067	0.3764679
42	0x3f140f80	0.5783615
43	0x3e5a0230	0.21289897
44	0xbe240d7a	-0.16020766
45	0x3eb48842	0.35260206
46	0xbe4a60d6	-0.19763502
47	0x3df496ec	0.119428486
48	0xbe2f7ea0	-0.17138147
49	0x3e8c2e13	0.27378902
50	0xbdf4aef1	-0.1194743
51	0xbd7fe71e	-0.06247627
52	0x3eef4f42	0.46740156
53	0x3ee93256	0.45546216
54	0x3ea5bd2c	0.3237089
55	0x3f0ff6b9	0.56235844
56	0x3de34b38	0.11098331
57	0x3e95c368	0.29250646
58	0xbe01930c	-0.1265375
59	0x3eac2d94	0.33628523
60	0x3cc8d3e9	0.02451511
61	0xbe565833	-0.20932083
62	0x3ede4768	0.43413854
63	0xbe3a13ef	-0.18171667
64	0xbf09195a	-0.5355431
65	0xbe841e9d	-0.25804606
66	0x3ea30a19	0.3184364
67	0x3d600aec	0.054697916
68	0x3f8e77ff	1.113037
69	0xbdf318ab	-0.118699394
70	0xbe69fd5c	-0.22850555
71	0x3f103579	0.5633159
72	0xbd8434ae	-0.0645536
73	0x3d5f0adc	0.054453716
74	0xbe0db22e	-0.13837501
75	0xbe512e7e	-0.20427892
76	0x3ef629ec	0.4807886
77	0x3ed42f6a	0.41442424
78	0xbe65318a	-0.22382179
79	0x3f22c408	0.6358037
80	0x3cfdee98	0.03099756
81	0x3e1df3a9	0.1542498
82	0x3e8e9386	0.27846926
83	0x3f5211c1	0.8205834
84	0x3ee11edd	0.4396886
85	0xbe315dde	-0.17320964
86	0xbe0036d8	-0.12520921
87	0xbdd53f21	-0.104124315
88	0x3eb5defc	0.35521686
89	0x3db842d6	0.08997123
90	0x3e3ad1e5	0.18244131
91	0xbdf5e51d	-0.120065905
92	0x3ef6b3ac	0.48183954
93	0x3e922a8f	0.28548095
94	0x3e101a44	0.1407252
95	0x3dff46f4	0.12464705
96	0x3eeaf5d1	0.45890668
97	0x3f6e8821	0.93176466
98	0xbe979690	-0.29607058
99	0x3f0c5be6	0.54827726
100	0x3f1e1b88	0.6176076
101	0xbeacc3b6	-0.33743066
102	0xbea00750	-0.3125558
103	0xbc3836df	-0.011243551
104	0x3f1ae5b7	0.6050677
105	0x3df30aa0	0.11867261
106	0x3eb710b6	0.35754937
107	0xbeae4f5f	-0.3404493
108	0xbddfa0af	-0.1091932
109	0x3e88afb2	0.26696545
110	0x3e943923	0.28949842
111	0x3e78803f	0.24267672
112	0xbe5ad6d4	-0.21371013
113	0x3e8eb83c	0.27874935
114	0xbeb16710	-0.34648943
115	0x3e7b26a7	0.24526463
116	0x3d9d662c	0.07685503
117	0xbe271b65	-0.16319044
118	0xbd8fa1b0	-0.07013261
119	0x3f29bee2	0.6630689
120	0xbba34af2	-0.0049832994
121	0x3d9bc9ef	0.07606875
122	0xbea2762f	-0.31730792
123	0xbdbe8646	-0.093029544
124	0x3eded796	0.43523854
125	0xbe8983d6	-0.26858395
126	0x3e746a8a	0.23868766
127	0xbdd2e6e4	-0.10297945
128	0xbef78860	-0.48346233
129	0xbe9dd4cc	-0.30826414
130	0xbec5cd90	-0.38633394
131	0x3e163514	0.14668685
132	0xbe26ee98	-0.16301954
133	0xbf0f1d49	-0.5590406
134	0xbccde95e	-0.025135692
135	0xbcadbc54	-0.021207966
136	0x3e20989e	0.15683219
137	0x3e82b5d7	0.25529358
138	0x3e07551b	0.13216059
139	0xbde98d98	-0.1140396
140	0xbe854302	-0.26027685
141	0x3e854256	0.26027173
142	0xbf2a81c0	-0.6660423
143	0x3e794ba5	0.24345262
144	0xbd22d4c6	-0.039753698
145	0x3e85d44e	0.26138538
146	0xbe9fea2b	-0.31233343
147	0x3e1db454	0.15400821
148	0x3e5f8114	0.21826583
149	0x3dc7ef1b	0.097624026
150	0x3e917668	0.2841065
151	0x3e0174be	0.1264219
152	0xbcbd9ddf	-0.023146568
153	0x3df5c58f	0.12000572
154	0xbe2c84c9	-0.16847529
155	0xbdaabd55	-0.083368935
156	0x3cbb2a2c	0.022847258
157	0xbe80a2ce	-0.2512421
158	0x3ebb0959	0.3653057
159	0x3f360980	0.71108246
160	0x3f83ffc6	1.0312431
161	0x3fa04caf	1.2523402
162	0xbdf0269f	-0.117261164
163	0x3f000e4d	0.5002182
164	0x3f2d4116	0.6767744
165	0xbe2f34e9	-0.17110027
166	0xbe4c1ce6	-0.19932899
167	0xbe102b9f	-0.1407914
168	0x3eb99770	0.3624835
169	0xbe2320dc	-0.15930504
170	0x3e90ed7f	0.28306195
171	0xbe577caf	-0.21043657
172	0xbe12b122	-0.14325383
173	0xbd8821f3	-0.066471
174	0x3f5ef151	0.8708697
175	0x3cf450f9	0.029823767
176	0xbd2c4492	-0.04205758
177	0x3e6bc831	0.23025586
178	0xbedaa1c2	-0.42701536
179	0x3ebdbd6d	0.37058583
180	0x3de22f3b	0.11044165
181	0xbc88fc29	-0.016721802
182	0xbe774707	-0.24148189
183	0x3ee13e5f	0.43992898
184	0x3d4d6d4d	0.050153065
185	0xbdfdc982	-0.1239195
186	0xbe96e869	-0.2947419
187	0xbbc53d43	-0.006019266
188	0x3eb22766	0.34795684
189	0xbde1ee10	-0.11031735
190	0xbd0e19c4	-0.03469254
191	0x3dd2bf82	0.102904335
192	0xbeca6035	-0.39526525
193	0xbee6b30c	-0.45058477
194	0xbe144426	-0.14479122
195	0x3e6e2063	0.23254542
196	0xbee0ba00	-0.43891907
197	0x3d69ce20	0.05708134
198	0x3b179cf6	0.0023134327
199	0x3e8a5c9f	0.2702379
200	0x3eddf86f	0.43353602
201	0x3e80c4c1	0.2515011
202	0x3edbc290	0.42921877
203	0x3c89aa15	0.016804734
204	0x3e583690	0.21114564
205	0x3ec4cf5a	0.38439447
206	0xbf04bc8a	-0.5185019
207	0x3c8ed2f8	0.017434582
208	0x3e5ce7ee	0.21572849
209	0x3eeb3141	0.45936015
210	0x3edb6a67	0.42854616
211	0xbe825916	-0.25458592
212	0x3d5cd369	0.053912554
213	0x3e2ba236	0.16761097
214	0x3ea5e6e2	0.32402712
215	0x3ec216cf	0.37908027
216	0xbc98ee74	-0.01866839
217	0x3d61e66a	0.05515138
218	0x3edbc975	0.42927137
219	0xbd26b71d	-0.040701974
220	0xbe0a68bb	-0.13516514
221	0x3e91a9ba	0.28449804
222	0x3f01fec2	0.50779355
223	0x3f00a388	0.5024953
224	0x3ed5af41	0.4173527
225	0x3f70e523	0.94099635
226	0xbe396a7e	-0.1810703
227	0x3e79fb25	0.2441221
228	0x3f61f4c0	0.88264084
229	0xbe256abd	-0.16153999
230	0xbd5016b7	-0.050802913
231	0x3e19a786	0.15005311
232	0xbcec4fe7	-0.028846694
233	0xbe2d8b28	-0.16947615
234	0xbe32c195	-0.17456658
235	0xbe1c50ac	-0.15265149
236	0xbec97e21	-0.3935404
237	0xbe8efbec	-0.27926576
238	0x3f465916	0.77479684
239	0x3ea0512f	0.31311938
240	0x3da5ef1f	0.08102249
241	0x3dbeabeb	0.093101345
242	0xbc01e981	-0.007929207
243	0x3f29fb35	0.66398937
244	0x3ed0a45c	0.40750396
245	0x3d388514	0.04504879
246	0xbeff4bbe	-0.49862474
247	0xbe41b07d	-0.18914981
248	0x3d3ef1ac	0.046617195
249	0xbe6cd2f5	-0.23127349
250	0x3d486280	0.048922062
251	0x3d46fe61	0.04858244
252	0x3f017c36	0.50580156
253	0x3d013169	0.03154126
254	0xbf022f6b	-0.50853604
255	0x3df4d0fe	0.119539246

sequential/dense_2/MatMul f4 [101, 64]
0	0xbe42587f	-0.18979071
1	0xbe42fa2c	-0.19040745
2	0xbe563f11	-0.20922495
3	0xbe612470	-0.21986556
4	0x3cc2b02c	0.023765646
5	0xbe377288	-0.17914784
6	0xbe4d1d72	-0.20030764
7	0xbe4edfce	-0.20202562
8	0xbe6657fe	-0.22494504
9	0xbd4c9fd3	-0.049957108
10	0x3d34d226	0.044145726
11	0xbbded369	-0.0068001044
12	0xbe164c24	-0.14677483
13	0x3d13c77a	0.036078908
14	0xbe5d947f	-0.21638678
15	0xbf489341	-0.7834969
16	0xbe7a3b2a	-0.24436632
17	0xbe677746	-0.22604093
18	0xbe3287ff	-0.17434691
19	0xbc1842fe	-0.009293316
20	0xbe5111b0	-0.20416903
21	0xbe574f72	-0.210264
22	0xbe4cb29e	-0.19990012
23	0xbd169cec	-0.036770746
24	0xbe474746	-0.19460782
25	0xbe3b0e9d	-0.18267293
26	0xbe3beff3	-0.18353252
27	0x3d2358e9	0.039879713
28	0xbe49f2c0	-0.19721508
29	0xbe34f126	-0.17670116
30	0xbe6446ea	-0.22292677
31	0x3cd38fc7	0.025825394
32	0xbb517361	-0.003195964
33	0xbe4a6e36	-0.19768605
34	0xbe5912ca	-0.21198574
35	0x3b5fc959	0.0034147112
36	0xbe53866a	-0.20656744
37	0xbe4333cb	-0.19062726
38	0xbf92a7aa	-1.1457417
39	0xbe23b86b	-0.15988319
40	0xbe814c97	-0.25253746
41	0xbe5c945b	-0.21540968
42	0xbe6167b3	-0.22012214
43	0xbe7ff350	-0.2499516
44	0xbcd59682	-0.026072744
45	0xbe827f6f	-0.2548785
46	0xbe63fb9a	-0.22263947
47	0xbf244716	-0.6417097
48	0xbe2fb7d4	-0.17159969
49	0xbe5b2d78	-0.21404064
50	0xbe18abb2	-0.14909247
51	0xbe604f65	-0.21905287
52	0xbe185350	-0.14875531
53	0xbedb9202	-0.42884833
54	0xbe67a554	-0.22621661
55	0xbe26cf10	-0.16289926
56	0xbe53fed1	-0.20702673
57	0x3d0ac0e2	0.033875354
58	0xbcb65436	-0.022256952
59	0xbe64e20e	-0.22351858
60	0xbe564d9c	-0.20928043
61	0xbe1a64ab	-0.15077464
62	0xbfa6d69a	-1.3034241
63	0xbe359233	-0.17731552
64	0xbe303f7b	-0.17211716
65	0xbe815c95	-0.25265947
66	0xbe6df515	-0.23238023
67	0xbe38ff21	-0.18066074
68	0xbb21def9	-0.0024699552
69	0xbe48917b	-0.19586746
70	0xbe15cc11	-0.14628626
71	0xbe3c900a	-0.18414322
72	0xbe83fd02	-0.25778967
73	0xbd37a065	-0.0448307
74	0xbcc6dfca	-0.024276633
75	0xbd2631e0	-0.04057491
76	0xbe1b97d8	-0.15194643
77	0xbcc92fa7	-0.024558855
78	0xbe4836ee	-0.19552204
79	0xbf499246	-0.7873882
80	0xbe1aa18e	-0.1510069
81	0xbe227bc0	-0.1586752
82	0xbe6b583f	-0.22982882
83	0x3ba06864	0.004895257
84	0xbe81a7e7	-0.25323412
85	0xbe747aec	-0.23875016
86	0xbe2d3ab6	-0.16916928
87	0x3c406d41	0.011744798
88	0xbe24d17c	-0.16095537
89	0xbe7fc6ef	-0.24978231
90	0xbe1968c4	-0.14981371
91	0x3cf1f032	0.02953348
92	0xbe6e83b9	-0.23292436
93	0xbe787db6	-0.24266705
94	0xbe31c678	-0.17360866
95	0xbc424a78	-0.011858575
96	0x3bd5b8a5	0.0065222555
97	0xbe7b7eb4	-0.24560052
98	0xbe7257c4	-0.23666292
99	0x3cac9f65	0.021072099
100	0xbe42c5e9	-0.19020809
101	0xbe2d80c9	-0.16943659
102	0xbf93ee0f	-1.1557025
103	0xbe70fce6	-0.23533973
104	0xbe2455f1	-0.16048409
105	0xbe2b9b70	-0.16758513
106	0xbe5c56f6	-0.21517548
107	0xbe5d6af5	-0.21622832
108	0x3d1b2273	0.03787465
109	0xbe728b79	-0.23686017
110	0xbe3ad714	-0.18246108
111	0xbf273989	-0.65322167
112	0xbe58f6c5	-0.21187885
113	0xbe4c6fe5	-0.1996456
114	0xbe275f0b	-0.1634485
115	0xbe6b0509	-0.2295114
116	0xbe3d012c	-0.18457478
117	0xbeea3cf6	-0.45749635
118	0xbe2f81a1	-0.17139293
119	0xbe31629f	-0.17322777
120	0xbe34d41e	-0.17659041
121	0x3c082246	0.008308953
122	0xbd719a15	-0.058984835
123	0xbe3187ab	-0.1733691
124	0xbe6851f7	-0.22687517
125	0xbe4d04c6	-0.20021352
126	0xbfa060e2	-1.2529566
127	0xbe2c7694	-0.16842109
128	0xbe4169ed	-0.18888064
129	0xbe7f28f4	-0.24917966
130	0xbe62859d	-0.22121282
131	0xbe290fc0	-0.16509914
132	0xbcb9a428	-0.022661284
133	0xbe6ab235	-0.22919543
134	0xbe12b94c	-0.14328498
135	0xbe35cd42	-0.17754081
136	0xbe7dc48b	-0.24782006
137	0xbd49dc1a	-0.04928217
138	0xbd1b451c	-0.037907705
139	0x3d172d3f	0.036908384
140	0xbe2237e0	-0.15841627
141	0x3d3af692	0.045645304
142	0xbe38bbb0	-0.18040347
143	0xbf50806d	-0.8144596
144	0xbe21edf6	-0.15813431
145	0xbe492590	-0.19643235
146	0xbe352465	-0.17689665
147	0xbd211778	-0.039329022
148	0xbe7ea1f3	-0.24866466
149	0xbe30d13f	-0.17267321
150	0xbe779fd1	-0.24182059
151	0xbc226272	-0.0099111665
152	0xbe260650	-0.16213346
153	0xbe470666	-0.19436035
154	0xbe233b81	-0.15940668
155	0x3c4f3b83	0.012648466
156	0xbe677077	-0.22601496
157	0xbe8b8df8	-0.2725675
158	0xbe3c80cf	-0.18408512
159	0x3bb356ec	0.0054730084
160	0xbd5ab638	-0.053396434
161	0xbe527080	-0.20550728
162	0xbe32e212	-0.17469051
163	0xbb80b914	-0.003928313
164	0xbe2c2f1f	-0.1681485
165	0xbe2193d3	-0.15779047
166	0xbf99d742	-1.2018816
167	0xbe799467	-0.24373017
168	0xbe4bedab	-0.19914882
169	0xbe11f6d7	-0.14254318
170	0xbe6b38a5	-0.22970827
171	0xbe699cb8	-0.2281369
172	0xbd045cda	-0.032315113
173	0xbe4d7e70	-0.20067763
174	0xbe520153	-0.20508318
175	0xbf1b43c3	-0.6065027
176	0xbe6d43e2	-0.23170426
177	0xbe5af334	-0.21381837
178	0xbe31b6ca	-0.17354885
179	0xbe443e3d	-0.19164367
180	0xbe3b02f4	-0.18262845
181	0xbedaf21b	-0.42762837
182	0xbe3ba11c	-0.18323177
183	0xbe54cb06	-0.20780572
184	0xbe6981ab	-0.2280337
185	0xbd6a87fc	-0.05725859
186	0xbb08cc5d	-0.0020873763
187	0xbe5cb21b	-0.21552317
188	0xbe6568d5	-0.22403271
189	0xbe4bbfb1	-0.19897343
190	0xbfa49958	-1.2859297
191	0xbe278da2	-0.16362622
192	0xbe6a4001	-0.22875978
193	0xbe8484db	-0.2588261
194	0xbe35b30a	-0.17744079
195	0xbe2e612b	-0.17029254
196	0xbd086237	-0.03329679
197	0xbe589db2	-0.21153906
198	0xbe326c86	-0.17424211
199	0xbe67574c	-0.22591895
200	0xbe26f2e5	-0.16303594
201	0xbd4974ff	-0.04918384
202	0xbd528bd4	-0.05140288
203	0x3d005493	0.031330656
204	0xbe441c5c	-0.19151443
205	0xbd5c358e	-0.05376201
206	0xbe6e54a9	-0.23274483
207	0xbf3f6a94	-0.74772
208	0xbe24b927	-0.16086255
209	0xbe7900af	-0.24316667
210	0xbe5feea7	-0.21868382
211	0xbc99c547	-0.018770827
212	0xbe2fc0f7	-0.17163454
213	0xbe7cbb00	-0.2468071
214	0xbe5fc6a2	-0.21853116
215	0x3b6fa3f1	0.0036566223
216	0xbe64e69c	-0.22353595
217	0xbe44fdfc	-0.19237512
218	0xbe3cdb95	-0.18443139
219	0xbbba8130	-0.00569167
220	0xbe37c73a	-0.17947093
221	0xbe333a01	-0.17502595
222	0xbe446745	-0.19180019
223	0xbc8a29b3	-0.016865587
224	0xbd6f5385	-0.05842926
225	0xbe55a897	-0.20865093
226	0xbe4273f8	-0.18989551
227	0xbd4c013a	-0.049805857
228	0xbe82c844	-0.25543416
229	0xbe3e6a2f	-0.18595193
230	0xbf8f6e2d	-1.1205498
231	0xbe1c77e5	-0.15280111
232	0xbe3dfa57	-0.18552528
233	0xbe49ec3d	-0.19719024
234	0xbe31139e	-0.1729264
235	0xbe6e5cb4	-0.23277551
236	0xbc53b2bb	-0.012921031
237	0xbe6831fc	-0.22675318
238	0xbe5dab9b	-0.21647494
239	0xbf2320c2	-0.6372186
240	0xbe79c931	-0.24393155
241	0xbe580755	-0.21096547
242	0xbe439c21	-0.19102527
243	0xbe66c63b	-0.22536556
244	0xbe2fe087	-0.17175494
245	0xbef23bce	-0.47311252
246	0xbe3c5d40	-0.18394947
247	0xbe66bde7	-0.2253338
248	0xbe6de889	-0.23233236
249	0xbc330cb2	-0.01092832
250	0xbd4d03dd	-0.050052512
251	0xbe7c1aea	-0.24619642
252	0xbe4922e7	-0.1964222
253	0xbe69954e	-0.22810861
254	0xbfaa8094	-1.3320489
255	0xbe1d8a34	-0.15384752
