app/src/main/assets/model_red-all.tflite (tflite, 105488 bytes, 14 tensors)

sequential/dense_4/MatMul;sequential/dense_4/BiasAdd f4 [91]
000000 f3 fe 44 bf da 1d 45 bf 34 cf 45 bf 00 45 45 bf
       -0.7695152 -0.76998675 -0.7726929 -0.7705841
000010 3e 29 40 bf e8 79 6f bf 7f d8 46 bf 54 0a 46 bf
       -0.7506293 -0.9354539 -0.77674097 -0.7735951
000020 23 1c 10 bf 8d 9c 46 bf 75 46 fc be 1b f4 0b bf
       -0.56292933 -0.7758263 -0.49272504 -0.5466935
000030 2e 32 46 bf c0 a6 4a 3f 0b 2d bf 3e 4c 85 25 bf
       -0.7742032 0.7916069 0.37339053 -0.6465652
000040 54 c2 85 bf 13 75 45 bf 79 38 43 bf 6a 19 45 bf
       -1.0449929 -0.77131766 -0.76258045 -0.76991904
000050 13 26 42 bd ee 6c e0 3d 5a 72 42 bf 53 29 ac 3e
       -0.04739959 0.10958277 -0.75955737 0.33625278
000060 2a e7 5b 3e b1 4f d0 3f 72 e8 a1 3f a7 46 44 bf
       0.21474901 1.627432 1.2649062 -0.76670307
000070 fd d8 d8 3d 78 b1 87 3f 0f 2a cd 3f 90 ec 68 bf
       0.10588262 1.0601034 1.602846 -0.90985966
000080 27 a2 45 bf 76 9a 31 3f 35 02 d2 3f 20 97 b2 3e
       -0.7720055 0.69376314 1.6406924 0.34880924
000090 dd 4e 37 40 d7 d7 46 bf 93 6c 16 3f 9d 56 cf 3f
       2.8641884 -0.77673095 0.5875942 1.6198307
0000a0 57 f2 c2 be a4 f9 a6 3f eb 91 43 bf f3 16 cd be
       -0.38075516 1.3044934 -0.7639453 -0.4005657
0000b0 1e cf 28 3e ab 08 e7 be 52 74 09 3f 27 b5 45 bf
       0.16485259 -0.451238 0.53693116 -0.7722954
0000c0 1e 63 f5 3e cd 26 f9 be a0 57 4c bf 60 50 b2 be
       0.47927183 -0.48662415 -0.79821205 -0.34826946
0000d0 a9 a9 45 bf 4e 0d d8 be ff 84 7b 3e d0 c4 0e bf
       -0.77212006 -0.4219765 0.24562453 -0.5576906
0000e0 fa 88 8d 3d 71 b6 45 bf a5 e3 07 bf 3e 7e da 3d
       0.06910892 -0.7723151 -0.53081733 0.1066861
0000f0 6a a6 4b bd f1 95 56 bd ba 14 44 bf cb f2 43 bf
       -0.04971925 -0.05238909 -0.76594126 -0.7654235
000100 d1 1b 4d be 29 bf 44 bf 60 1e 45 bf fe 9d a9 be
       -0.20030142 -0.7685419 -0.76999474 -0.3312835
000110 56 c3 17 be c0 ab 43 bf 78 8f 44 bf 8e a4 45 bf
       -0.14820608 -0.76433945 -0.76781416 -0.77204216
000120 af f9 9b 3e 83 51 41 bf 12 d7 45 bf 82 aa 46 bf
       0.3046393 -0.75515 -0.77281296 -0.77603924
000130 af 00 45 bf fd eb 45 bf 7d dd 43 bf a6 47 45 bf
       -0.7695417 -0.77313215 -0.7650984 -0.7706245
000140 6b 5a 45 bf d7 07 44 bf 03 be 44 bf 1d 70 46 bf
       -0.7709109 -0.7657446 -0.76852435 -0.7751482
000150 86 56 44 bf 36 cb 46 bf a0 43 45 bf 32 62 44 bf
       -0.76694524 -0.77653825 -0.7705631 -0.76712334
000160 f6 15 44 bf c2 a0 45 bf 52 5b 45 bf
       -0.7659601 -0.7719842 -0.7709247

sequential/batch_normalization_3/batchnorm/add_1 f4 [64]
000000 0c d2 94 bf 54 1f 92 3f 7e 8b af bf a8 86 75 bd
       -1.1626601 1.141581 -1.3714445 -0.05994287
000010 63 0d 4b bf a7 e1 88 3d c6 d7 cf be 46 9b f9 3f
       -0.793173 0.06683665 -0.4059431 1.9500511
000020 5d f9 21 bf c8 96 b7 bc 08 6b 2e 3f eb 15 6d 3f
       -0.63271123 -0.022410765 0.68132067 0.9261157
000030 c3 2e 94 3f 38 a9 61 bf 7f 83 15 40 22 ef 7c 3f
       1.157677 -0.8814883 2.336151 0.9880239
000040 dc f1 5a 3f 67 b8 3e 3f 4d bd 86 3d 68 e8 15 3c
       0.855253 0.74500126 0.06579075 0.009149648
000050 c7 3e 0b be 03 4f 81 bf 0c 0a 5a bf 7e 0a 89 bf
       -0.13598166 -1.0102237 -0.8517158 -1.0706327
000060 e0 e3 aa be 18 68 bc bc 33 5e 08 c0 70 9a 87 bf
       -0.3337698 -0.022998855 -2.1307495 -1.0594006
000070 e1 8d 36 bf e6 7a 6b bf 3e 2c 02 3f 44 9a 13 40
       -0.7131024 -0.91984403 0.5084876 2.3062906
000080 a8 cb 1e 3e cd 3b dc be 6b 28 9a 3f 5a e3 09 3e
       0.15507376 -0.43014374 1.2043585 0.13465634
000090 cf 61 db 3e c2 d8 10 bf 56 43 91 3f 60 7e ea 3e
       0.4284806 -0.56580746 1.1348674 0.4579954
0000a0 00 74 ec be 02 a4 48 3f d8 46 94 3d b1 ae 79 3f
       -0.4618225 0.78375256 0.07240075 0.9753218
0000b0 c7 60 fb 3e 85 b7 6f 3f 73 f9 6a bf 55 03 36 be
       0.49097273 0.93639404 -0.9178688 -0.17774709
0000c0 61 87 e4 be 9d 4a 99 be b5 a9 7c 3e 50 64 0d 3f
       -0.44634536 -0.29939738 0.24674113 0.5523119
0000d0 16 47 c7 bd 5f c4 85 bf 25 74 b7 3e c8 7f 29 3f
       -0.097303554 -1.0450553 0.358308 0.66210604
0000e0 e0 c7 38 be 1a b1 3d 3e e6 87 5a 3e 0a e5 84 3f
       -0.18044996 0.1852459 0.21340904 1.0382397
0000f0 50 50 87 3d fa 27 1d bf a8 c6 8d 3f 3b 17 19 bf
       0.06607115 -0.61389124 1.107625 -0.5980107

sequential/batch_normalization_3/batchnorm/mul_1 f4 [64, 48]
000000 25 40 0b bc 8e 5d 8d 3e a4 ea b2 3e b9 2a 71 bd
       -0.00849918 0.2761044 0.34944642 -0.058878634
000010 9a 88 8d 3e f7 49 5a bf 04 8e e7 bd 51 af 00 bf
       0.2764328 -0.8526911 -0.11306384 -0.5026751
000020 9c 92 3f 3e 08 2b e3 3e 02 dc 17 3e f0 69 81 bd
       0.18708271 0.44368768 0.1483002 -0.06319034
000030 46 2f 86 3d 00 5c 8f 3d 45 9e a0 be be 89 9c be
       0.065519854 0.069999695 -0.3137075 -0.3057384
000040 cb 94 c5 3e ce 38 4f 3f c5 c3 af 3e d3 aa 10 bf
       0.38590083 0.8094605 0.34329048 -0.5651066
000050 93 2c 93 3e e5 9d 84 bc 34 65 0d 3f 19 30 32 bf
       0.28744945 -0.016188571 0.5523255 -0.6960464
000060 77 07 fc be 84 58 70 be 6e 71 86 be 35 f7 32 bf
       -0.49224445 -0.23471266 -0.26258415 -0.6990846
000070 08 03 8f be ee 2b 34 3e e3 3b 0d 3f e9 49 55 3e
       -0.27932 0.17594883 0.55169505 0.20828976
000080 49 05 ef bb 27 2d 23 bd 7f 57 fc 3c 63 19 2d 3e
       -0.007294331 -0.039837983 0.03080344 0.16904216
000090 99 6d ad 3e 41 41 2b 3f 3e 25 3e 3f 66 f4 2b 3d
       0.3387268 0.66896445 0.7427558 0.041981123
0000a0 ed f1 22 3f c7 b5 c3 be be 22 13 3e 97 f8 e1 3e
       0.636504 -0.38224623 0.14368722 0.44134971
0000b0 c2 7d 01 be 33 8e 48 be 88 54 d8 3e e9 9a 9d be
       -0.12645629 -0.19585495 0.42251992 -0.3078225
0000c0 ad c3 d6 3d 92 fb e6 be fa 07 b1 be 83 6a 08 3f
       0.10486541 -0.45113808 -0.34576398 0.53287524
0000d0 01 15 6f be 90 7b f8 be 86 7d 7c 3e 6c f5 da be
       -0.23347856 -0.4853177 0.24657258 -0.42765367
0000e0 fa 33 da bd a1 da ff 3d c9 e4 54 3e b0 ed 29 bf
       -0.10654445 0.12492872 0.207904 -0.6637831
0000f0 71 a7 82 be 72 d8 e0 be c3 89 02 3f d3 25 e6 be
       -0.25518373 -0.43915135 0.5099146 -0.44950733
000100 d9 ae 04 bf da 59 e8 bd 37 0b a1 3f a4 2e 59 3d
       -0.51829296 -0.11345263 1.2581547 0.053022996
000110 37 f8 1b bf 37 50 14 bf ae dd 06 3f c9 46 b4 3c
       -0.6092562 -0.579349 0.52682006 0.02200641
000120 bd e9 98 be 6f 2e 98 be aa 15 f1 be 03 87 80 3d
       -0.29865828 -0.29722926 -0.4708684 0.062757514
000130 08 9b 53 3d b8 5d 63 bd d3 33 07 be fc fa 3c be
       0.05166152 -0.0555093 -0.13203363 -0.18455118
000140 aa 01 1a 3e 19 c2 a6 be a6 e0 a6 3e 00 a5 69 be
       0.15039697 -0.3256996 0.32593268 -0.22816849
000150 c0 68 31 3e 8e 75 b8 be b6 43 89 3d e5 7e 4d 3f
       0.17325115 -0.36027187 0.06702368 0.8027175
000160 4e 71 0d be 5d 8a 05 bf 0f 80 fb be 70 de 1f 3f
       -0.13812754 -0.5216425 -0.49121138 0.6244879
000170 1d 8d 4a 3e 1b 6c b2 be d3 bf b9 3e 46 84 5b 3e
       0.19780393 -0.34848103 0.36279163 0.21437177
000180 db db e7 3c c4 51 a0 3e 15 e9 0e bf 4c 59 68 3e
       0.028303077 0.31312382 -0.55824405 0.22690314
000190 41 21 b4 bd 2f 36 36 3e e5 be 40 3e cb d5 da 3d
       -0.08795405 0.17794107 0.1882282 0.10685309
0001a0 5b 84 1c 3e 71 ec 89 be 9a 7b 34 be 61 34 ec 3d
       0.15284865 -0.26938203 -0.17625275 0.11533428
0001b0 a1 cd d8 be 20 05 4e bb 83 de 95 3e 9a 64 39 3f
       -0.42344382 -0.003143616 0.29271325 0.7241913
0001c0 87 f7 b2 3d 39 7a 66 bc c0 85 e2 be ca 79 6a 3e
       0.08738618 -0.014067226 -0.44242668 0.22898021
0001d0 cd 0d 2b 3e 41 e8 3c be 2f 7e ae be 63 d5 ac 3e
       0.16704483 -0.18447973 -0.34080645 0.3375655
0001e0 f4 f3 9d 3e 10 23 86 be ca 57 99 3e 02 2c 20 3e
       0.30850184 -0.26198626 0.2994979 0.15641788
0001f0 1e dd c9 3b bc bd 41 be 0e e4 c4 3e 03 e3 b7 3d
       0.0061603924 -0.18920034 0.38455242 0.08978846
000200 9e 28 ee 3e b9 7a cf bd ca a5 f2 3e 14 38 10 be
       0.46515363 -0.10130829 0.47392112 -0.14083892
000210 e1 82 8b bd 09 13 8c 3e aa 76 17 3f f1 b8 20 3d
       -0.068120725 0.27358273 0.5916544 0.039238874
000220 c2 95 72 3e 50 12 b0 3d 4a 03 07 bd 80 33 20 3e
       0.2368994 0.08597243 -0.03296212 0.15644646
000230 6a 45 db 3d 5b d6 06 3e 38 28 56 be 6a 47 4e be
       0.10706599 0.13167708 -0.2091378 -0.2014443
000240 1d 8d 77 be a4 41 80 3e 30 af 84 be 8d 38 c5 be
       -0.24174924 0.2505008 -0.25914907 -0.38519707
000250 34 64 14 be 89 96 15 3e 53 a0 eb 3e c2 36 7e 3e
       -0.1449135 0.14608206 0.46020755 0.24825576
000260 75 57 2b be bc bc 1d 3f 40 21 67 be 23 7d 90 be
       -0.16732581 0.6161611 -0.22571278 -0.28220472
000270 8f cd 81 be e4 52 75 3e ac 64 8d be 57 b8 5a bd
       -0.2535214 0.23957402 -0.2761587 -0.053398456
000280 f6 a9 99 3e 20 61 1f 3d f7 cf 5d 3e fb 57 72 bd
       0.30012482 0.038910985 0.21661364 -0.059165936
000290 81 97 d3 3e c0 4e 13 3e 3b 9a 55 3d db ab d9 be
       0.41326526 0.1438551 0.05214904 -0.42513928
0002a0 5b 6b fc bc 9d 3e 3e 3e 5e ef 8f 3e ae 7b a2 3d
       -0.03081291 0.18578573 0.2811231 0.07933746
0002b0 2a 87 bb 3d eb a9 35 3d 47 8f e1 bd 0f 57 10 3e
       0.0915664 0.0443515 -0.11013656 0.1409571
0002c0 30 b2 14 bd 46 43 1d be e6 39 92 be bd cd b1 bd
       -0.036302745 -0.15357694 -0.28559798 -0.086818196
0002d0 ae 39 4f 3d 60 24 ee bd 50 57 af be fd 3b 43 be
       0.050592117 -0.11628032 -0.34246302 -0.19065852
0002e0 28 03 89 bd 01 75 b4 be 8a f6 3c bd 16 1c 21 be
       -0.06690055 -0.35245517 -0.046133555 -0.1573337
0002f0 f8 7e d1 3c 12 f5 16 3c 38 01 5e 3e d6 2d 8c be
       0.025573239 0.009213703 0.21680152 -0.2737872
000300 6b 0f d9 3d f2 26 4b be bc fb 39 bd 81 bc ce be
       0.10598644 -0.19839075 -0.04540609 -0.40378192
000310 af dc 9c 3d a0 b6 4b 3c d7 9e 2f bf 48 6b d0 3e
       0.076592796 0.012433678 -0.68601745 0.4070685
000320 ca 8e 4e 3f 32 f4 f8 3e c2 c6 42 3d 1e 93 59 3e
       0.8068663 0.48623806 0.04755283 0.21247527
000330 df 1e 6a 3e d6 44 fa 3e 6c 92 97 be 87 57 9b 3e
       0.22863339 0.48880643 -0.296039 0.30340216
000340 ba 10 a9 be de 8c 11 3e ed 64 96 be 6c cb 80 3e
       -0.33020574 0.14213893 -0.29373875 0.251552
000350 73 2f 1d bf 03 10 cf 3e d6 a4 86 3e d1 28 07 bf
       -0.61400527 0.40441903 0.26297635 -0.52796656
000360 99 e1 ed bc c4 ff 93 bd d1 51 0e bf 9e a8 fd bd
       -0.029038237 -0.07226518 -0.5559359 -0.12385677
000370 bb f2 59 3e e7 ac 00 be 91 75 5d 3e a5 40 d1 be
       0.21284 -0.12565957 0.2162688 -0.40869632
000380 f3 12 d1 3e d0 d0 72 3e 2f 46 15 be 7b 29 d2 3c
       0.4083477 0.23712468 -0.14577554 0.025654545
000390 46 49 88 be e4 1c 0c 3e 04 e4 9b bd d8 af ee 3e
       -0.26618403 0.13682896 -0.0761185 0.46618533
0003a0 5f fc e6 be b5 59 7b be b5 29 18 3e 22 86 0a bf
       -0.4511442 -0.2454594 0.1485966 -0.5411092
0003b0 86 b9 28 3d 39 7f 00 3d 94 5b 00 3f 81 7f df 3e
       0.041192554 0.03137133 0.5013974 0.43651965
0003c0 d4 42 53 3d 64 4f 09 3f b5 78 f9 3b f0 a6 4a 3e
       0.051577404 0.53636765 0.0076132664 0.19790244
0003d0 2f 2e 64 be 7d 29 a8 be 92 ed 8b 3c 3c 65 3f be
       -0.22283243 -0.32844153 0.017081056 -0.18690962
0003e0 ca 39 b1 be c3 44 bb 3e 95 ec 02 bf 14 5b a0 be
       -0.34614402 0.365759 -0.51142246 -0.31319487
0003f0 36 ab 09 3d dc e7 47 be 05 54 57 3e a7 0f 7c 3e
       0.033610545 -0.19522041 0.21028145 0.24615346

sequential/dense_1/MatMul;sequential/dense_1/BiasAdd f4 [48]
000000 e3 0d 1c bd f6 8b 9c 3c 6a 70 d5 bc 01 82 9a 3d
       -0.03809918 0.019109707 -0.02605458 0.075443275
000010 2c b9 84 3d 5b 63 e6 bd 0f 2b 23 be 4a 03 1e 3e
       0.06480631 -0.11249419 -0.15934394 0.15430942
000020 9d 07 3b 3e a3 10 5e 3e d3 88 0f 3e ed 02 00 bd
       0.18264623 0.21686034 0.14017038 -0.03125279
000030 e6 09 25 bd ab 90 97 3d 0e 92 79 3c 9e 1b 4e be
       -0.040292643 0.0740064 0.015232576 -0.20127723
000040 b3 b9 52 be 7b b7 36 bd 46 75 16 be fc 28 e4 3d
       -0.20578651 -0.044608574 -0.14693174 0.1114063
000050 e3 f3 40 3c 19 37 75 3e 32 cb 0b 3e 80 b6 14 bd
       0.011776897 0.239468 0.13651732 -0.036306858
000060 d7 b7 64 3d ee 3b be 3d d5 4f 35 be 7b 9b 34 bd
       0.055839386 0.092887744 -0.17706235 -0.04409359
000070 8e b7 01 3e 04 ea 95 be 69 a4 ed bd 3b e1 23 3e
       0.12667677 -0.29280102 -0.116036244 0.16003887
000080 c4 80 1c 3c 5d 0d 67 be 20 3a cd bd 36 60 f1 bd
       0.0095521845 -0.22563691 -0.10020852 -0.11785929
000090 45 f8 84 3d 6a 59 05 3e 87 21 46 3d 7c e7 23 be
       0.06492666 0.1302239 0.048371818 -0.16006273
0000a0 9c 4b 14 3e bc f4 7e 3c 13 f3 2f 3e 83 8f bd bd
       0.14481968 0.015561279 0.17182569 -0.09255888
0000b0 bb db ea bd 78 5f 4a 3d 93 77 e3 bd 7c e1 06 3e
       -0.114676915 0.049407452 -0.11106791 0.13171953

sequential/dense/MatMul;sequential/dense/BiasAdd f4 [32]
000000 4d ea ec 40 68 33 9c 3f 1d 4e af be ac a1 58 40
       7.403601 1.2203188 -0.34239283 3.3848677
000010 35 f5 73 c0 0c a8 af 40 77 db e8 40 d1 b1 ae bf
       -3.8118412 5.4892635 7.27679 -1.3648015
000020 48 94 1c c0 82 b2 54 bf 2d e9 01 c1 a8 37 40 3f
       -2.4465504 -0.8308488 -8.119428 0.75084925
000030 fa 45 1c c0 f6 09 6d 40 64 e3 ec 3f ed 8e dd bf
       -2.441771 3.703733 1.8506894 -1.7309242
000040 01 08 6e c0 b0 e9 4c c0 11 c0 fa 3f 03 e7 ab 3f
       -3.7192385 -3.2017632 1.9589864 1.3429874
000050 9d 82 3a bf b1 19 fd be 06 54 da 40 2b a4 9f 40
       -0.7285555 -0.49433663 6.822757 4.98879
000060 01 b5 48 c0 2d 95 df bd 65 38 be bf c0 41 bd 3e
       -3.1360476 -0.10917125 -1.486096 0.36964226
000070 1b 2d 55 40 99 89 2f bf 00 fa b5 40 f3 b2 94 c0
       3.330878 -0.6856933 5.6867676 -4.6468444

sequential/dense_3/BiasAdd/ReadVariableOp/resource f4 [128]
000000 29 c1 89 bd c1 5b 1d be bc 73 f9 bd c2 53 76 bd
       -0.067262955 -0.15367033 -0.12180278 -0.06013847
000010 ad 59 2c be a8 98 2c bd 19 5d ba bd 86 91 41 bd
       -0.16831084 -0.04213777 -0.09099788 -0.047257923
000020 4f 8b 91 bd 3f 03 1c be 47 42 ae bd f2 6b 3b bd
       -0.07106649 -0.15235613 -0.08508735 -0.04575724
000030 7d eb c8 bd fe 8b dc bb 59 b4 19 be d9 b4 d7 bd
       -0.09810541 -0.0067305556 -0.15010203 -0.10532541
000040 95 fa c2 bd 04 6e 1d bd 7b e7 17 be 76 96 b2 bd
       -0.09520451 -0.038434997 -0.14834397 -0.087201044
000050 c2 f2 76 bd 1f 51 04 bd 22 40 29 bd e2 e0 c5 bd
       -0.060290106 -0.032303926 -0.041320927 -0.096620336
000060 95 a2 11 be 7c 48 09 bb f8 c5 15 be 3b c7 9d bd
       -0.14222176 -0.0020947745 -0.146263 -0.07704016
000070 e7 d2 88 3d e0 cd 2e be 3e fc 94 bb 6d b3 80 3d
       0.066808514 -0.17070723 -0.004546671 0.06284223
000080 d5 e0 0e 3d 2d 9a ba bb e3 6f 11 be 11 46 43 3d
       0.034882385 -0.0056946487 -0.14202838 0.047674242
000090 69 b5 b3 bd 92 1f 1b 3d b0 64 e8 bd fc 67 b9 3c
       -0.087748356 0.037871905 -0.113473296 0.022632591
0000a0 7f 20 f3 bd f3 c7 0d 3b 5f 90 83 3d 6e 35 28 be
       -0.118714325 0.0021634072 0.06424021 -0.16426632
0000b0 8b a3 54 be fe 42 e2 3c 6a 64 e1 bd 5c 21 4c 3d
       -0.20765512 0.027619835 -0.110054806 0.0498365
0000c0 17 fd 41 be 42 32 d5 bd 2f 5d c3 bd f9 fa b8 bd
       -0.18944202 -0.104099765 -0.09539258 -0.09032244
0000d0 70 da 13 be f7 95 43 bd 22 90 f0 bd 48 3d f3 bd
       -0.14438796 -0.04775044 -0.11746241 -0.11876923
0000e0 74 62 af bd 9f b8 fd bd 28 43 90 bc f4 08 d0 bd
       -0.085637 -0.12388729 -0.017610148 -0.10157958
0000f0 1b 08 16 be d8 f1 ed 3d df 0b 15 be dc 62 f5 bd
       -0.1465153 0.11618394 -0.1455531 -0.119817466
000100 3a 3b ce bd 1a 9a c2 bd d6 7c 95 3d f3 66 ba bd
       -0.1006989 -0.09502049 0.07299201 -0.09101667
000110 6b 02 91 bd 36 e3 06 3e a0 7c 3d 3d 8d 8f 13 bd
       -0.07080539 0.13172612 0.04626143 -0.036025573
000120 bb 2c df bc 44 33 8c bd 37 5c bf bd 51 16 ad bd
       -0.027243009 -0.06845716 -0.093437605 -0.08451522
000130 f6 90 dc bd a1 d3 ea bd f8 61 d9 bc 33 ff 0c be
       -0.107698366 -0.11466146 -0.026535973 -0.13769226
000140 3a e4 6e bd 03 1d f9 bc f3 fe 01 3d be e7 3f bd
       -0.058323123 -0.030409342 0.03173728 -0.046851866
000150 29 54 f8 bd a3 39 c9 bb b0 48 b2 bd 5a 4f c3 bb
       -0.12125427 -0.006140904 -0.0870527 -0.005960387
000160 92 eb 81 3c 48 77 1a be 10 55 92 bd 7a f0 a8 3d
       0.015859399 -0.15084565 -0.07145131 0.08248992
000170 20 ef 84 bc 13 67 19 be 0a 91 d6 bd dc 3d 37 be
       -0.016227305 -0.14980726 -0.10476883 -0.17894691
000180 df 2f c0 bd bb 06 99 bd 3c 97 6c bb 9e 7a b7 bd
       -0.09384131 -0.07471987 -0.0036100885 -0.08958934
000190 3f 4d f1 bd 9f 72 19 bd 32 d2 0a be a4 08 e8 bd
       -0.11782312 -0.037462827 -0.13556746 -0.11329773
0001a0 12 91 05 be 73 29 27 be 04 44 1c 3e 84 27 ea bd
       -0.13043621 -0.16324405 0.15260321 -0.11433318
0001b0 f9 da 84 bc 94 5f cb bd b2 ac 88 bd de 83 d1 bc
       -0.016217696 -0.099303395 -0.06673564 -0.025575574
0001c0 90 ab f1 bb c5 4a 71 be b8 5c ae 3c 10 2e 7b 3c
       -0.007375188 -0.23563679 0.021284446 0.015330806
0001d0 66 0f 08 bd 4b b9 0a be 92 2f c9 bd e2 b2 91 be
       -0.03321781 -0.13547246 -0.098235264 -0.2845679
0001e0 e4 3b cd bc c2 0b 01 be 4f ba 0d 3d 40 79 cf bd
       -0.025052972 -0.12602141 0.034601506 -0.101305485
0001f0 b6 82 d0 bd b9 0e 23 be 26 40 eb bd b9 22 23 be
       -0.10181181 -0.15923585 -0.11486845 -0.15931214

sequential/batch_normalization/batchnorm/mul f4 [8]
000000 3a c4 06 3e e8 57 82 3e e0 fc 89 3e cf 0c aa 3e
       0.13160792 0.25457692 0.2695074 0.33212897
000010 98 9f 71 3f f2 6b 19 3f 71 ba 18 3f 40 a0 9c 3e
       0.94384146 0.59930336 0.59659487 0.3059101

sequential/batch_normalization_1/batchnorm/mul f4 [32]
000000 9f 4d 02 41 bd f0 89 41 58 ef 4e 41 9b 04 3e 41
       8.14395 17.242548 12.933434 11.876124
000010 80 5e 4c 41 c9 a8 22 41 d0 d7 d6 40 98 d0 9f 41
       12.773071 10.166207 6.7138443 19.976852
000020 8e 58 33 41 71 3f 67 41 60 53 21 41 fd d2 7d 41
       11.20912 14.452989 10.082855 15.864011
000030 87 5c 2c 41 a6 a7 11 41 63 b8 1a 41 ef 06 a4 41
       10.77259 9.10343 9.670016 20.503386
000040 20 c6 37 41 e7 ce 66 41 eb e7 8d 41 c5 ee 5b 41
       11.48587 14.425513 17.738241 13.745793
000050 f0 21 45 41 a7 20 4c 41 c6 7f d1 40 6d e6 4b 41
       12.3207855 12.757972 6.5468473 12.743756
000060 39 44 23 41 a3 ba 9d 41 20 91 5f 41 3a 0a 85 41
       10.204156 19.716131 13.972931 16.629993
000070 c9 0a 30 41 5f 41 6a 41 8e 45 ed 40 25 c3 2f 41
       11.002633 14.64096 7.4147406 10.985143

sequential/batch_normalization_2/batchnorm/mul f4 [48]
000000 57 7d 28 41 09 b8 fe 40 1c 02 c9 40 03 52 52 41
       10.530601 7.959965 6.2815075 13.145022
000010 bf ce 2f 41 46 b5 d6 40 7a 8d 1a 41 cf 9f 0f 41
       10.987975 6.709628 9.65954 8.976516
000020 3f 85 c8 40 da ea 19 41 3c 27 2e 41 cd f2 de 40
       6.2662654 9.619837 10.884579 6.967139
000030 69 ea 17 41 88 32 0c 41 b6 0a 2b 41 4b ee b2 40
       9.494729 8.762337 10.690115 5.5915885
000040 28 f0 ce 40 6d be be 40 e6 65 04 41 f3 7b f2 40
       6.466816 5.9607453 8.274878 7.5776305
000050 b0 9d b2 40 56 73 d4 40 0f 6b cf 40 d2 3a f4 40
       5.581749 6.639079 6.4818187 7.63218
000060 11 78 01 41 d9 08 ec 40 3f 2c 01 41 0b 0f e7 40
       8.091813 7.37608 8.073302 7.2205863
000070 85 4c d7 40 d4 78 0e 41 44 db 05 41 36 9d ed 40
       6.728091 8.904499 8.366032 7.425441
000080 31 c2 ea 40 60 5e 35 41 41 fa 1d 41 d5 06 15 41
       7.336205 11.335541 9.873597 9.314168
000090 14 2e df 40 8d ee b9 40 59 e6 e4 40 18 d5 1a 41
       6.974375 5.81037 7.1531186 9.677025
0000a0 cb 5d 35 41 66 6f f0 40 10 ed f2 40 b1 52 03 41
       11.335399 7.5135984 7.5914383 8.207688
0000b0 3b 25 02 41 a5 22 35 41 14 24 12 41 fc bc f5 40
       8.134089 11.320958 9.133808 7.6793194

sequential/batch_normalization_4/batchnorm/mul f4 [128]
000000 b8 12 02 41 c7 51 18 41 4d 7b 18 41 32 86 0c 41
       8.12957 9.519965 9.530103 8.782763
000010 b2 94 22 41 d2 00 0d 41 1f 26 12 41 74 69 14 41
       10.161303 8.8127 9.134307 9.275745
000020 83 3a fe 40 f3 6a 13 41 85 80 10 41 a6 56 e5 40
       7.9446425 9.213611 9.031377 7.166827
000030 27 cd 15 41 1a 43 de 40 39 bd 18 41 cc 16 0c 41
       9.362586 6.945691 9.546197 8.755566
000040 65 21 22 41 70 88 1e 41 2c df 22 41 c3 ff fa 40
       10.133153 9.90831 10.179485 7.843721
000050 e8 e7 12 41 0d 38 09 41 98 c1 27 41 e3 df ee 40
       9.181618 8.576184 10.484764 7.46483
000060 22 71 0b 41 8c 0e 1c 41 d3 a0 00 41 5e 28 13 41
       8.71512 9.7535515 8.039264 9.197355
000070 65 70 0f 41 8d c9 14 41 1b 98 0d 41 56 ed f3 40
       8.96494 9.299207 8.849635 7.6227217
000080 96 34 0b 41 a8 26 f1 40 db ec 12 41 83 66 1a 41
       8.700338 7.535969 9.182826 9.650027
000090 c1 f4 02 41 ce 77 f9 40 41 85 0b 41 ac 1b 08 41
       8.184754 7.7958746 8.720033 8.506756
0000a0 46 20 27 41 dd 7e 04 41 04 8d 01 41 56 11 0b 41
       10.445379 8.2809725 8.096928 8.691732
0000b0 0c b0 1a 41 cb 03 15 41 e8 17 17 41 29 03 fd 40
       9.66798 9.313426 9.4433365 7.9066358
0000c0 93 84 19 41 60 9f 14 41 55 dd 2a 41 12 cf ee 40
       9.594867 9.28891 10.679036 7.462777
0000d0 0d 3c 11 41 12 60 d9 40 d1 a5 18 41 52 5f 14 41
       9.077161 6.7929773 9.5404825 9.273272
0000e0 ce 97 10 41 d5 43 0c 41 f6 65 0c 41 ff 27 0e 41
       9.037062 8.766561 8.774893 8.884765
0000f0 44 c7 0e 41 db 67 0d 41 d5 d8 0c 41 13 37 12 41
       8.923649 8.837855 8.8029375 9.138446
000100 45 c8 12 41 e9 63 11 41 11 38 0b 41 72 a3 19 41
       9.173894 9.086892 8.701188 9.602404
000110 0e f8 1e 41 17 6d d3 40 f8 31 10 41 67 97 02 41
       9.93556 6.6070666 9.012199 8.161963
000120 b5 b5 ff 40 92 f5 f7 40 53 fd 30 41 84 76 12 41
       7.990931 7.748727 11.061847 9.1539345
000130 85 03 21 41 3d d6 22 41 5f 63 02 41 25 18 20 41
       10.063359 10.177304 8.1492605 10.005895
000140 a2 0b fb 40 68 c0 24 41 a4 d4 00 41 4c 7f 22 41
       7.84517 10.296974 8.051914 10.156078
000150 19 9e 2f 41 dd ff 1b 41 96 52 e6 40 52 8b 00 41
       10.976098 9.749967 7.1975813 8.034014
000160 e3 74 12 41 a2 7d 53 41 fe 47 1a 41 f4 e3 d9 40
       9.153537 13.218172 9.642576 6.8090763
000170 b4 b2 1d 41 93 65 2c 41 c7 ef 3e 41 11 c7 24 41
       9.856129 10.774798 11.933539 10.2986
000180 03 9b 16 41 77 39 1b 41 a9 75 23 41 90 8f 0e 41
       9.412845 9.7015295 10.216226 8.910049
000190 b0 9b 1a 41 76 d2 05 41 eb 09 1f 41 24 8b 20 41
       9.66301 8.363882 9.939921 10.03397
0001a0 9d 94 06 41 4e e5 19 41 a3 15 03 41 b0 c1 05 41
       8.411283 9.618483 8.192782 8.359787
0001b0 d5 06 ff 40 82 0a e1 40 7f b8 d7 40 93 bb 00 41
       7.969584 7.0325327 6.7412715 8.0457945
0001c0 5b 24 2d 41 01 6b 2a 41 f4 01 15 41 bb 12 06 41
       10.821376 10.651124 9.312977 8.379573
0001d0 88 47 13 41 2b d2 f9 40 73 92 14 41 5d da 3c 41
       9.204964 7.8069053 9.285754 11.803311
0001e0 74 66 15 41 54 40 1a 41 72 e2 e6 40 e8 62 14 41
       9.337513 9.640705 7.2151423 9.274147
0001f0 a3 29 ee 40 d3 d3 2a 41 61 c3 f5 40 12 c1 0e 41
       7.4425826 10.676715 7.6801 8.922136

sequential/dense/MatMul f4 [32, 8]
000000 8a 15 d9 bb 48 4b 1c bd f6 7f 6b 3c 54 8d 77 bd
       -0.006624882 -0.03815773 0.01437377 -0.060437515
000010 7a de ba bd c2 cf 43 3c b5 44 df bc 0f 19 52 3c
       -0.09124465 0.011951389 -0.027254442 0.012823357
000020 df b9 c4 bc 9f bf 5f bc 65 cf d7 bc 7e 0d 2a 3d
       -0.024014411 -0.013656526 -0.02634401 0.041516773
000030 7e 7e 2b 3d 3c 87 d4 bd af 87 55 3c 6d 2b 10 bb
       0.04186868 -0.103773564 0.013032838 -0.002199854
000040 f5 5b 24 3d 47 ed d0 3d 73 d5 f1 bc 3f 8e 3f 3b
       0.04012676 0.10201507 -0.029520726 0.0029229072
000050 a5 9c 46 bd ab 55 a7 3c 95 5d 15 3c b6 b0 ab 3c
       -0.04848923 0.020426592 0.00911655 0.020958286
000060 ce 79 1b 3d d4 ff a2 3d 94 4d 3d 3c 75 e1 8d bd
       0.03795796 0.079589516 0.011554141 -0.06927768
000070 c3 ce 8b bd 91 ec b1 bc be 81 4a 3b 29 e2 52 3d
       -0.06826546 -0.021719249 0.0030900086 0.051485214
000080 34 d9 b5 3c a3 ec 0b bd cd 0c b3 3d 90 0f 0d 3c
       0.022198297 -0.03416122 0.08742676 0.008609667
000090 e8 65 47 bb d0 da 82 3c 23 ed 85 3d 23 f6 9a bc
       -0.003042573 0.015973479 0.06539371 -0.018916195
0000a0 29 8b a6 3c 10 8c 82 bc 64 80 67 bd fc 76 13 bd
       0.020330029 -0.015935928 -0.056518927 -0.036002144
0000b0 27 14 32 bd 44 08 8f bd 97 39 6b 3d 75 95 68 bc
       -0.04347625 -0.069839984 0.05742797 -0.01419579
0000c0 d4 15 a1 bc 46 93 d2 bd 3d c1 26 3a 34 7e f8 bc
       -0.019663729 -0.102819964 0.0006361192 -0.030333616
0000d0 e4 dc 7b bd d1 51 ee bb 57 eb 6f bb b5 14 11 bd
       -0.061489955 -0.007272937 -0.003660878 -0.03542014
0000e0 f6 8a ea 3c c6 0e ef 3b 92 60 68 bd 34 b8 fd 3c
       0.028630715 0.0072954623 -0.05673272 0.030971624
0000f0 49 20 5a bb 38 cb 8d 3b 98 e7 57 3d ce 9b bf bc
       -0.0033283404 0.004327204 0.0527111 -0.023389723
000100 cb a3 dd bd 51 3f 4e 3c a7 00 2b bd c9 60 85 3d
       -0.10822257 0.012588338 -0.04174867 0.06512601
000110 1a b6 10 3d 2a 1f 22 3c bd 32 9e 3c 98 1f 18 bd
       0.035329916 0.009895125 0.019311303 -0.037139505
000120 d9 6e ad bc 1f 0e 25 3e 11 87 d9 bc 36 22 9d bc
       -0.02117102 0.16118668 -0.026553662 -0.019181352
000130 1f 0f ff 3c d2 9b 99 bd e0 fa d9 bb eb 5a 85 3c
       0.03113514 -0.075004235 -0.006652221 0.016278705
000140 3c 86 3f 3d 5b 71 29 bd 47 d8 aa bc bf 26 8a 3c
       0.046758875 -0.04136787 -0.020855082 0.016864179
000150 3d 6c f9 3d d0 61 56 3c 23 6a 04 3d a8 57 88 bc
       0.12178848 0.013084844 0.032327782 -0.01664336
000160 aa 3d fc bc 9d ee 45 3d a4 6e 2d bd 46 0b 8a bd
       -0.030791122 0.048323262 -0.042341843 -0.067404315
000170 cf 91 88 3d 5d d4 25 bd 78 8b 7f bd bb c1 26 3d
       0.06668436 -0.04048573 -0.062388867 0.0407121
000180 80 6b ec 3d 20 7c ed bc 1a 35 3f 3d b6 69 b9 bc
       0.115439415 -0.028989851 0.0466815 -0.022633415
000190 9d 63 bd 3b 6b 96 95 bc fe 9d 55 3d 42 79 49 3c
       0.005779697 -0.018260201 0.052152626 0.0122969765
0001a0 ca 92 37 3c 64 59 72 3b 87 57 9f 3c a2 be 3f 3d
       0.011204431 0.003697955 0.019450916 0.04681266
0001b0 3a 0b 2a 3c de 78 19 bd e7 c1 c2 bd 52 65 73 bd
       0.010378653 -0.037468784 -0.0950964 -0.0594228
0001c0 f8 24 4c bd 22 49 86 bd 5c 6b 4a bd 5c 85 7b 3d
       -0.049839944 -0.06556918 -0.049418792 0.06140648
0001d0 39 bc 4c 3c 21 47 46 bc f2 f1 fa bc 93 19 24 3c
       0.012496048 -0.012101919 -0.030632947 0.010015863
0001e0 61 46 c6 bc 95 54 a1 3c 97 58 b1 3c ff 17 ad bd
       -0.024203481 0.019693652 0.021648688 -0.084518425
0001f0 af 09 1c 3c e8 5b 87 3d 8c b1 11 3c ae 95 f8 bc
       0.009523793 0.066093266 0.008892428 -0.03034481
000200 99 95 b9 bd 68 21 01 bd 67 cf ed bc a3 50 09 3d
       -0.090617366 -0.031526 -0.029029561 0.033524167
000210 e3 1c 6c 3d cf 13 34 3d 08 9b a1 bc d6 a5 c0 3c
       0.057644736 0.043964203 -0.019727245 0.023516577
000220 e7 a6 9b bd 0b ec 98 3d c2 da 6e 3d 77 a0 7b bd
       -0.076001935 0.074668966 0.058314092 -0.061432328
000230 1d fc 08 3d e4 43 3f bc 66 cf 7b 3d a7 54 60 bd
       0.03344356 -0.011673901 0.061477087 -0.05476823
000240 e5 0f 8a bd bd 2a ed 3d c1 b0 1f bd f6 a2 3c 3b
       -0.06741313 0.11580417 -0.038986925 0.0028783656
000250 26 30 2d bd 27 90 57 bb 31 62 80 bc 69 f3 98 3c
       -0.042282246 -0.0032892318 -0.015671821 0.018670755
000260 3f b5 85 bd 7d a7 02 3d a9 b6 c1 3d 21 07 ef 3b
       -0.065287106 0.03189801 0.09458668 0.007294551
000270 dc 86 63 bc 1f 39 43 bd 9c ce f8 bc 70 55 bb 3c
       -0.013887133 -0.047661897 -0.030371957 0.022867888
000280 17 fd 86 bd ee ae 31 3d 05 33 96 bc 5a 94 d4 bc
       -0.06591242 0.043379717 -0.018334875 -0.025949646
000290 f9 89 4d bc f7 fc cf 3d 4e fd b1 ba 03 07 d3 bd
       -0.012545102 0.10155671 -0.0013579519 -0.10304072
0002a0 f7 c3 57 3d 18 78 08 bd 8c a7 02 3d 2a b8 cb bc
       0.05267712 -0.033317655 0.031898066 -0.02486809
0002b0 84 d9 4f 3d 94 8f 18 3b 69 38 b1 bc d6 d5 c8 bd
       0.05074455 0.0023278939 -0.021633344 -0.09806411
0002c0 26 f5 6f 3d 0c a4 da bc 9d 89 1b bd c1 84 8e 3c
       0.0585834 -0.026689552 -0.037973035 0.017397286
0002d0 78 4c aa 3c bc 19 d4 bd d9 fd 77 bd a8 1d b1 bd
       0.020788416 -0.10356471 -0.060544822 -0.086482346
0002e0 0a 02 dd 3b fc da a2 bc 33 26 19 3d 9f 4e df ba
       0.006744628 -0.01987981 0.037389945 -0.0017036981
0002f0 af 93 06 bd ff 52 a0 bc 51 37 8f bd b5 a7 6c bc
       -0.032855686 -0.019570826 -0.06992973 -0.014444281
000300 ec 2c d1 bb 7e 66 9f 3d df 89 a7 3d 6c 9d 32 3b
       -0.006383529 0.07783221 0.08180594 0.0027254475
000310 86 6f 96 bc 02 3b 90 3d bf 8c fd bc de f5 c5 bc
       -0.018363725 0.07042505 -0.030950902 -0.02416509
000320 4b 04 61 bd 6b 79 5c bd 1c 64 89 3d 76 72 17 3c
       -0.054935735 -0.05382673 0.067085475 0.009243598
000330 00 06 08 bc 2c 1b 0c bd 27 17 36 3d af 57 8a 3c
       -0.008302212 -0.0342056 0.044455674 0.016887514
000340 cb fc 5f 3d 99 6a 0a 3d e1 6b fe 3b 2a 33 65 bc
       0.05468444 0.033793066 0.007764325 -0.013989249
000350 21 27 a5 3c 65 46 a0 3b aa 59 87 bd 2e 2e b1 3d
       0.02016026 0.004891204 -0.06608899 0.08651386
000360 bd cf 79 bc 6f 11 dc bc 29 b2 4f 3a f0 8c 0a 3c
       -0.015247283 -0.026863782 0.0007922971 0.008456454
000370 e9 ea 6d bd 49 6d ba 3d fb ce c8 bc bd be 2a 3d
       -0.058085356 0.09102876 -0.024512758 0.04168581
000380 3d a2 5e bd f2 87 18 3d 81 d8 fd bd e0 b8 55 3c
       -0.05435394 0.037239023 -0.123948105 0.013044566
000390 ae f7 ad bc 03 e1 b8 bb 2e 49 5d 3c 0a 25 00 bd
       -0.021236267 -0.005642058 0.013506217 -0.031285323
0003a0 a2 07 31 3c e0 41 75 bb 59 dc 48 bc e7 6b aa 3d
       0.010805042 -0.0037423298 -0.012259566 0.08321362
0003b0 ee 30 3a bb ea 0e d2 3c 59 8e b8 bc ab 71 5d bd
       -0.0028410512 0.025641877 -0.022528814 -0.05406348
0003c0 51 7b 8c 3d e8 00 59 bd 38 4e c5 bd 95 a1 b2 bd
       0.06859458 -0.05297938 -0.0963406 -0.087222256
0003d0 3d 89 6f bc 7a 84 da 3b b4 69 a5 bc a4 5c 7e bc
       -0.0146201225 0.0066686245 -0.020192005 -0.015525017
0003e0 97 41 71 bc e6 bb a7 3c 39 6f 01 3d c0 e9 94 bb
       -0.0147251105 0.02047534 0.03160021 -0.0045444667
0003f0 b3 6d 14 3d 3d 14 a4 3a a8 e3 f8 3b e7 30 ab 3d
       0.03623743 0.0012518239 0.007595498 0.08358937

sequential/dense_1/MatMul f4 [48, 32]
000000 39 ae 4d bc ca 0b 00 bc 25 b1 bd bd e4 b1 d5 3c
       -0.012553745 -0.007815311 -0.09262303 0.026085801
000010 e9 b8 de bb f0 79 b9 bb 2b de 40 bd 4d 1c bb bc
       -0.0067969454 -0.005660288 -0.047086876 -0.022840643
000020 f2 b5 94 bd f4 29 12 bd ab 71 a2 bd a8 7c 4a 3d
       -0.07261266 -0.03568454 -0.07931837 0.049435288
000030 68 fd 8a 3c 2f f3 4b bd dd e4 7c 3b 38 ff 6f bd
       0.016966537 -0.049792465 0.0038588562 -0.058593005
000040 47 cf c9 bb da b8 95 3d 43 ef 49 3d 07 59 9d bd
       -0.0061587426 0.07310648 0.049300443 -0.07682996
000050 2a 68 15 3d e3 3e 9e bb 13 88 54 bd 29 c1 ca 3c
       0.03647629 -0.004829274 -0.051887583 0.024750309
000060 09 bb da 3c a3 a7 27 bd 3e 6d 8c bd 98 09 1a bd
       0.026700513 -0.040931355 -0.06856774 -0.037606806
000070 71 a7 2e bc 3b 86 b8 3d 99 65 31 3d 52 93 ea bc
       -0.010660038 0.090099774 0.04330978 -0.0286347
000080 f6 83 4a 3d fd 55 f4 bc eb f4 3a 3b be 13 22 3d
       0.049442254 -0.029826159 0.002852733 0.03956961
000090 ac 4d a2 bb cf bc 10 3c e2 0f 66 bc 03 0d 79 3d
       -0.004953107 0.008834078 -0.014041873 0.060803425
0000a0 a8 a9 21 bd 63 a1 85 bd f6 52 49 3d a4 78 7d 3c
       -0.039468437 -0.06524923 0.049151383 0.0154706575
0000b0 45 72 4b bd 35 b0 30 bb 2a 6b c2 bc c9 68 d0 3d
       -0.049669523 -0.0026960496 -0.02373274 0.10176236
0000c0 4b 62 53 bd c5 03 a6 3c a7 3e 05 3b 69 fb 3b bd
       -0.05160741 0.02026547 0.0020331533 -0.04589406
0000d0 31 dc a0 bc 06 ac bb 3c 0f e5 d2 bc 3f 0d d0 bc
       -0.019636245 0.022909176 -0.02574399 -0.025396941
0000e0 49 0a 2e bd f2 8f 87 3d cb 7c 97 bd df 26 61 bd
       -0.042490277 0.06619252 -0.07396849 -0.05496871
0000f0 15 c2 8a bb 48 15 62 3b 02 a2 8a 3d 27 2b 85 3a
       -0.004234562 0.0034497548 0.06769182 0.0010159955
000100 7b 04 ca bc 09 1c d1 bb f7 ba e1 3d d7 70 0c 3d
       -0.02466034 -0.006381516 0.11021989 0.0342873
000110 92 78 46 bd b3 f0 e4 3c 2f e2 ba bd 64 22 c7 bd
       -0.04845483 0.027946806 -0.09125172 -0.09723356
000120 c5 a5 5f bd fd 9b 79 3d 31 4c a2 3d 19 c8 9c 3b
       -0.05460145 0.060939778 0.079246886 0.0047845957
000130 ed b0 95 3c 31 25 94 3c 14 e6 e8 bc 50 05 00 3e
       0.018272841 0.01808414 -0.028430022 0.12502027
000140 76 c7 86 bd c2 35 cb bc d1 24 b1 3c 27 7b 0d 3d
       -0.06581013 -0.024805907 0.021624 0.034541275
000150 dd a1 20 3d 43 55 b8 bd 6b b1 61 3a 59 ff 61 bd
       0.039216865 -0.090006374 0.0008609506 -0.05517516
000160 92 6f dd bc 33 fe 04 3c b0 dd f1 bb d7 41 8c bd
       -0.02703074 0.008117246 -0.0073811635 -0.068484955
000170 5d aa e0 3c 15 87 5e 3d 6c ce 66 3c 63 54 f5 3b
       0.027424986 0.054328043 0.014087301 0.0074868663
000180 9c 5a de 3c 9f aa 48 3d 60 ae 22 bc 6f 15 8c ba
       0.027142815 0.048990842 -0.00992927 -0.001068754
000190 6e e9 53 3c a4 66 63 3c af d0 5f bd a0 9b 8b 3c
       0.012934072 0.013879452 -0.054642376 0.017041981
0001a0 30 f6 45 bd 7a 92 8a 3b 8f c3 13 3c be 5d 8e 3c
       -0.048330486 0.004228887 0.009018793 0.017378684
0001b0 61 5e c3 3c 78 b9 32 3d 5a b9 95 bd 73 d2 18 3c
       0.023848714 0.043633908 -0.07310744 0.009327519
0001c0 5c e0 d0 bc c3 8f 1d bc 06 9d 46 bd 59 b1 5a 3d
       -0.025497608 -0.009616795 -0.048489593 0.05339179
0001d0 f7 67 64 3d a7 38 c3 bd f4 81 1f bd 6a 44 28 3d
       0.05576321 -0.0953229 -0.038942292 0.04108087
0001e0 52 e7 9c bd 5f 45 4b bc fe ef 59 3b ab 00 12 bb
       -0.07661308 -0.012406676 0.0033254619 -0.002227823
0001f0 ee e8 a6 bd 05 4d 9a bc 8a a7 95 3d 3b bc 51 bd
       -0.081498966 -0.018835554 0.07307346 -0.0512049
000200 ef 17 9f bd 12 f8 fe bd 3a fc 8d bc d0 f4 54 3c
       -0.07768237 -0.124496594 -0.017332185 0.012997821
000210 e5 e4 16 bd 1d c2 bd 3d d4 de aa bb 18 9f 36 bd
       -0.036839385 0.0926554 -0.0052145515 -0.044585317
000220 68 d9 cb 3c 7c 05 7a bd cb ae ba bc 9b 31 b0 bc
       0.02488394 -0.061040387 -0.022788426 -0.021508029
000230 d7 97 1a bd e6 79 95 3c 4e eb c0 3a b4 bd 9a bd
       -0.037742462 0.018246602 0.0014718564 -0.07555714
000240 ca 60 9e bd 0c 78 e8 3b 7a 88 53 3c d5 26 f1 bb
       -0.07733305 0.007094389 0.0129109565 -0.0073593655
000250 c2 47 64 bd db 3f a0 3d ce 5d c4 bb ad d8 41 bd
       -0.055732496 0.078246795 -0.0059926277 -0.04732578
000260 d5 55 e3 bc 72 16 09 3d 7d 36 0a 3d 4b 5d 9c bd
       -0.027750889 0.03346867 0.03374337 -0.07634982
000270 fc ee 61 bd 9c 52 a7 bb 98 a1 7e 3c bb 28 9c bd
       -0.055159554 -0.0051062834 0.015541457 -0.07624956
000280 db 02 2b bd 3c 93 ac 3c 56 df 81 bd 4e 76 3a bd
       -0.04175077 0.0210663 -0.06341426 -0.04552298
000290 89 5d 5d 3c 35 1a b4 bc 5d 60 79 3d 0f 8e 65 3d
       0.01351107 -0.021985153 0.060882915 0.05604368
0002a0 c7 73 09 bd f1 6f ad bd d8 55 62 3c 92 c5 fc bc
       -0.03355768 -0.08468617 0.013814412 -0.030855928
0002b0 2b 46 25 3c 79 a9 f4 3b 8e c6 1a bb 7b c8 fe 3c
       0.01008753 0.007466492 -0.0023616883 0.031101456
0002c0 52 17 ad 3c a5 5b f0 3c 6e 85 06 3d ee 0c 94 3d
       0.021129284 0.029340575 0.032842092 0.07229029
0002d0 f2 a9 9f 3d a8 88 f1 3b 5d ca 2e 3b 32 73 ca 3c
       0.07796086 0.007371027 0.002667091 0.024713133
0002e0 3b ad 85 ba fe 36 fa bc df 7f 9e bd ba 86 e4 bc
       -0.0010198721 -0.0305438 -0.07739233 -0.027896274
0002f0 64 f7 86 bb 3a ee 9c bc 7c 03 09 3c 62 30 45 bd
       -0.0041188467 -0.019156564 0.008362647 -0.048141845
000300 5c 3e 2b bc b8 2e 5e bd 06 6d fe 3c ab 06 9e bc
       -0.010451879 -0.054243773 0.031057846 -0.019290289
000310 8f aa 2e 3c 1f d5 50 3c 5a 44 5c 3d c4 47 8d 3c
       0.0106607815 0.0127461245 0.053776123 0.017246135
000320 53 69 b1 3c 65 55 ad 3d 4b 1f 97 3d 1e 23 00 bd
       0.021656668 0.08463553 0.073790155 -0.03128349
000330 30 0d 81 3c 4b cb 80 3d bc 59 7b bc ad f1 c7 3c
       0.015753359 0.06288775 -0.015341219 0.024407232
000340 5e d9 03 bd 51 7d 1d 3d 3f 2b 3e 3d d4 a3 1d 3d
       -0.03218972 0.03844959 0.04642796 0.038486317
000350 f1 09 d9 bb 99 0a b1 3b a0 49 e4 bb ac c3 0e bd
       -0.0066234996 0.0054028747 -0.0069667846 -0.034854576
000360 2f 15 e9 bb 00 6e 07 3b bf 18 07 bd 48 4e dc bb
       -0.007113121 0.002066493 -0.032982584 -0.006723199
000370 5c 8f 97 3d ef dd 4d bc da ec eb bd fc 9c bf 3c
       0.074003905 -0.01256512 -0.11519785 0.023390286
000380 a4 24 3d bd 4d f9 63 bd d4 b4 84 3c 23 1a 88 3d
       -0.04617752 -0.055657674 0.016199507 0.0664561
000390 d1 87 7e bb 87 4f 6a bd c4 7c f3 3c 32 40 80 bc
       -0.0038838277 -0.05720475 0.029722579 -0.01565561
0003a0 7f 81 23 3d f3 fb 92 bc 30 dd 78 3c ca 84 2e 3d
       0.03991842 -0.017942404 0.015189454 0.042607106
0003b0 70 da f3 bc 63 21 54 3b ae bd f2 bd 6e 12 05 bd
       -0.029767245 0.0032368533 -0.11852585 -0.03248828
0003c0 c1 a3 c1 bd 41 22 a7 bd a4 55 ca bd bf 69 99 bd
       -0.09455062 -0.0816083 -0.09879616 -0.074908726
0003d0 04 f0 8a 3a 02 d4 4f bb cb 2d 9d 3c 05 ef 90 bc
       0.0010600095 -0.003171206 0.019186875 -0.017692098
0003e0 2b 9d c8 bc 30 5e 06 bd 96 ef 13 bd fc 85 84 bc
       -0.024489006 -0.032804668 -0.03611716 -0.01617717
0003f0 d1 ac c3 bc 23 20 99 3c f7 3e b7 bb 1e 96 29 3b
       -0.023886116 0.018692082 -0.005592223 0.002587683

sequential/dense_3/MatMul f4 [128, 64]
000000 da 19 b6 bc 4c b0 c6 3b 82 84 3d 3d 44 7a b5 bd
       -0.022229124 0.0060634967 0.046268947 -0.08861211
000010 64 d8 e2 3c 67 c8 8f bb 8a e4 73 3d 46 23 6b 3d
       0.027691074 -0.0043879035 0.059544124 0.057406686
000020 8d eb 4a 3c 66 fb a4 3b 80 57 1e bd 4e ed 16 be
       0.012385261 0.005034852 -0.038657665 -0.14738962
000030 4e 83 fa 3c 0c ae 1c 3d 9e 57 e9 3d 25 b2 9b 3d
       0.03058019 0.03825192 0.11393665 0.07602338
000040 1e 72 54 bc 9c bd 0f bd d7 e9 e7 bc 64 5b 70 3d
       -0.012966661 -0.035092935 -0.028309746 0.058680907
000050 d5 da 48 bc 4f 02 66 bd ad 25 57 3d 4d ca 38 3d
       -0.012259205 -0.056154545 0.052526165 0.045114804
000060 46 70 90 bc 73 0c 7e bd 2a de c1 3d 4d fe c5 bd
       -0.017631661 -0.06202359 0.094662026 -0.09667645
000070 d3 bc 9a 3b 3d ac a4 bc 61 ed e5 3b 35 46 52 3d
       0.0047222166 -0.02010166 0.007016823 0.051336486
000080 aa b9 45 3d 41 4b 9d bd d6 25 c5 bd 33 30 44 3d
       0.048272766 -0.07680369 -0.09626357 0.04789753
000090 d2 b3 3c bc f0 eb 8e bd 89 f4 86 3d 10 83 97 3d
       -0.011517482 -0.06978595 0.0658961 0.07398045
0000a0 26 4b a4 3b 0c 70 b8 bd 8d 62 3c bb 53 bd bc 3d
       0.005013841 -0.09005746 -0.0028745264 0.09215798
0000b0 3d c8 bc 3d 5d 6a cb bd 65 36 0b ba ba 1e 6a 3b
       0.0921788 -0.099323966 -0.00053105346 0.003572388
0000c0 da e5 35 3c 3d 2b b7 3d 00 05 46 3d 27 50 a4 bc
       0.011102164 0.08943794 0.048344612 -0.02005775
0000d0 f8 48 25 3c 0f 97 cf 3c 86 01 ab bd 60 3e 8a bd
       0.010088198 0.025340585 -0.083499 -0.06750178
0000e0 62 d9 1d 3c e7 74 f8 bd 89 13 67 bd b7 80 6d bd
       0.009634348 -0.12131672 -0.056415115 -0.05798408
0000f0 96 2b 2b ba 3c c4 28 bd 0e 80 55 3d bd 37 87 bd
       -0.0006529627 -0.04120277 0.052124076 -0.06602428
000100 ff 00 ab bd d8 af c6 3d 3c 1b 9c 3d c8 ad 5e 3c
       -0.08349799 0.09701508 0.07622382 0.013591237
000110 72 52 f5 3c be 4d 5a bc f9 6e 5c bc 55 29 dc bb
       0.02994654 -0.013324199 -0.013454192 -0.0067187943
000120 93 d2 a6 bd 56 e1 67 bd 2f f3 43 bd e0 da 8b bd
       -0.081456326 -0.05661138 -0.04783934 -0.068288565
000130 63 8b 53 3d c6 da 0b 3d 0f 98 22 3d 6b 76 ae bc
       0.0516466 0.034144185 0.039695796 -0.0212967
000140 89 24 97 3c 83 63 fd 3d 8e 04 af bd fd c9 44 bd
       0.018450039 0.12372496 -0.085457906 -0.048044194
000150 60 e2 0f bb c7 94 8c bd e3 14 2f bd cb 68 b0 bc
       -0.0021954998 -0.068643145 -0.04274453 -0.021534344
000160 57 d2 1b 3d 70 6b 99 3d 7c f2 99 3d f1 c6 9b bd
       0.038042393 0.07491195 0.07516953 -0.076063044
000170 af b7 94 3d 52 dc 2b 3c d9 91 80 bc 82 37 3c 3c
       0.07261597 0.01048954 -0.015694546 0.0114878435
000180 82 19 62 bd 26 ea 89 bd 1a 3b 86 bc e4 e2 98 3c
       -0.055200107 -0.067341134 -0.016385604 0.018662877
000190 33 2b e3 3c 16 21 19 be ae 2d 4c bd a2 8d be bc
       0.02773056 -0.14954028 -0.04984825 -0.023260895
0001a0 43 96 99 3d 14 0d 2d 3d 38 63 06 3d 17 60 ae 3c
       0.07499363 0.0422488 0.032809466 0.021286054
0001b0 a7 8a 26 bb 44 9c f2 3d 5b e5 dc ba 8b eb 12 3d
       -0.0025412233 0.118462116 -0.0016853021 0.035869163
0001c0 81 41 e2 3c ce f0 c8 bd 22 65 c6 bd 10 4f 05 bc
       0.027619125 -0.09811555 -0.09687258 -0.008136526
0001d0 a5 e3 75 bd 85 3f 0d bc c8 0c ad bc d7 9b d4 3b
       -0.060031552 -0.008621101 -0.021124259 0.006488304
0001e0 ff 91 1f 3b 83 98 14 bd 50 5d 48 bd c2 fa 52 bd
       0.0024348495 -0.03627826 -0.048917115 -0.051508673
0001f0 34 50 e5 3d 7a 2b cd bd be 5d a8 3b f9 28 0d 3d
       0.11196938 -0.10018058 0.005138128 0.034462903
000200 9a cd df bc 4c b2 88 3b e2 e9 bd 3c 6e 36 ea bc
       -0.027319718 0.0041716453 0.023182813 -0.028590407
000210 ca 9b 80 3a 27 25 f9 3c a7 01 18 3c 77 bf 07 bc
       0.0009812054 0.030413223 0.009277738 -0.008285395
000220 34 8d 31 bc a6 30 d6 bd a4 fa 8d bc 41 c8 87 bd
       -0.010836888 -0.10458498 -0.017331429 -0.06629992
000230 70 ed a5 bd 34 d5 b4 3b 94 99 c2 bd c7 e1 cc bb
       -0.08101928 0.00551858 -0.09501949 -0.0062525007
000240 30 bb b6 ba bd fd fa 3c 02 c7 84 bb 77 75 ad 3c
       -0.0013941284 0.03063857 -0.004052044 0.021174176
000250 18 2f 89 3d bc 9e 8e 3d fe e7 91 3d d4 c3 46 3c
       0.066984355 0.0696387 0.07124327 0.01213165
000260 db b4 6e bd d1 94 87 bd 1b 66 f7 3d 56 0a 0f 3a
       -0.058277946 -0.06620181 0.12080022 0.0005456557
000270 6b dd 55 bd 17 76 86 bc 80 27 8e 3c 03 28 e5 3c
       -0.052213114 -0.016413732 0.01735282 0.02797318
000280 1f 9d 56 3d f5 67 ca bd 27 6f 52 3d d0 fa 9e 3d
       0.052395936 -0.098831095 0.051375534 0.077626824
000290 97 ad a8 3d 3e 2c 4e 3c c3 34 5e 3d 33 d0 b7 bd
       0.08236235 0.01258379 0.054249536 -0.08975258
0002a0 88 2a 8a bb 36 73 5a 39 12 60 a9 bd 82 ed 72 3c
       -0.004216496 0.0002083302 -0.08270277 0.014827134
0002b0 5c 6e b7 3c 5b d1 13 bd 82 d7 e9 bc 28 ac c8 3d
       0.02239149 -0.03608833 -0.028545145 0.09798461
0002c0 8a 4c 00 ba ce df 92 bd 20 e1 d7 3d af cc 6d 3d
       -0.0004894218 -0.071715936 0.10540986 0.05805653
0002d0 c1 e1 a0 bc 26 33 0b 3d 47 f9 17 3d 98 dc 64 3d
       -0.019638898 0.033984326 0.037102964 0.055874437
0002e0 79 bc b0 bd 06 1a bd bc 3a 41 02 3d 1e 48 cf 3c
       -0.08629698 -0.023083698 0.031800486 0.025302943
0002f0 f5 d8 9b 3d a0 c4 7c 3b bf 5c 26 3d ce d0 db 3c
       0.07609741 0.0038569346 0.040615793 0.026832964
000300 03 a6 1d 3d 34 ca 5c 3d ff 0b a2 3d 42 30 93 3c
       0.0384884 0.053903773 0.07912444 0.017967347
000310 df 3a 69 3d 85 2a 8f bd df a5 ab 3c 2e a3 4e 3c
       0.05694091 -0.06990532 0.020953117 0.012612147
000320 07 f6 3f 39 fb ab 87 bd b3 71 8d 3d 43 de 0e bb
       0.00018306832 -0.066245995 0.06906452 -0.0021799959
000330 93 7d 98 3d 36 e5 09 bc c5 7b ef bd 7b 5d 42 bd
       0.074458264 -0.008416465 -0.11693529 -0.04745243
000340 90 a3 9f 3c cc a9 94 3d 19 76 89 bc 28 e5 2e 3d
       0.019487172 0.07258949 -0.016779946 0.04269901
000350 f7 4f 0c bb 94 9e b9 3d 49 c1 14 3d f5 51 81 3d
       -0.0021409967 0.090634495 0.036317144 0.0631446
000360 72 47 5a bd bb d1 86 b9 69 9f b5 bd d7 f5 9b 3d
       -0.05329079 -0.00025714733 -0.08868296 0.076152496
000370 3a 07 c6 3d 2b 3f 1a bd 9c 9d a6 3d 78 1c 8e 3c
       0.09669347 -0.037657898 0.0813553 0.01734756
000380 db ba af 3c b0 c3 12 3b f1 e1 0d 3e a1 b7 d7 38
       0.021451404 0.002239447 0.13855721 0.000102862025
000390 a4 85 bf 3b 6e bd b8 bc cd 11 c5 3c 8e 5f 73 3d
       0.0058447886 -0.022551265 0.02405634 0.0594173
0003a0 f8 07 06 3d 3e 9a 96 3d 1d d4 0a 3e f1 24 a9 bd
       0.032722443 0.07353638 0.13557477 -0.08258999
0003b0 d0 f1 b8 3c 1d 3e 94 bd b4 01 ef bc 6b 17 47 3c
       0.022576243 -0.0723841 -0.029175617 0.012151579
0003c0 2a 44 65 3d c5 1d 1f bd ed 00 69 bd ff f6 e7 bd
       0.05597321 -0.03884675 -0.05688565 -0.11326408
0003d0 fa 12 d7 3d f6 d1 a2 3d 78 98 10 bd b3 98 c7 3d
       0.10501666 0.07950203 -0.035301656 0.09745922
0003e0 d7 73 4d bc ff 0b c9 bb 80 27 c5 bd 2a 20 90 bd
       -0.012539825 -0.0061354632 -0.09626675 -0.07037385
0003f0 16 50 af 3c a1 cc 10 bd 9d 3b 16 3e a7 07 b5 3d
       0.021400493 -0.0353514 0.14671178 0.0883935
