app/src/main/assets/model_reg6.tflite (tflite, 20368 bytes, 8 tensors)

sequential_1/dense_4/MatMul;sequential_1/dense_4/BiasAdd f4 [32]
-16.621664 0.12221217 15.644206 -13.488866 -9.251205 -39.494686 -18.263966 -1.2205405
7.079736 -2.3085432 3.4167538 7.912232 -12.419114 -0.9826255 14.54285 7.0734725
14.01314 31.055298 -5.2996426 -7.066506 9.511814 -0.49005133 -12.227101 -12.916823
32.78463 5.9630437 18.274815 -18.050451 -21.526531 -25.329945 8.253823 -3.7703857
00000000: 2bf9 84c1 604a fa3d ab4e 7a41 65d2 57c1
00000010: f004 14c1 8ffa 1dc2 9a1c 92c1 ac3a 9cbf
00000020: 338d e240 2cbf 13c0 18ac 5a40 0131 fd40
00000030: b1b4 46c1 588d 7bbf 83af 6841 e359 e240
00000040: d235 6041 4071 f841 ac96 a9c0 d120 e2c0
00000050: 6430 1841 02e8 fabe 35a2 43c1 4fab 4ec1
00000060: 7623 0342 41d1 be40 d232 9241 5367 90c1
00000070: 5636 acc1 baa3 cac1 a90f 0441 004e 71c0

sequential_1/dense_5/BiasAdd/ReadVariableOp/resource f4 [64]
0.18418276 0.44188777 0.22734945 0.41344878 0.30219507 0.5712903 0.4608283 0.44635287
0.40362522 -0.023805054 -0.037499767 0.16633369 -0.048581284 0.011010086 -0.015060026 0.41839176
0.6051844 -0.007986252 0.69012403 0.71769565 0.87611854 0.7189494 0.65318465 0.72655815
-0.0294809 0.41946623 -0.33618227 0.826833 -0.04131323 0.7028813 -0.03168553 0.81435496
-0.2193603 0.13546121 0.36640128 0.7527713 0.6928893 0.86657673 0.63682073 0.32047385
0.5439814 -0.034337368 -0.041852005 0.53305733 -0.03463617 -0.035054248 -0.032038167 0.8282793
0.72234064 -0.041923705 0.50914943 0.69806725 0.0066339765 0.46197945 -0.0047086664 -0.009414467
-0.045128286 -0.04951188 0.9199919 0.3846943 -0.03769616 -0.03950562 0.7089744 -0.028435702
00000000: 689a 3c3e 1d3f e23e 4bce 683e 8faf d33e
00000010: 50b9 9a3e 1540 123f b0f1 eb3e 5d88 e43e
00000020: f7a7 ce3e d102 c3bc 5b99 19bd 6153 2a3e
00000030: 2bfd 46bd a663 343c 54be 76bc 7237 d63e
00000040: 5ded 1a3f c5d8 02bc f8ab 303f e7ba 373f
00000050: 4e49 603f 110d 383f 1c37 273f b7ff 393f
00000060: ee81 f1bc 47c4 d63e 1520 acbe 54ab 533f
00000070: 1038 29bd 07f0 333f b0c8 01bd 9179 503f
00000080: fd9f 60be 58b6 0a3e f398 bb3e 9fb5 403f
00000090: 3161 313f f9d7 5d3f af06 233f 2615 a43e
000000a0: 5d42 0b3f 57a5 0cbd 026d 2bbd 7276 083f
000000b0: a8de 0dbd 0b95 0fbd 743a 03bd 1d0a 543f
000000c0: 51eb 383f 31b8 2bbd 9e57 023f 89b4 323f
000000d0: d461 d93b 9288 ec3e 284b 9abb 233f 1abc
000000e0: 70d8 38bd f8cc 4abd 9784 6b3f a7f6 c43e
000000f0: 4a67 1abd a5d0 21bd 597f 353f fdf1 e8bc

sequential_1/dense_6/BiasAdd/ReadVariableOp/resource f4 [32]
-0.0060055447 -0.029562747 -0.025901526 -0.12826963 0.78286946 -0.037330754 1.3785999 1.3799381
1.3785598 -0.03804162 0.0 -0.23439167 -0.037711423 -0.03862745 -0.034397513 1.3283114
1.2236748 -0.0060055456 0.0 -0.037474763 -0.037679072 -0.039631452 -0.038531557 -0.006005543
-0.00600554 -0.006005532 1.0725397 -0.0060054855 -0.0060055456 -0.0060055405 -0.5813139 -0.006005518
00000000: 29ca c4bb 932d f2bc 702f d4bc 1d59 03be
00000010: 226a 483f 22e8 18bd f675 b03f d0a1 b03f
00000020: a674 b03f 88d1 1bbd 0000 0000 5f04 70be
00000030: 4b77 1abd d137 1ebd 68e4 0cbd 1c06 aa3f
00000040: 60a1 9c3f 2bca c4bb 0000 0000 237f 19bd
00000050: 5f55 1abd 9754 22bd 44d3 1dbd 25ca c4bb
00000060: 1fca c4bb 0eca c4bb fb48 893f aac9 c4bb
00000070: 2bca c4bb 20ca c4bb fdd0 14bf f0c9 c4bb

sequential_1/batch_normalization_1/batchnorm/mul f4 [7]
11.585809 16.510801 48.668625 33.048702 47.66094 42.797554 39.4873
00000000: 795f 3941 1f16 8441 acac 4242 df31 0442
00000010: cda4 3e42 b230 2b42 fff2 1d42

sequential_1/dense_4/MatMul f4 [32, 7]
0.049372554 -0.7787325 0.800314 -0.52380186 0.10935452 -0.13899511 0.22766052 0.442087
-1.1281412 0.6710008 -0.21256012 0.2549542 -0.30451494 -0.32089335 -0.08542577 0.32623035
-0.014406244 -0.1809961 -0.37041676 -0.97159237 1.1382647 -0.20047471 0.06866701 0.1949702
-0.9973153 0.4811856 0.5300368 -0.12281757 1.2464081 -0.7901229 -0.2492717 -0.12978618
0.09616457 0.50892484 -0.05264852 0.15909599 -0.40186447 -0.1411757 0.11810102 0.39608175
0.5959976 0.15094154 0.23318544 0.43502644 -0.49551156 0.2528114 -0.47336814 0.25492787
0.96095127 -0.11947404 0.3654396 -0.2612614 -0.20650144 1.1129465 -0.48056078 -0.38810492
0.31688407 0.24623154 -0.22373626 -0.21605241 0.11051173 -0.45261627 0.44152182 -0.3715111
0.2741915 -0.31428498 0.016714245 0.853125 -0.9950706 0.4866091 -0.05386116 -0.29355145
0.042372085 0.31691605 0.7552585 -0.3886197 -0.77464324 0.10108823 0.022012437 0.39819598
-0.5190416 -0.0041978075 0.38641015 -0.7023461 0.20473275 -0.23591362 0.106095456 -0.041888706
0.19322357 0.03348777 0.026220039 -0.7971235 0.48061216 0.21946423 -0.36247516 -0.004246436
0.3507049 -0.25191706 -0.31296358 0.21217288 0.25926214 0.15228933 -0.39984906 0.010298379
-0.3601422 0.4794293 -0.4077898 0.8969396 0.08336741 -0.56392723 -0.3288617 -0.31011766
0.09026467 0.3516953 -0.8097847 0.54918534 -0.58292675 0.378815 0.2701041 0.40888417
0.045060642 0.042406846 -0.09985282 -0.3293435 -0.81752294 0.33023486 -0.2563723 -0.20388481
0.31370482 0.0032807551 -0.62712294 0.7743175 -0.16146974 -0.37742963 0.21268533 -0.16152543
0.0894316 0.079118505 0.26095244 -0.025908671 0.48413345 0.60574883 -1.065102 0.4097444
0.04940712 -0.18879145 0.4657555 0.21549426 -0.1819133 0.41938597 -0.17092983 0.76390654
-0.14495501 -1.1109651 -0.16966689 0.032047592 0.12370066 -0.20681489 0.5124925 0.06670654
-0.2836034 -0.21235938 0.55810577 -0.73093575 1.5950527 0.4436472 -0.77800494 0.028413665
0.16936141 0.36125362 0.1861534 -0.2522335 0.052373342 -0.6082103 -0.5011431 -0.051678684
-0.072775036 -0.31794643 -0.24641015 0.5092832 0.32239717 -0.48067033 0.08750305 0.7888946
-0.1940146 -0.33416703 0.005831741 0.40615407 -0.744646 -0.72625 -0.3916425 0.54619473
0.45881212 0.074861325 -0.69206405 0.45765248 -0.080131344 -0.8147147 0.055994026 -0.6920905
0.6299075 0.5396473 0.11133476 -0.9582288 0.4319081 -0.14523195 -0.11980628 0.85435796
-0.375655 0.46963313 0.12713946 -0.19508304 0.32260177 -0.22714093 -0.2415141 0.15465046
-0.26470882 -0.33380142 -0.4372285 0.9126143 -0.09693309 -0.630798 -0.22476701 0.3356782
00000000: e03a 4a3d 035b 47bf 61e1 4c3f e117 06bf
00000010: 43f5 df3d bc54 0ebe d71f 693e 3a59 e23e
00000020: ee66 90bf b5c6 2b3f 5ca9 59be 5b89 823e
00000030: 62e9 9bbe 224c a4be b5f3 aebd aa07 a73e
00000040: 2b08 6cbc 0b57 39be 44a7 bdbe 47ba 78bf
00000050: a8b2 913f 3e49 4dbe 4aa1 8c3d 45a6 473e
00000060: 0e50 7fbf f55d f63e 7eb0 073f c787 fbbd
00000070: 4d8a 9f3f 7f45 4abf 1541 7fbe abe6 04be
00000080: eef1 c43d e648 023f f9a5 57bd 0fea 223e
00000090: 2ec1 cdbe 5d90 10be f3de f13d 3acb ca3e
000000a0: 4c93 183f 6b90 1a3e 2ac8 6e3e c9bb de3e
000000b0: b1b3 fdbe 7f70 813e 4f5d f2be e885 823e
000000c0: e700 763f ceae f4bd e61a bb3e 0ec4 85be
000000d0: 1d75 53be 0875 8e3f 100c f6be b0b5 c6be
000000e0: a13e a23e 1f24 7c3e 1e1b 65be d83c 5dbe
000000f0: f953 e23d 52bd e7be 260f e23e b436 bebe
00000100: d462 8c3e f6e9 a0be 50ec 883c 6666 5a3f
00000110: f2bc 7ebf d424 f93e 859d 5cbd 604c 96be
00000120: 5a8e 2d3d d242 a23e 9f58 413f 29f9 c6be
00000130: 054f 46bf 5907 cf3d 6d53 b43c 58e0 cb3e
00000140: e9df 04bf c38d 89bb 8dd7 c53e f4cc 33bf
00000150: 76a5 513e 5793 71be 9348 d93d 7e93 2bbd
00000160: 66dc 453e 792a 093d 68cb d63c 4910 4cbf
00000170: cc12 f63e 3bbb 603e 5896 b9be b025 8bbb
00000180: 988f b33e 46fb 80be c33c a0be d943 593e
00000190: 02be 843e bcf1 1b3e 04b9 ccbe 88ba 283c
000001a0: 8f64 b8be c277 f53e d3c9 d0be d59d 653f
000001b0: 88bc aa3d 895d 10bf 9060 a8be bec7 9ebe
000001c0: afdc b83d 6811 b43e 0d4e 4fbf 6997 0c3f
000001d0: b03a 15bf 0af4 c13e 164b 8a3e 4459 d13e
000001e0: 8291 383d cdb2 2d3d a37f ccbd b69f a8be
000001f0: 2f49 51bf 8b14 a93e 3b43 83be 2ec7 50be
00000200: eb9d a03e f001 573b 218b 20bf ac39 463f
00000210: 5358 25be 753e c1be 2fca 593e ec66 25be
00000220: ea27 b73d e208 a23d 8f9b 853e 6c3e d4bc
00000230: 57e0 f73e 5b12 1b3f 4355 88bf 05ca d13e
00000240: 1f5f 4a3d 8c52 41be 8177 ee3e 87aa 5c3e
00000250: 7b47 3abe c2b9 d63e 3b08 2fbe 618f 433f
00000260: 166f 14be 1b34 8ebf 28bd 2dbe 5644 033d
00000270: c656 fd3d 48c7 53be b532 033f 709d 883d
00000280: 7734 91be bd74 59be 05e0 0e3f 9b1e 3bbf
00000290: b02a cc3f ba25 e33e 552b 47bf c6c3 e83c
000002a0: 146d 2d3e 3cf6 b83e ff9e 3e3e c024 81be
000002b0: 6e85 563d acb3 1bbf ea4a 00bf 07ad 53bd
000002c0: 140b 95bd e0c9 a2be f152 7cbe 6260 023f
000002d0: 3e11 a53e 6c1a f6be cd34 b33d fff4 493f
000002e0: c3ab 46be f117 abbe 3018 bf3b 6df3 cf3e
000002f0: 1fa1 3ebf 85eb 39bf 5e85 c8be 6bd3 0b3f
00000300: 6ce9 ea3e e550 993d 1c2b 31bf 6d51 ea3e
00000310: e71b a4bd 2591 50bf fe59 653d d82c 31bf
00000320: 9e41 213f 5326 0a3f 7b03 e43d 7c4e 75bf
00000330: 0f23 dd3e afb7 14be ff5c f5bd 34b7 5a3f
00000340: da55 c0be c173 f03e d930 023e d9c3 47be
00000350: 0f2c a53e a297 68be 794f 77be b15c 1e3e
00000360: ea87 87be 05e8 aabe 6adc dfbe 17a1 693f
00000370: db84 c6bd fa7b 21bf 5329 66be 03de ab3e

sequential_1/dense_5/MatMul f4 [64, 32]
-0.33409703 0.49058005 0.13027847 -0.25587726 0.3026549 -0.259674 0.48201665 -0.051872462
0.40865046 -0.10356963 -0.14417447 -0.018350394 0.6497007 -0.2357789 -0.34981003 1.0019225
-0.12180008 -0.19599651 -0.1619222 -0.02166656 0.26295996 0.18530983 0.09480427 -0.7751686
-0.5371434 0.523097 -0.7213471 0.48808905 -0.3263859 -0.7364967 0.58858234 -0.34017128
0.77378565 -0.28253117 0.057886865 -0.010968241 -1.18051 0.1216767 -0.6331437 -0.37949976
-0.16318512 -0.27054656 -0.033918772 0.08404425 0.112469845 0.25795737 0.41136724 0.533115
0.16060024 -0.16458406 0.29713732 0.24924843 -0.12963721 0.04838102 -0.041109037 -0.25332558
-0.047336563 -0.011311193 -0.48984188 0.16306633 0.22257625 -0.90147847 -0.07555583 -0.7697723
0.19277549 0.24553916 -0.1840719 -0.53267884 0.11876966 0.11168437 0.50101876 -0.57204413
0.28989416 0.72233856 -0.10752717 -0.5835982 0.5174032 0.35464874 0.20907086 0.5527293
0.5027174 -0.4959469 0.45061105 0.59947515 -0.49060145 -2.1018035 0.124306515 0.59211594
-0.16473857 -0.020522216 -0.5200891 0.4627091 -0.65430754 -0.50305635 0.2897843 0.15267359
0.33838114 0.46708277 0.17566222 0.45799053 -0.13136105 -0.29709533 -0.7132496 -0.052980643
0.13664536 -0.20338212 -0.32260424 -0.40594974 0.2614152 -0.31669378 -0.37767318 0.53424495
0.5133022 0.1877027 0.41920602 -0.068658486 0.38527352 -1.5404873 0.5032613 -0.7769544
-0.73640454 -0.20066644 -0.081054546 0.8476866 -0.027177982 -1.0141402 0.36710718 0.11087617
0.056728955 -0.43797335 0.7152003 0.40741938 0.15832005 -0.3626862 0.4861551 -0.64195794
0.17053309 0.7308492 -1.8092076 -0.6413471 -0.051774856 -0.13575199 -0.062803626 1.0146959
0.58671063 0.094245575 0.36277676 -0.55858254 -0.8792499 -0.74805486 -0.25436303 -0.31495684
0.19548447 -0.261088 -0.3561819 0.13579214 0.26194528 -0.26172566 -0.105380066 -0.4682006
0.6750758 -0.7692956 -0.20195997 0.30932036 -0.85234684 -0.27641168 0.31305233 0.29552177
0.98635304 1.2214004 0.03781918 -0.2675833 0.25749022 -0.17669402 0.3495061 -1.8860444
0.13617755 -0.3509672 -0.21687639 0.3580894 -0.13514937 -1.2704507 -0.4680777 -1.1218047
0.38860008 -0.08102813 -1.4798661 0.34849715 0.0025234087 -1.2397833 -0.08497988 0.07025109
1.0964674 -0.07639544 -0.015774384 -0.16602345 0.72235566 -0.14993098 -0.39763367 -0.38733315
0.51039416 0.22530942 0.24961497 -0.29920393 0.25103888 -0.72438866 0.18294993 1.0755243
0.048508875 -0.33669648 -0.5190952 0.073505305 0.86946636 0.053566374 0.067265615 -0.051035397
-0.5021022 0.6262966 -0.9793882 -0.0384374 -0.48977262 -1.172773 -0.07114323 -0.080805525
0.3272362 -0.77072275 -0.13303603 -0.10040841 0.38000908 -0.6814289 -0.42547196 -1.4140753
0.5836515 0.31104043 0.15218341 0.39735466 0.32373467 -0.8849454 -0.23557308 0.810081
-0.21637282 -0.38102332 0.30496746 -0.17531948 0.399998 0.45673472 -0.049848817 -0.4684394
-0.5888707 0.26001894 -0.44480705 0.38009974 0.4052541 -0.14728971 -0.3701013 -1.2420068
00000000: c40e abbe 4f2d fb3e b867 053e 5802 83be
00000010: 95f5 9a3e fef3 84be e3ca f63e 3878 54bd
00000020: a23a d13e 501c d4bd 79a2 13be 9153 96bc
00000030: c952 263f 0670 71be 4d1a b3be ff3e 803f
00000040: 5272 f9bd 4fb3 48be efce 25be 127e b1bc
00000050: b0a2 863e dcc1 3d3e be28 c23d 7371 46bf
00000060: 3b82 09bf afe9 053f 34aa 38bf cfe6 f93e
00000070: 0d1c a7be 0c8b 3cbf 55ad 163f ee2a aebe
00000080: d116 463f eda7 90be c71a 6d3d 23b4 33bc
00000090: f41a 97bf a231 f93d b515 22bf cb4d c2be
000000a0: 001a 27be 1485 8abe 69ee 0abd 641f ac3d
000000b0: 9756 e63d fd12 843e ba9e d23e 3a7a 083f
000000c0: 6474 243e b988 28be 6222 983e fb3a 7f3e
000000d0: 9ebf 04be 2d2b 463d f361 28bd e4b3 81be
000000e0: fce3 41bd 9552 39bc 8ecc fabe dcfa 263e
000000f0: 07eb 633e 4bc7 66bf 04bd 9abd cc0f 45bf
00000100: f066 453e 9e6e 7b3e 587d 3cbe a45d 08bf
00000110: 823d f33d c6ba e43d c442 003f 7c71 12bf
00000120: 026d 943e 2eeb 383f 3437 dcbd b166 15bf
00000130: 8974 043f 8594 b53e ac16 563e ab7f 0d3f
00000140: 16b2 003f c1ec fdbe 7eb6 e63e 3477 193f
00000150: 1d30 fbbe f383 06c0 6a94 fe3d e994 173f
00000160: 3ab1 28be 351e a8bc 8f24 05bf 35e8 ec3e
00000170: b380 27bf 4dc8 00bf 9c5e 943e 7756 1c3e
00000180: 4b40 ad3e 7925 ef3e cce0 333e bc7d ea3e
00000190: 8383 06be e11c 98be 8797 36bf 3b02 59bd
000001a0: c3ec 0b3e 6743 50be 622c a5be a5d8 cfbe
000001b0: 37d8 853e b025 a2be 615e c1be 47c4 083f
000001c0: c667 033f 2335 403e 2ca2 d63e d29c 8cbd
000001d0: 9242 c53e b02e c5bf bcd5 003f 7ce6 46bf
000001e0: 0285 3cbf 817b 4dbe edff a5bd fd01 593f
000001f0: 5ca4 debc 59cf 81bf 79f5 bb3e 0c13 e33d
00000200: 9f5c 683d 0b3e e0be 5e17 373f 4699 d03e
00000210: a71e 223e 01b2 b9be 52e9 f83e 5b57 24bf
00000220: 3aa0 2e3e ef18 3b3f 1d94 e7bf 532f 24bf
00000230: df11 54bd 9202 0bbe 309f 80bd 8ee1 813f
00000240: ab32 163f d303 c13d e0bd b93e 44ff 0ebf
00000250: 8516 61bf 8680 3fbf df3b 82be 0642 a1be
00000260: 152d 483e 54ad 85be 795d b6be 180d 0b3e
00000270: b11d 863e e800 86be 81d1 d7bd fdb7 efbe
00000280: c5d1 2c3f 8ef0 44bf 98ce 4ebe 3d5f 9e3e
00000290: 6733 5abf d585 8dbe 6548 a03e a14e 973e
000002a0: a281 7c3f d956 9c3f 49e8 1a3d ae00 89be
000002b0: c2d5 833e 47ef 34be 77f2 b23e e769 f1bf
000002c0: 2172 0b3e f9b1 b3be d814 5ebe 7e57 b73e
000002d0: 9964 0abe 219e a2bf e1a7 efbe 4c97 8fbf
000002e0: 97f6 c63e 14f2 a5bd 416c bdbf 386e b23e
000002f0: c65f 253b 38b1 9ebf ee09 aebd cedf 8f3d
00000300: 0b59 8c3f 3675 9cbd 4839 81bc 0d02 2abe
00000310: 4dec 383f 8287 19be a496 cbbe 8850 c6be
00000320: 31a9 023f 83b7 663e 119b 7f3e 4231 99be
00000330: 2b88 803e 8971 39bf 3a57 3b3e c8aa 893f
00000340: 3eb1 463d 7b63 acbe 6ce3 04bf f389 963d
00000350: 5995 5e3f 6a68 5b3d 8ec2 893d 7e0a 51bd
00000360: c589 00bf f954 203f 2fb9 7abf 8970 1dbd
00000370: 7ac3 fabe 6d1d 96bf 8bb3 91bd 5e7d a5bd
00000380: 818b a73e 164e 45bf 993a 08be eda2 cdbd
00000390: 8d90 c23e 2072 2ebf 76d7 d9be 6b00 b5bf
000003a0: 2f6a 153f b140 9f3e f8d5 1b3e 1272 cb3e
000003b0: 8dc0 a53e c88b 62bf 123a 71be 7861 4f3f
000003c0: d690 5dbe 7d15 c3be b224 9c3e f386 33be
000003d0: 8acc cc3e 22d9 e93e 462e 4cbd 4ad7 efbe
000003e0: 3bc0 16bf 3421 853e c0bd e3be 6f9c c23e
000003f0: 777d cf3e 1dd3 16be eb7d bdbe 14fa 9ebf

sequential_1/dense_6/MatMul f4 [32, 64]
0.035581965 0.02090321 0.019824423 -0.055360157 0.018947793 -0.028539706 -0.053921416 0.022740057
-0.0012504191 -0.051697023 -0.04821428 -0.05010591 0.003092529 -0.0048231557 -0.051712524 -0.0019372511
0.036635686 0.03546992 0.016984299 -0.050215226 -0.023118392 -0.026732365 0.0022128883 0.012753232
0.0022758953 0.048793364 0.027603796 0.0021657215 0.017743452 0.018220892 0.022945035 -0.024284853
-0.044194557 0.009247888 -0.03339757 0.01258919 -0.03795698 -0.020350223 0.011884479 -0.04441136
-0.019287167 0.043473963 0.018931832 0.029689655 0.028504044 -0.048141778 0.025154268 0.0073832073
-0.00985974 0.037434336 0.01593526 0.002612142 0.040073574 0.033437856 -0.020682503 0.0028371438
-0.05568911 -0.034062397 -0.023730211 -0.0552037 -0.019048227 -0.0416402 -0.018478932 -0.038044967
-0.042538926 -0.06457203 0.0065253754 -0.0501437 -0.10035007 -0.024655145 -0.015392184 -0.012573868
0.026352864 -0.046027362 0.039962403 -0.030359242 0.020892145 0.021082344 0.034634314 -0.04289826
0.022426447 -0.02285877 -0.054851152 0.0019893383 -0.0644056 0.020998491 -0.02001546 -0.002615578
0.024674341 -0.0058156047 -0.047725927 0.0054300656 -0.04480092 -0.06333593 -0.011011459 -0.032139424
-0.06594439 -0.008422073 -0.08370626 0.011201756 -0.0053301393 -0.057268765 -0.03993657 -0.004488954
-0.03367279 -0.028600423 -0.018055016 -0.06325877 0.040163003 0.012010634 0.03938443 -0.008792377
-0.027680224 0.01288505 -0.00689702 -0.054262295 -0.07476741 -0.03283203 0.023718964 -0.03505037
-0.021924686 -0.05370186 -0.03789836 -0.096051686 0.02172795 0.03372929 -0.013965696 -0.0030028028
-0.066283435 0.0058767204 -0.06376948 -0.013104646 -0.0062364284 -0.0614459 0.009363775 -0.054409984
-0.03542881 -0.044953156 0.041234914 -0.02800746 -0.044530507 -0.0106252665 0.03906174 -0.059647962
-0.02398484 0.023635058 -0.06455264 0.0013430476 0.0068096295 0.0063388785 -0.012872599 -0.040163115
-0.04997822 -0.012081448 -0.05289022 -0.016053999 0.016577136 -0.076448604 -0.009398401 -0.043227807
0.0049008266 -0.070993565 -0.07538848 0.015595094 -0.006875764 -0.021092039 -0.024370486 -0.08352796
-0.0051996433 0.003161005 -0.018842883 -0.06381226 -0.026290571 -0.029379332 -0.0123410765 -0.04595275
0.013845914 0.020556789 -0.043168772 0.010448036 -0.08326314 0.011096918 0.010357548 -0.030538652
-0.028530303 0.03872667 -0.014254591 -0.044414736 -0.013845682 -0.028986199 0.01092762 -0.048818886
-0.05337834 -0.005528981 0.010972977 -0.010438179 -0.0026440043 -0.013704357 -0.01589009 -0.05538303
-0.025213424 0.042402115 0.021146238 -0.023740469 -0.03982207 -0.0033587022 -0.03946649 -0.04099141
-0.06699788 -0.038781304 -0.041954152 -0.008564069 -0.06624535 -0.07740917 -0.002291605 0.0027057172
0.01600246 -0.045843527 0.0045870487 -0.041665297 -0.02373097 -0.019374149 -0.01611837 -0.041170288
0.029322026 0.019182427 -0.024192175 -0.041685406 0.015556219 -0.044288814 -0.0086389845 -0.032343153
0.042552933 0.008709684 0.0023001172 -0.058868993 -0.047943328 -0.048836242 -0.026920727 -0.06501509
-0.07381484 -0.03870808 0.02270737 -0.020997265 0.00976303 -0.007424603 -0.037341855 -0.04004874
-0.0051486217 -0.031329997 -0.03662172 0.0022937276 0.004594543 0.006492892 -0.046923876 0.003992404
00000000: 65be 113d 353d ab3c d466 a23c 55c1 62bd
00000010: 6738 9b3c 1acc e9bc b4dc 5cbd 5b49 ba3c
00000020: 1ae5 a3ba 42c0 53bd 567c 45bd db3b 4dbd
00000030: 07ac 4a3b 900b 9ebb 83d0 53bd 5ceb fdba
00000040: 4d0f 163d e848 113d a822 8b3c 7bae 4dbd
00000050: c862 bdbc d5fd dabc 1b06 113b eff2 503c
00000060: 3027 153b 8ddb 473d 5b21 e23c c7ee 0d3b
00000070: b75a 913c fb43 953c 3af7 bb3c 07f1 c6bc
00000080: 5a05 35bd 7484 173c e4cb 08bd e442 4e3c
00000090: c778 1bbd 83b5 a6bc 1eb7 423c b0e8 35bd
000000a0: 1f00 9ebc c111 323d ee16 9b3c b837 f33c
000000b0: 5081 e93c 5030 45bd 5310 ce3c d5ee f13b
000000c0: bf8a 21bc bf54 193d aa8a 823c 7830 2b3b
000000d0: 3024 243d 22f6 083d 5a6e a9bc 60ef 393b
000000e0: 441a 64bd 0385 0bbd dc65 c2bc 461d 62bd
000000f0: 070b 9cbc ea8e 2abd 2161 97bc 0ad5 1bbd
00000100: 4c3d 2ebd 573e 84bd d1d2 d53b 7b63 4dbd
00000110: 5684 cdbd 96f9 c9bc 802f 7cbc a002 4ebc
00000120: f6e1 d73c 3087 3cbd 9eaf 233d f2b3 f8bc
00000130: 0126 ab3c e1b4 ac3c b6dc 0d3d 16b6 2fbd
00000140: abb7 b73c 5142 bbbc 9aab 60bd 8f5f 023b
00000150: 15e7 83bd 0705 ac3c 76f7 a3bc 1e6a 2bbb
00000160: d821 ca3c d490 bebb 437c 43bd b1ee b13b
00000170: 2b81 37bd 45b6 81bd 6869 34bc a1a4 03bd
00000180: da0d 87bd bcfc 09bc 306e abbd 9287 373c
00000190: 73a8 aebb a792 6abd 8794 23bd 1318 93bb
000001a0: 7bec 09bd 6f4b eabc 1de8 93bc d08d 81bd
000001b0: f681 243d 40c8 443c 9151 213d e70d 10bc
000001c0: a3c1 e2bc d11b 533c 6600 e2bb 2442 5ebd
000001d0: a81f 99bd e17a 06bd 464e c23c fa90 0fbd
000001e0: 669b b3bc 7bf6 5bbd 503b 1bbd bfb6 c4bd
000001f0: d0fe b13c b927 0a3d 60d0 64bc acca 44bb
00000200: 9cbf 87bd 8191 c03b 9399 82bd deb4 56bc
00000210: f45a ccbb b2ae 7bbd 856a 193c 01dd 5ebd
00000220: cd1d 11bd cd20 38bd f1e5 283d e76f e5bc
00000230: 9f65 36bd 9915 2ebc 34ff 1f3d 6c51 74bd
00000240: db7b c4bc 4f9e c13c 2d34 84bd 3309 b03a
00000250: 5023 df3b 5eb6 cf3b 98e7 52bc 1482 24bd
00000260: f6b5 4cbd 44f1 45bc 6aa3 58bd ad83 83bc
00000270: c6cc 873c 1691 9cbd c0fb 19bc a40f 31bd
00000280: 1d97 a03b 1365 91bd 4765 9abd 9182 7f3c
00000290: 174e e1bb 36c9 acbc 9da4 c7bc b510 abbd
000002a0: c561 aabb dd28 4f3b 645c 9abc 01b0 82bd
000002b0: 535f d7bc edac f0bc 3a32 4abc f338 3cbd
000002c0: f9d9 623c b666 a83c bdd1 30bd 3d2e 2b3c
000002d0: dd85 aabd d9cf 353c b4b2 293c 322c fabc
000002e0: 62b8 e9bc db9f 1e3d 178c 69bc 3aec 35bd
000002f0: 00d9 62bc 7774 edbc c309 333c 50f6 47bd
00000300: 3fa3 5abd 742c b5bb 00c8 333c e504 2bbc
00000310: 0847 2dbb 3d88 60bc ef2b 82bc 51d9 62bd
00000320: 628c cebc d7ad 2d3d e03a ad3c 5f7b c2bc
00000330: 781c 23bd ac1d 5cbb 9da7 21bd 9ce6 27bd
00000340: 2f36 89bd 25d9 1ebd 1ed8 2bbd 4f50 0cbc
00000350: a4ab 87bd b388 9ebd c12e 16bb 6752 313b
00000360: 9717 833c 6cc6 3bbd f44e 963b 3ba9 2abd
00000370: 7467 c2bc 89b6 9ebc ac0a 84bc 2da2 28bd
00000380: bf34 f03c 7724 9d3c ab2e c6bc 51be 2abd
00000390: 83df 7e3c 3068 35bd 878a 0dbc 417a 04bd
000003a0: fc4b 2e3d 10b3 0e3c 90bd 163b 9d20 71bd
000003b0: 3960 44bd 8308 48bd db88 dcbc a226 85bd
000003c0: 3c2c 97bd 5d8c 1ebd ce04 ba3c 7502 acbc
000003d0: 1ef5 1f3c 164a f3bb c6f3 18bd 260a 24bd
000003e0: c5b5 a8bb e253 00bd a800 16bd 5d52 163b
000003f0: d28d 963b 53c2 d43b 4033 40bd b6d2 823b

sequential_1/dense_7/MatMul f4 [1, 32]
-0.2824789 -0.20568871 -0.06789279 -0.4096501 1.1407006 -0.12507102 0.45296407 0.45337096
0.4463021 -0.24811773 0.23681211 -0.72507995 -0.1650225 -0.17933333 -0.23695119 0.31204307
0.13496774 -0.37722668 0.017567098 -0.12354164 -0.17708203 -0.22822535 -0.22687805 -0.08236929
-0.3102508 -0.4191548 0.34382957 -0.065388404 -0.29105857 -0.20586547 -1.2009892 -0.34390354
00000000: 13a1 90be 10a0 52be 600b 8bbd a8bd d1be
00000010: 7a02 923f 9e12 00be e8ea e73e 3d20 e83e
00000020: b581 e43e 9312 7ebe e07e 723e d79e 39bf
00000030: a9fb 28be 28a3 37be 55a3 72be 1cc4 9f3e
00000040: fc34 0a3e db23 c1be e0e8 8f3c 6603 fdbd
00000050: fe54 35be e8b3 69be b852 68be 3bb1 a8bd
00000060: 31d9 9ebe 759b d6be 6e0a b03e 5bea 85bd
00000070: a105 95be 66ce 52be 04ba 99bf 2014 b0be
