app/src/main/assets/model_cla_test.tflite (tflite, 27008 bytes, 9 tensors)

sequential_11/dense_82/MatMul;sequential_11/dense_82/BiasAdd f4 [101]
00000000: f5d8 3cc0 9d17 3fc0 05b6 43c0 e0e9 43c0
00000010: e195 41c0 8962 44c0 ba7e 40c0 e66d 44c0
00000020: 1a16 43c0 f0e7 3fc0 fe77 3fc0 c955 40c0
00000030: 2515 41c0 5e70 42c0 0191 43c0 0a6d 40c0
00000040: f791 82be 2f04 43c0 29ae 41c0 83d0 43c0
00000050: 7b82 b13e 5af9 cdbf 051e 43c0 db8f 0e40
00000060: ebbc 42c0 370e 43c0 c7cb c33f 9c8f 40c0
00000070: 77d9 42c0 c4f2 b0bf b68a 183f 5e8a 0e40
00000080: 4a64 43c0 549f 0a40 bdc4 0340 e62f 0c3f
00000090: 12f5 603f 1d1a 43c0 08db e83f ffd1 fd3f
000000a0: f332 723f e230 4940 6d29 43c0 64b7 2c3f
000000b0: 2530 43c0 2c73 c83f 3340 1040 2da1 39c0
000000c0: 4b16 993f f2b3 5cbf 6e97 2b40 e211 1d40
000000d0: e36f 43c0 ebd2 40c0 f8f1 2d3f d7b3 2abf
000000e0: ada2 bc3f feed 43c0 35f2 bbbf dd3a d73f
000000f0: 57ad 3fc0 2673 9f3e e41a 3fc0 efd7 3bc0
00000100: 0f53 42c0 887e 3ac0 bad6 3fc0 8eaf 3fc0
00000110: 420b 3fc0 f7d9 40c0 9bbc 153d 3e21 43c0
00000120: af81 40c0 6fc2 3ec0 0aae 0fbf 6567 44c0
00000130: 336f 40c0 9007 41c0 beb7 1640 ae3d 45c0
00000140: 0844 40c0 f0fd 41c0 720e 41c0 8a51 41c0
00000150: c2e2 3ec0 14b9 a63f e6b1 42c0 db30 43c0
00000160: 87a8 41c0 37fb 3fc0 249a 3fc0 5140 40c0
00000170: e5f8 40c0 9827 3fc0 ad87 45c0 2f9d 43c0
00000180: fcc3 40c0 a050 43c0 c247 3ac0 974d 42c0
00000190: 30bb 3ec0
-2.950742 -2.9858162 -3.0579846 -3.0611496 -3.024773 -3.068514 -3.0077348 -3.0692077
-3.048224 -2.9985313 -2.9916987 -3.005236 -3.0169156 -3.0381083 -3.0557253 -3.0066552
-0.25501987 -3.0471303 -3.026255 -3.0596015 0.3466986 -1.6091721 -3.0487072 2.2275302
-3.0427806 -3.0477426 1.5296563 -3.0087652 -3.044523 -1.3824086 0.59586656 2.2271953
-3.0529962 2.1659746 2.058883 0.5476059 0.8787395 -3.0484688 1.8191843 1.9829711
0.9460899 3.1436086 -3.0494034 0.6746733 -3.0498135 1.5660148 2.2539184 -2.9004624
1.1959928 -0.86212075 2.6811175 2.4542165 -3.053704 -3.0128734 0.6794734 -0.66680664
1.4737145 -3.061401 -1.4683291 1.6814839 -2.9949548 0.3114254 -2.9860163 -2.9350545
-3.0363195 -2.9139729 -2.9974809 -2.99509 -2.9850621 -3.0133035 0.03655682 -3.048904
-3.0079153 -2.9806173 -0.5612494 -3.0688107 -3.006787 -3.0160866 2.3549647 -3.0818896
-3.0041523 -3.031124 -3.0165067 -3.0206017 -2.9825902 1.3025231 -3.042108 -3.049857
-3.025911 -2.999708 -2.993783 -3.0039256 -3.0151913 -2.9867916 -3.086406 -3.0564687
-3.011962 -3.051796 -2.9106297 -3.0359857 -2.980175

sequential_11/dense_81/MatMul;sequential_11/dense_81/BiasAdd f4 [48]
00000000: 2a8c c43d 3cdf 2abe 8b33 993e be26 033e
00000010: 1383 0cbe 24a9 223e c179 ec3b 0ebb 673c
00000020: 9b0c 3dbe cdb7 64bd 8670 a4be 6747 67be
00000030: f591 31be 3265 aa3d a927 de3d 5bb7 1b3e
00000040: 2b6a 013e 32d6 9a3e de41 8c3d 18a9 9a3d
00000050: ea6a 41be 5477 32be 54c5 833e 4807 09be
00000060: c971 58be 0a46 8bbd 72bc f8bd f241 783e
00000070: a8c0 3a3e 404f bb3d 6db9 1a3e 0428 753c
00000080: a3c4 2a3e 2cd8 5b3e 3213 f3bd bdbd fdbd
00000090: 0552 ea3d fe1e 8a3e b221 a6bd 5cc5 bc3e
000000a0: aa62 aabd 66c1 7c3e 7dcc cdbc 151e 22bd
000000b0: ee35 c73c 1c27 56bd 060b 4abe 877e 283e
0.09597047 -0.1668672 0.29922137 0.12807748 -0.13721876 0.15884835 0.0072166626 0.014143718
-0.1846184 -0.05583935 -0.321171 -0.22585832 -0.17340834 0.08320083 0.10847408 0.15206663
0.12638156 0.30241543 0.06848501 0.07551783 -0.1888844 -0.17428333 0.25736487 -0.13381684
-0.21137156 -0.06800468 -0.12145318 0.24243906 0.18237555 0.09145975 0.15109797 0.014963154
0.16676573 0.21469182 -0.118688956 -0.12389705 0.11441425 0.2697677 -0.081118956 0.36869323
-0.083196 0.2468315 -0.025121922 -0.03957947 0.024317708 -0.05228339 -0.19730768 0.16454516

sequential_11/dense_80/MatMul;sequential_11/dense_80/BiasAdd f4 [16]
00000000: 13a5 34c0 4918 06bf 1adc 29c0 2b19 0740
00000010: 1bd2 fc3e 48ac a03f e7f5 7fbf 02af 0740
00000020: 6d17 3b3f 126e 053d b16d 18bf db8d df3f
00000030: d8dd e8bf bafe f9bd cc3f d0bf 321b 27c0
-2.8225753 -0.52380806 -2.654059 2.1109111 0.49379048 1.2552576 -0.9998459 2.1200566
0.7308262 0.032575674 -0.59542376 1.7465166 -1.8192701 -0.12206788 -1.6269469 -2.6110349

sequential_11/batch_normalization_64/batchnorm/mul f4 [7]
00000000: fb59 2941 47d3 3241 9e6b 8041 c885 8141
00000010: 0ba3 8c41 fcef 8c41 c064 8a41
10.584468 11.176581 16.052547 16.190323 17.57961 17.61718 17.299194

sequential_11/batch_normalization_65/batchnorm/mul f4 [16]
00000000: 58b2 6b41 8969 8b41 2ac3 2941 b11a 4941
00000010: df03 5241 5b1b 5041 bedf 6341 6ef4 5541
00000020: a828 8441 a5f6 8b41 e66c 6141 efcc 1c41
00000030: b491 4841 3278 8541 269e 4741 8bd7 3941
14.731041 17.42653 10.610147 12.569016 13.125945 13.006679 14.242125 13.372175
16.519852 17.495432 14.089087 9.800033 12.535572 16.68369 12.47611 11.615123

sequential_11/batch_normalization_66/batchnorm/mul f4 [48]
00000000: 31ec 3741 b559 5b41 18a0 cc40 0595 4b41
00000010: ffad 3641 b9b6 2441 1ac9 1d41 bfa0 4741
00000020: d38c 0141 ff29 4441 fbfe 3a41 5155 5241
00000030: 450f 1241 dde5 3141 6e09 3441 8290 1041
00000040: 85df 2b41 3a02 4541 c1f9 0041 c93b 5b41
00000050: 4c7d 7741 bed5 6f41 714a 4041 be66 3741
00000060: b3d0 4341 0b6c 4c41 6b2d 1a41 f55a 0041
00000070: 9a1c 3241 bbd8 0f41 31b6 1a41 4c23 7c41
00000080: 5f28 2441 de01 7f41 37bf 5c41 59e9 5b41
00000090: 8285 3541 eed0 4941 984e 5841 5954 2c41
000000a0: c2f0 3f41 9c2e 4e41 5825 2b41 0ea0 0a41
000000b0: 2b20 2d41 3957 3441 403c 1841 17b1 0341
11.495164 13.709401 6.3945427 12.723882 11.4174795 10.29461 9.861597 12.476745
8.096881 12.260253 11.687251 13.145829 9.128728 11.118619 11.252302 9.03528
10.74207 12.313044 8.060975 13.702096 15.46809 14.989683 12.018174 11.462584
12.238452 12.776378 9.636088 8.022206 11.131983 8.990413 9.66948 15.758617
10.259856 15.937956 13.796683 13.74447 11.345095 12.613508 13.519188 10.770593
11.996279 12.886379 10.696617 8.664076 10.8203535 11.271295 9.514709 8.230735

sequential_11/dense_80/MatMul f4 [16, 7]
00000000: 3b91 39bd 1586 51bd 5c18 38bd 32c2 d73c
00000010: c0d9 a23c 45d6 013e f704 ca3d 3b89 273d
00000020: c199 bf3c 9520 04be 1897 813b 66b0 0e3e
00000030: 99aa 1abd c3ec e63b dc41 093e f65c d3bd
00000040: c02a 5e3d a79c 76bd 53e2 033e f68c a6bc
00000050: a3a0 433d b77e 6bbd a2c7 983b 8793 0d3e
00000060: 071d 04be f9ac d8bc 94f6 59bc 95ae 82bd
00000070: cf2d dd3b b177 99bd 7f87 bcbd 2fba c53d
00000080: d85d 0e3e 13cc 71bd 4d32 a3bd ea36 003d
00000090: 81b4 ac3d a0a6 15bd cc9b 8c3d 62fd 9ebd
000000a0: 8f7b 2fbd 8cb0 65bd 2969 bfbd ffb2 3abc
000000b0: a9ab 853d 98b1 14bc 3121 fe3d 5c51 23bd
000000c0: aa33 13bc 3b28 293d 78c5 60bd 735c 29bd
000000d0: fad7 5cbd 8f48 4a3d 2d1d ad3d 1a95 30be
000000e0: eaba b33c 6b2b e3bc 1320 1bbd a6ed ebbd
000000f0: 7fb5 ddbd d078 2c3d 6154 2b3e 5ab3 c33c
00000100: 7f7d 37bd af13 1e3d 3d07 613c 188f 813d
00000110: 20ed 1fbe 611c 673d de7f 0a3c ad6c e33d
00000120: ab47 9cbd 026f 88bd e9a2 083e 52db e3bb
00000130: b156 dabc 0af4 26bd 3518 593c 7660 3abd
00000140: 2113 3e3d 7f29 f7bd f2fc 2bbd fdd0 973d
00000150: 6605 93bd 63d8 e83c 1345 9e3d 43ff 373c
00000160: 8952 fabc e710 2cbd 5559 0c3e 8c0c 563d
00000170: 50ad 22bd 67a3 063e 948e 9abd 364e 08be
00000180: a865 f33c 6ae3 613d 8422 20bc 615f 28bd
00000190: 1c7f 663c b7d9 a1bd 92e9 17bc 19ed 113e
000001a0: 2aae 803d cf44 b43c f5cb 11bd cfb0 5ebd
000001b0: 70ca 503e 976f 2abd 237c 5b3d fc36 763c
-0.04530452 -0.05115326 -0.044945106 0.026337717 0.019879222 0.12679394 0.09864228 0.040902358
0.023388745 -0.12903054 0.0039547794 0.13934478 -0.03776035 0.007047267 0.1340403 -0.10320465
0.05423999 -0.06020799 0.12879305 -0.020330887 0.047760617 -0.05749389 0.00466247 0.13825808
-0.12901698 -0.026449667 -0.013303418 -0.06380955 0.0067498456 -0.074935324 -0.09205531 0.09654652
0.13902986 -0.05903251 -0.079685785 0.03130237 0.08432866 -0.03653586 0.068656534 -0.07763173
-0.042842444 -0.05607657 -0.093462296 -0.011395215 0.06526882 -0.009075545 0.124086745 -0.039872512
-0.008984486 0.041298132 -0.05487582 -0.041347932 -0.05391691 0.049385604 0.084528305 -0.17244378
0.021939714 -0.027730664 -0.037872385 -0.11519937 -0.10825633 0.042107403 0.16731407 0.023889232
-0.044797417 0.03859299 0.013734636 0.06326121 -0.156178 0.05642355 0.0084533375 0.11104713
-0.07630857 -0.06661798 0.13343395 -0.0069536353 -0.026652666 -0.040760078 0.0132504 -0.04550215
0.04640496 -0.120684616 -0.041989274 0.07412908 -0.07178764 0.028423494 0.077280186 0.011230293
-0.030556934 -0.042008307 0.13705952 0.05225806 -0.039716065 0.1314827 -0.07546726 -0.13311085
0.02971156 0.05514852 -0.009773854 -0.041106585 0.014068391 -0.07902854 -0.009271996 0.14250602
0.06283219 0.022005467 -0.0355949 -0.054367837 0.20389724 -0.041610327 0.053585183 0.015027758

sequential_11/dense_81/MatMul f4 [48, 16]
00000000: ab59 0a3e 94df 8cbc c8ee c6bd eb3c f1bc
00000010: 4bb2 0bbd afb1 033e 6a2e 503d c6f2 d83c
00000020: b0cf 88bd c852 5f3c 3f44 263d 928a 88bd
00000030: 5fcb 5bbd a847 06be d358 8e3d b527 043c
00000040: 0d28 fbbd 6c69 1e3d 14c5 7abd 82df 22bc
00000050: 6735 833d fc40 56bc 76ef 413e fc2d 9cbb
00000060: e704 2ebd dad2 e03d 6316 4b3d dccf 71bd
00000070: 4e24 91b9 3bf5 be3d 43fc 90bd 7ea5 8bbd
00000080: 3af9 a6bd e1fb e1bc 31a0 24bb 457a 923c
00000090: d35a 77bd 25f3 9e3d 0bdb 9f3c bbbe 4fbb
000000a0: c0e6 66bd 1faf 0dbe f9b0 a43d 367c 6dbd
000000b0: 49cb ccbd 33a6 8ebd 7c17 f63c 2b04 973d
000000c0: a9fc ea3d a46c ebbc e855 04bd a388 0ebc
000000d0: 8c04 09be be73 803d 7810 6ebd bef1 95bd
000000e0: b464 7bbc f87b da3d 7136 4d3a 901b 803c
000000f0: 3727 54bd 4650 61be 6774 a83d d357 13bd
00000100: 2e47 a13c 4ac2 d0bd 0f70 2cbc 45bd 083d
00000110: f04b b53d 25ab 8b3c 3fd8 cabd 9e9e e53d
00000120: ef3a 49be b8a4 03be 1ffe 1abd d63d 193d
00000130: e879 af3d 63ea 943d df9b 8c3d 7cb8 533d
00000140: 5098 713c cc7f a63d f6c1 e3bd cdff 09be
00000150: c62f eb3d 3b41 26bd 35a0 7ebc 9046 a6bd
00000160: 1498 cabd 3d16 ab3c f14f d8bc 6266 613d
00000170: 9a8a 73bc 0c44 1a3e 1ccc f7bd f03f a4bd
00000180: 4cf9 55bd ace0 923d b63c da3d 5b7e 64bb
00000190: 78c0 3f3e 375e 21bd 2072 93bd 2055 79bc
000001a0: de99 763d 9e1c aabc 66ff 17be fe0a ed3c
000001b0: 4fdf 223b a441 483e 35b5 5abd 6510 6cbd
000001c0: 9a43 26be 33cf 54bc 2ffc 01bb 7c95 a83d
000001d0: 5c5f 613b 9fa8 b4bd 8e62 9d3d 6d10 8cbc
000001e0: 4b05 25bd ca52 e9bd 0a0d 08bd b13f 0bbd
000001f0: 86c4 cf3d 80ec 453d 8627 e7bd 727b 2bbd
00000200: a8cd ecbd f3f8 7fbd a8b1 2fbd 77a8 d13c
00000210: 415a 673d 9916 8c3d 694d c53d 343a d5bd
00000220: 0d8b c1bd 11b4 883c 2b7b 243c fd41 583d
00000230: a460 b53d d344 7f3c 9579 aebd ca64 96bc
00000240: a70e 33be 6b03 5d3d 0e96 8c3d c1de aa3d
00000250: 15bf 49bd 7410 02bd b1f8 053e 2591 8bbc
00000260: c2da d73d 9122 23bc 4c46 9438 4bfb ce3c
00000270: fe0e f53d 518d 0bbd 8284 bbbd 1b78 c73b
00000280: 1d80 11bc a42c b83b 1865 3f3e 103a cd3d
00000290: 0411 c4bc 9dce b5bd 4940 f8bc b3f6 ff3d
000002a0: 7357 9dbd 718e e53d dc67 793d f3be d83c
000002b0: 59b2 d73c 1f82 2d3e ceb9 7cbd b689 693d
000002c0: 7ed9 37be 945f 193d 27db 0abd de01 ea3d
000002d0: f45b 87bd c1f2 edbd 1e10 003e 2b05 3d3c
000002e0: 1f8b aabc e4ef 9fbd 2928 c93c 062d e03c
000002f0: 4ae1 fc3d 7580 1fbc 5b3e 24bd 49bd 18bc
00000300: ed1a f9bd 88fa c1ba bcc9 f23c 0840 543c
00000310: f561 463d 2b6c 8b3d b9de 743d 118e 11be
00000320: e70e 81bd 9367 573d fe54 a73c e8d2 9e3d
00000330: 1ec5 d43d 1600 553c 55a3 8abb e9fe d5bd
00000340: ae43 ad3d 550c 3fbe 04ba 373d 7da9 183d
00000350: d01c c23c 3cc7 8c3d d92a 19bd d505 073e
00000360: 9682 43bd 0c3f 7d3c 575a 72bc 305c a1bd
00000370: 5da8 02bd fcb6 04bd 0d16 c93d 46c5 f53d
00000380: 7c5f 85bd fce8 193e 3415 21bd fef1 c539
00000390: 63ba d23b 157d c5bd 3051 043d 44fa 20be
000003a0: 85a5 6bbc 4d4a 063d 8d5f 7abd 0dae 883d
000003b0: 7b30 3a3d a3f2 a13d d1bf 05be c4e8 ddbd
000003c0: ca6f fc3c 8f13 093e 85bf dabd 507e 3dbe
000003d0: d993 ce3d df46 fb3c 64a7 9ebd 7133 b1bd
000003e0: 1758 9c3c 1f22 1d3c fde1 ba3c be87 8a3d
000003f0: 7438 d73c 009d 3bbd 1840 53bd 9dd4 f1bd
0.13510768 -0.017196454 -0.09713513 -0.029447993 -0.03410558 0.1286075 0.050825514 0.02648295
-0.06680238 0.013630576 0.04059243 -0.06667055 -0.053660747 -0.13113272 0.069505356 0.0080661075
-0.122634985 0.038674757 -0.061223105 -0.009940984 0.0640667 -0.013077017 0.18939003 -0.004766224
-0.042485144 0.10977717 0.049581897 -0.05903612 -0.00027683604 0.09324118 -0.07079365 -0.068186745
-0.08153005 -0.027585926 -0.0025119896 0.017880568 -0.06038935 0.0776122 0.019513628 -0.0031699378
-0.056372404 -0.13836335 0.08041567 -0.057979785 -0.09999711 -0.06965294 0.030040495 0.07373842
0.11473972 -0.028738327 -0.03230849 -0.008699569 -0.13380641 0.06272076 -0.058121175 -0.07321499
-0.015343834 0.106681764 0.0007828242 0.015638143 -0.05179521 -0.22003278 0.08225327 -0.035972428
0.019687261 -0.10193308 -0.010524764 0.033383626 0.088523746 0.017049382 -0.09904527 0.112118945
-0.19651388 -0.12855804 -0.037840005 0.037412487 0.08568174 0.07271268 0.068656676 0.05168961
0.014745787 0.08129844 -0.111209795 -0.13476487 0.114837214 -0.040589552 -0.015541126 -0.081189275
-0.09892288 0.020884627 -0.026405307 0.05502928 -0.014864588 0.1506502 -0.12099478 -0.080200076
-0.0522397 0.07171759 0.10656111 -0.0034865353 0.18725765 -0.03939649 -0.07199502 -0.015218049
0.060205333 -0.020765599 -0.1484352 0.028935906 0.002485234 0.1955629 -0.05339547 -0.057632823
-0.16236725 -0.012988853 -0.001983415 0.08231637 0.0034389114 -0.088212244 0.076848134 -0.017097676
-0.04028825 -0.11392744 -0.03321556 -0.033996288 0.10144906 0.048321247 -0.11286835 -0.041865773
-0.11562663 -0.062493276 -0.042894036 0.025593026 0.056482557 0.06840248 0.096339054 -0.10411492
-0.0945035 0.016687425 0.010039131 0.052797306 0.08856323 0.015580374 -0.08519284 -0.018358607
-0.17486058 0.053958338 0.06864558 0.08343268 -0.049254496 -0.031753972 0.1308315 -0.017036984
0.105397716 -0.009956972 7.070284e-05 0.02526631 0.1196575 -0.034070317 -0.09156133 0.0060873157
-0.008880642 0.005620556 0.18690908 0.1002084 -0.023933895 -0.08877299 -0.030304091 0.12498226
-0.07682695 0.11208809 0.060890064 0.02645824 0.02633016 0.16944169 -0.061700635 0.057016097
-0.1795406 0.037444666 -0.033900406 0.114261374 -0.066093355 -0.11618567 0.12506148 0.011536877
-0.020818291 -0.078094274 0.024555283 0.027365219 0.12347658 -0.009735216 -0.04009853 -0.009322473
-0.12163339 -0.0014799396 0.02963721 0.012954719 0.048433263 0.06807741 0.059782717 -0.1421435
-0.063016705 0.05258901 0.02042627 0.07755071 0.103891596 0.013000509 -0.0042308965 -0.10449011
0.084601745 -0.18657048 0.044855133 0.03727101 0.02369538 0.068739384 -0.03739438 0.13185818
-0.04773196 0.015456926 -0.0147920465 -0.078789115 -0.031898845 -0.03240107 0.09818659 0.120005175
-0.06512353 0.15030283 -0.03932686 0.00037755066 0.0064309104 -0.09642998 0.03230399 -0.15720469
-0.014382725 0.032785702 -0.06112628 0.066738226 0.04545639 0.079076074 -0.13061453 -0.10835412
0.030815024 0.13386367 -0.10681061 -0.18505216 0.100867935 0.030673442 -0.07746771 -0.0865239
0.019084973 0.009590655 0.022812838 0.06764172 0.026272036 -0.045804024 -0.051574796 -0.11808131

sequential_11/dense_82/MatMul f4 [101, 48]
00000000: 9867 bdbd 747d 8d3e f616 683d 6ba3 723e
00000010: a5bc 8d3d 9f1e b53d eeaa 91bd 80f3 32bd
00000020: 881e 97bd a71c 9c3c 7198 053e b210 343e
00000030: dbbd 9dbd cae4 0c3d e440 553e 2460 a53d
00000040: 0eb8 edbc 4a68 9f3d d904 b83d ef08 06be
00000050: 456e 443c c66e 4c3e faf9 813d be24 753e
00000060: b685 8fba 9e3a 453e 619e 993c f1b3 b9bd
00000070: 25c5 103e f825 d8bd d5dc 373e 004f 4d3e
00000080: 8cd7 6fbd 1226 1d3d d825 5abd fb72 483e
00000090: 6f58 10be 7f92 13be 1ae8 c9bd 6107 703d
000000a0: ad64 af3d d13f 303e 9d36 4d3c 500e 133d
000000b0: b500 0ebe be92 3b3e 65c1 143e 9fcc a7bd
000000c0: eebf cebd 8386 8f3e 17d7 603d 5dbd 733e
000000d0: 258d 773d 6444 ae3d 1114 93bd 8d4f 3cbd
000000e0: 4af9 97bd 1cb1 4c3c 85c0 f93d 90b3 2d3e
000000f0: aed1 9fbd 839b 013d 96a6 5d3e b43f 973d
00000100: 6efc cfbc 9e91 9f3d 3d42 b63d 8101 02be
00000110: afb5 073c a196 503e 6faa 6d3d 7a50 8b3e
00000120: f367 cbba bafd 5a3e b87f 5b3c 767f b4bd
00000130: 6e1c 183e 810a bdbd ec20 493e 07fc 543e
00000140: 7789 5ebd efc1 0a3d 7f40 73bd f99b 4c3e
00000150: dec0 07be 9f2b 17be 5a52 e4bd 4033 613d
00000160: 062d af3d 6f44 303e 44ba 843c 11a0 d83c
00000170: 45df 0bbe d199 1d3e 8178 273e 0d0f b4bd
00000180: b2a0 cebd 81f4 993e 11ed 583d 24e2 833e
00000190: 6ada 793d 147b ad3d ff49 9dbd 6654 43bd
000001a0: 73b6 b0bd 91c4 8d3c 5cc6 073e 5252 363e
000001b0: 713c 97bd 5fe7 0b3d 7b96 5e3e a239 9a3d
000001c0: 3959 c3bc 0a66 a33d bd7f be3d 4147 09be
000001d0: 7552 b73b 2b29 4f3e 8e4b 6f3d 926d 8b3e
000001e0: 54f4 6abb fdf5 5b3e f686 843c 2419 acbd
000001f0: afb5 1a3e b293 c9bd 8d76 4c3e 3800 593e
00000200: 5174 66bd a402 0c3d 07ad 76bd a122 543e
00000210: 7641 15be 397a 11be 5472 e9bd 13d2 743d
00000220: 096c ad3d c348 353e ce19 333c 1c42 f03c
00000230: d332 fdbd 3a37 2a3e db24 263e 9886 b5bd
00000240: 59d4 cdbd a891 9b3e c36e 6a3d 648e 813e
00000250: 6207 883d a14c b13d d63a a0bd 36f7 47bd
00000260: ef54 99bd 9c4e 553c fda3 e83d 8057 3e3e
00000270: abb8 91bd f350 173d c366 633e dea0 a03d
00000280: 823c bebc a44c a73d 1f5c ce3d c1c6 0fbe
00000290: 8bd2 1c3c 0d0e 4e3e 7ffc 773d 8e65 8c3e
000002a0: 5a27 77bb 2313 543e 129f 873c 35e5 b7bd
000002b0: 9e74 1f3e 0fe3 d8bd 3af1 3f3e 1c07 533e
000002c0: 742e 6ebd d6ec 193d 056f 70bd 90a9 523e
000002d0: 8776 0dbe 43b4 0ebe 5dbd eebd 85a0 573d
000002e0: f4f7 b63d 3854 323e 05e9 483c c1f1 df3c
000002f0: 34aa 13be 96fb 333e c23d 1f3e 47cb a3bd
00000300: 18d9 c5bd 5b5b 9c3e affa 533d 8833 7b3e
00000310: f880 743d 8fbd b93d 75fa 96bd fe0c 44bd
00000320: 4e25 95bd 39a9 493c 9c34 063e 5eb9 3d3e
00000330: cba3 a0bd 7291 0a3d ec5d 603e e6cc a53d
00000340: c5ff cbbc 660c a83d 7b30 c83d d640 0ebe
00000350: c75f 173c e2c3 493e 4cfb 733d 620e 8c3e
00000360: ae1a 81bb 9bc5 533e c1a3 8a3c 6b6e b9bd
00000370: c26e 1b3e 51b1 cfbd 02d5 523e 4e5b 543e
00000380: aabb 51bd 9926 0f3d 8e76 83bd d1ba 443e
00000390: fb42 17be 0763 13be 85c9 cebd a5c2 623d
000003a0: b7b1 aa3d aea0 2b3e 2e45 6c3c c628 c93c
000003b0: e79c 0abe ed5b 2b3e c5e1 273e d6b7 aebd
000003c0: 75f0 c5bd 9cb0 9d3e bbed 733d b28a 823e
000003d0: 0ea5 843d 9d0a b03d a841 9cbd 77ee 45bd
000003e0: d799 93bd 103a 573c fb95 fd3d 1990 3a3e
000003f0: bbe5 a3bd 299b 0d3d 3aab 623e 50ac 993d
-0.092482746 0.27634776 0.056662522 0.23695152 0.06920747 0.08843731 -0.071126804 -0.04368925
-0.0737887 0.019056631 0.13046433 0.17584494 -0.07702228 0.034397878 0.20825535 0.08074978
-0.029018428 0.077835634 0.089852996 -0.13089345 0.011989181 0.19964132 0.06346507 0.23939797
-0.0010949883 0.19260642 0.018752279 -0.09067524 0.14137705 -0.10554117 0.17955334 0.20049667
-0.05855517 0.038366385 -0.053258747 0.19575112 -0.14096235 -0.14411353 -0.09858723 0.058600787
0.08564124 0.17211844 0.012525228 0.03590232 -0.13867457 0.18317696 0.14526899 -0.08193325
-0.100952014 0.28032312 0.054892626 0.23802705 0.06043734 0.08509138 -0.07181562 -0.045974303
-0.07420595 0.012493398 0.12194923 0.16963029 -0.07803665 0.03164245 0.21645579 0.07385197
-0.025388923 0.07791446 0.08899353 -0.12695886 0.008283063 0.2036996 0.058023866 0.27209836
-0.001551865 0.21385852 0.01339715 -0.08813374 0.14854595 -0.09230519 0.19641465 0.20799266
-0.054330315 0.033876356 -0.05938768 0.19981374 -0.13257167 -0.14762734 -0.1114852 0.054980516
0.085535094 0.17213605 0.0162021 0.026443513 -0.1365939 0.15390708 0.16354562 -0.08791933
-0.10089244 0.30069354 0.05296046 0.2575847 0.06099931 0.08470741 -0.07680129 -0.04768791
-0.086285494 0.017305644 0.13259262 0.1780484 -0.07384575 0.0341562 0.21737091 0.07530524
-0.023846256 0.07978447 0.09301708 -0.13406087 0.0055945464 0.20230548 0.058421664 0.27232033
-0.0035851197 0.21480556 0.016177636 -0.08403233 0.1510837 -0.09842624 0.19967099 0.2119149
-0.05626327 0.034182206 -0.060223605 0.20716335 -0.14575753 -0.1420678 -0.113987595 0.059770655
0.08467872 0.17703538 0.010931445 0.029328398 -0.123632096 0.1662263 0.16224997 -0.08863562
-0.10050268 0.30384564 0.057234537 0.25303948 0.06642033 0.08657194 -0.07823722 -0.048819743
-0.07486903 0.01301923 0.11359403 0.18588066 -0.07115301 0.036942434 0.22207169 0.07843183
-0.023222212 0.08168915 0.100761645 -0.14040662 0.009571682 0.20122547 0.060543533 0.2742123
-0.0037712664 0.20710425 0.016555343 -0.08979265 0.1557183 -0.10590183 0.18744364 0.20608181
-0.05814977 0.03757938 -0.058699626 0.20572495 -0.13814746 -0.13935952 -0.11657212 0.052643318
0.08934012 0.1741494 0.012262587 0.027336957 -0.14420396 0.17576441 0.15550902 -0.079977565
-0.09660548 0.3053845 0.051752742 0.24531376 0.059693307 0.090693586 -0.0737199 -0.047863953
-0.07282506 0.012308412 0.13106006 0.18527743 -0.07843741 0.033830114 0.21910828 0.08095722
-0.024902234 0.0820549 0.09774872 -0.1389192 0.009239144 0.1970363 0.059565827 0.27354723
-0.003939948 0.20680849 0.016923787 -0.09054264 0.1517897 -0.10141242 0.20589069 0.20737955
-0.05120436 0.03494892 -0.06419097 0.1921189 -0.14771645 -0.14393245 -0.100970306 0.05536141
0.08334678 0.16760513 0.014420791 0.024555575 -0.13536416 0.16734286 0.16394718 -0.08531158
-0.09665004 0.30798805 0.05955289 0.2549644 0.06476794 0.08595774 -0.076297104 -0.04832312
-0.07207077 0.013136402 0.12382122 0.18219031 -0.08002802 0.0345718 0.2213563 0.07503569
