app/src/main/assets/model_red_shuffle_96.tflite (tflite, 106380 bytes, 8 tensors)

sequential_8/dense_29/MatMul;sequential_8/dense_29/BiasAdd f4 [150]
0	0xbf97be47	-1.1854943
1	0x3fb2e4ec	1.3976111
2	0x3e9eef8f	0.31042144
3	0x400df1dc	2.217887
4	0x402cbe9b	2.6991336
5	0x3fb34777	1.4006184
6	0x400591bd	2.0870202
7	0xbe5111de	-0.20416972
8	0x3fed94f2	1.856108
9	0x3f6fbdf4	0.9364922
10	0xbf854125	-1.0410506
11	0xc083f803	-4.124025
12	0x3fa5e442	1.2960284
13	0x3f4dec25	0.8043845
14	0x3f1dfcca	0.6171385
15	0xbf731b6e	-0.9496373
16	0x3fc796bd	1.5592877
17	0x3f237af8	0.6385951
18	0x402ea425	2.7287686
19	0xbf4ed08a	-0.80786955
20	0x3e526543	0.20546441
21	0x40015507	2.0208147
22	0x3f6ae03d	0.9174841
23	0x3e8bfe04	0.27342236
24	0xbf92976d	-1.1452461
25	0xbf41d86e	-0.7572087
26	0x3fa31bec	1.2742896
27	0x3fa5ce58	1.2953596
28	0x3ff49344	1.9107442
29	0xbf099c2d	-0.5375393
30	0x3fbce5c3	1.4757618
31	0x3fa73503	1.3063053
32	0xbf8a5ec9	-1.0810176
33	0x3ebf77fc	0.37396228
34	0xbf03c867	-0.51477665
35	0x3f0e1f65	0.55516654
36	0xbf3207e2	-0.6954328
37	0xbf102ec8	-0.5632138
38	0xbf9ad1f1	-1.2095319
39	0xbfe28cd0	-1.7699223
40	0x3fef45ec	1.8693213
41	0x3e2d86cd	0.16945954
42	0x40a6fdcc	5.218481
43	0x3e961757	0.29314682
44	0x3ed7fc3e	0.42184633
45	0xbf0a7271	-0.54080874
46	0x3f44db71	0.7689734
47	0x3fd63eb5	1.6737887
48	0xbf8b796d	-1.0896431
49	0xbe8dcfb5	-0.2769753
50	0x3fd6c0cd	1.6777588
51	0xbf7abaec	-0.9794147
52	0x3f5cca62	0.8624631
53	0xbfe1bff8	-1.7636709
54	0xbf72b621	-0.94809157
55	0x3faef052	1.366709
56	0xbcbf2663	-0.023333734
57	0xbfeee0da	-1.8662369
58	0xbed1c2a2	-0.40968806
59	0x3e80f184	0.25184262
60	0x3f282fc4	0.65697885
61	0xbe9fe66c	-0.31230485
62	0xbd21bc4c	-0.039486215
63	0x40aa0189	5.3126874
64	0xbe73e642	-0.23818305
65	0x407fb16d	3.9952042
66	0x3eb42e30	0.35191488
67	0xbd38f50e	-0.045155577
68	0x40ad2d85	5.4118066
69	0xbfd7abe4	-1.6849332
70	0x3fa1627b	1.2608179
71	0xbe740daa	-0.23833337
72	0x3fdf072e	1.7424066
73	0xbd4094d9	-0.047016952
74	0x3fa667be	1.300041
75	0x400f19c5	2.2359478
76	0xc0009e6a	-2.0096688
77	0xbfc8b234	-1.5679383
78	0xc008f24c	-2.1397886
79	0x400f11d9	2.2354643
80	0xbf888d95	-1.0668207
81	0xbfee8d24	-1.8636823
82	0xbe31f61d	-0.17379041
83	0xbfabcd79	-1.342208
84	0x3fffcc07	1.9984139
85	0xc0797be1	-3.898186
86	0x3e7ea405	0.24867256
87	0xbfcc46d1	-1.5959111
88	0xbe105db9	-0.14098252
89	0xbfa11ea5	-1.2587477
90	0xbf365f03	-0.71238726
91	0xbf7fd532	-0.99934685
92	0x3ebebe86	0.37254733
93	0x4074a8f6	3.8228126
94	0xc013b9be	-2.3082118
95	0xbef861b5	-0.48512045
96	0xc0206adb	-2.506522
97	0x3fb0e48a	1.3819745
98	0x3e8343c3	0.25637636
99	0x4009026b	2.1407726
100	0xc0268a26	-2.602182
101	0x3f1fd35a	0.6243187
102	0x3f091bc8	0.53558016
103	0xbf56c2c2	-0.83890927
104	0xbfb69060	-1.426281
105	0xbf73571e	-0.95054805
106	0xbea9cae1	-0.33162597
107	0x40ae8bf2	5.454583
108	0x409355d6	4.604228
109	0xbebe9ef2	-0.3723064
110	0xc019da6b	-2.4039562
111	0x3f659be7	0.89691013
112	0x3fd1b431	1.6383115
113	0x3ec29e7f	0.38011548
114	0x3fe34711	1.7756063
115	0xbfcce576	-1.6007526
116	0x3ed5a109	0.41724423
117	0xc0600f86	-3.5009475
118	0xbec698ba	-0.38788396
119	0x4055b94c	3.3394346
120	0x3de198ad	0.11015449
121	0x3eb71688	0.35759377
122	0x3fa5fca5	1.2967726
123	0x404d2c64	3.2058344
124	0x3f587edd	0.8456858
125	0x401f8a56	2.4928184
126	0x3fcda861	1.606701
127	0xc00c3ce4	-2.1912165
128	0xbf4dff03	-0.8046724
129	0xbf92d127	-1.1470078
130	0x40c1d2b7	6.056972
131	0x409e6097	4.9492908
132	0xc093dd14	-4.620737
133	0x3d06323c	0.03276275
134	0x3f0a7feb	0.5410144
135	0xbebf5d89	-0.3737605
136	0x4092989b	4.5811286
137	0x4020b1b4	2.5108461
138	0x40399bc6	2.9001327
139	0x3eab6566	0.33475798
140	0x40002020	2.0019608
141	0xbc976836	-0.018482309
142	0xbfc65a00	-1.5496216
143	0x3eb17757	0.34661362
144	0x3ee70d31	0.45127252
145	0xbf2d9f69	-0.67821366
146	0xbe9cb640	-0.30607796
147	0x3fafaa83	1.3723911
148	0x3dcab3f9	0.09897608
149	0x3f9c8cf0	1.2230511

sequential_8/dense_28/MatMul;sequential_8/dense_28/BiasAdd f4 [75]
0	0x3ff8ac08	1.94275
1	0xc03e3c5c	-2.972434
2	0x40203d27	2.5037324
3	0xbe223bf4	-0.15843183
4	0xbf181cc9	-0.5941892
5	0xbf5c5bce	-0.8607758
6	0x4057afca	3.3701043
7	0xc0c6a231	-6.2072988
8	0xc02b9dd3	-2.6815078
9	0xbfa8fe23	-1.3202556
10	0xc0adb632	-5.4284906
11	0xbfb32ef3	-1.3998703
12	0x4026b7a0	2.6049576
13	0x3d0075d4	0.03136237
14	0x404e13df	3.2199628
15	0x4072d08b	3.7939785
16	0x4079ae10	3.901249
17	0xc003c5cb	-2.0589473
18	0x4028d966	2.638269
19	0xc084fe7c	-4.156065
20	0xbd65f222	-0.05613912
21	0xbf5a604e	-0.853032
22	0x40023a11	2.034794
23	0x4086e71a	4.2157106
24	0x40ff3d31	7.9762197
25	0xc005b6f3	-2.0892913
26	0x40367585	2.8509228
27	0xc0ce3699	-6.4441648
28	0xc156003e	-13.375059
29	0x40904c0f	4.5092845
30	0x4042a6a6	3.0414214
31	0xc00cd2c5	-2.2003644
32	0xc1289b71	-10.53795
33	0x3fd336a9	1.6501056
34	0x408eb0a9	4.459065
35	0x3fc1dbfe	1.5145261
36	0xc0c2fe53	-6.0935454
37	0xc1301c59	-11.006921
38	0x40df87a1	6.9853063
39	0xc0c8cad8	-6.274761
40	0xc1132440	-9.19635
41	0x403e13ff	2.9699705
42	0x3f54c177	0.83107704
43	0x40a9fb8d	5.311957
44	0xc0bcc114	-5.898569
45	0xc08b1f94	-4.3476048
46	0xc0c925f6	-6.285884
47	0x40bbd253	5.8694243
48	0x400d0e85	2.2040112
49	0x3fcf17c6	1.617913
50	0x3fbccc8b	1.4749922
51	0x3f8b79b9	1.0896522
52	0x3ee2d52a	0.44303256
53	0x3f4424ee	0.7661885
54	0xc12adcc7	-10.678901
55	0x3fc72f7e	1.5561368
56	0xc165eeb6	-14.370779
57	0xbffdc4d2	-1.982569
58	0xc1006ee5	-8.027074
59	0xc0ff9506	-7.9869413
60	0xc0a2e06e	-5.089896
61	0xc1488aca	-12.533884
62	0x3fe10a44	1.7581258
63	0x40362962	2.8462758
64	0x40a1c65f	5.055465
65	0xc10091a3	-8.035556
66	0xc031cb09	-2.7780173
67	0xbfe45d09	-1.7840892
68	0xbfd167bc	-1.6359782
69	0x40619685	3.524812
70	0x3fdb6387	1.7139748
71	0x4013cd6d	2.3094132
72	0x4016d544	2.3567667
73	0x409cd55e	4.901046
74	0x4058642d	3.3811142

sequential_8/dense_30/BiasAdd/ReadVariableOp/resource f4 [91]
0	0xbf2f69b3	-0.6852066
1	0xbf22b6d3	-0.6356022
2	0xbf2cd6a6	-0.6751503
3	0xbf22f95d	-0.6366175
4	0x3df839d4	0.12120405
5	0x3e696ca8	0.22795355
6	0xbf2661d7	-0.6499304
7	0xbf2b8ed7	-0.6701483
8	0xbecd283c	-0.4006976
9	0xbf2d0350	-0.6758318
10	0x3da2c8a5	0.07948426
11	0x3e7dec06	0.24797067
12	0xbf25df50	-0.6479387
13	0xbe171a5e	-0.14756152
14	0xbeea16a3	-0.45720395
15	0xbf64d8e4	-0.8939345
16	0x3e390784	0.18069273
17	0xbf286e39	-0.65793186
18	0xbf2293b6	-0.6350664
19	0xbf252ad2	-0.64518464
20	0x3e361a70	0.17783523
21	0xbe52c7bf	-0.2058401
22	0xbf23b487	-0.6394734
23	0x3ea5ccb5	0.32382742
24	0x3e61aee8	0.22039378
25	0x3e7583ee	0.23976108
26	0x3e8b35b5	0.27189413
27	0xbf26afcb	-0.6511199
28	0x3e21650c	0.15761203
29	0x3ea45049	0.32092503
30	0x3e2e6684	0.17031294
31	0x3e872a18	0.26399302
32	0xbf33a818	-0.70178366
33	0x3ebb3688	0.36565042
34	0x3e2c5a4c	0.1683132
35	0x3ec642c7	0.38722822
36	0x3dc5745c	0.096413344
37	0xbf2fee94	-0.68723416
38	0x3e83dfb2	0.25756603
39	0x3eaa8dfd	0.33311453
40	0x3e79b258	0.24384439
41	0x3e33a2d1	0.17542578
42	0xbf1f5935	-0.62245494
43	0x3e30d596	0.17268977
44	0x3d388745	0.045050878
45	0x3e847c58	0.25876117
46	0x3dcef770	0.10105789
47	0xbf1fd38e	-0.6243218
48	0x3deaa7eb	0.11457809
49	0x3e586f8b	0.211363
50	0xbdab287e	-0.08357333
51	0x3ee56b8e	0.4480862
52	0xbf215173	-0.63014907
53	0x3e823427	0.25430414
54	0x3e7169af	0.23575471
55	0xbebb0e1e	-0.36534208
56	0xbd0e45a8	-0.034734398
57	0xbf264aa9	-0.6495767
58	0xbe34bfd2	-0.17651299
59	0xbdf8bdc0	-0.12145567
60	0x3e4d4098	0.20044172
61	0x3eab7bc0	0.3349285
62	0xbf2a3355	-0.66484576
63	0xbf271a66	-0.65274656
64	0xbee64441	-0.4497395
65	0xbf1e812e	-0.6191586
66	0xbf3762e6	-0.7163528
67	0xbed5d2e4	-0.4176246
68	0xbed75a78	-0.4206121
69	0xbf25a029	-0.6469751
70	0xbf2786fd	-0.6544035
71	0xbf310964	-0.69154954
72	0xbec592e8	-0.38588643
73	0xbf2917fe	-0.66052234
74	0xbf242ca0	-0.6413059
75	0xbf2fef87	-0.68724865
76	0xbf28e887	-0.6597981
77	0xbf2fa5e1	-0.68612486
78	0xbf283cc5	-0.65717727
79	0xbf2723d9	-0.65289074
80	0xbf263aff	-0.6493377
81	0xbf1dfa4d	-0.61710054
82	0xbf11a5cc	-0.5689361
83	0xbf31fee7	-0.69529575
84	0xbf1daf51	-0.61595637
85	0xbf1fc263	-0.62405986
86	0xbf2e72d1	-0.68143946
87	0xbf18f82b	-0.59753674
88	0xbf208529	-0.62703186
89	0xbf284700	-0.6573334
90	0xbf1f2f04	-0.62181115

sequential_8/batch_normalization_10/batchnorm/mul f4 [75]
0	0x422c931d	43.143665
1	0x420e26ce	35.537895
2	0x422a93a5	42.644184
3	0x422eb09b	43.672466
4	0x423c06b9	47.006565
5	0x4234eaff	45.22949
6	0x424814d6	50.020348
7	0x421e4d80	39.575684
8	0x41f80c2a	31.00594
9	0x423578b2	45.367867
10	0x4244eaf2	49.22944
11	0x4239f1b7	46.48605
12	0x42177dcb	37.872845
13	0x423c98ab	47.14909
14	0x422a249c	42.53575
15	0x422905ca	42.255653
16	0x420ac060	34.687866
17	0x42112135	36.28243
18	0x420d0cc3	35.262463
19	0x421ac1f0	38.689392
20	0x4225f925	41.493305
21	0x4219c9d8	38.447113
22	0x422bf16d	42.985767
23	0x42299018	42.390717
24	0x41e4f0b7	28.617537
25	0x423ca8ea	47.164955
26	0x423bee1c	46.98253
27	0x4276a08c	61.656784
28	0x420f3316	35.79989
29	0x421c70b5	39.110065
30	0x421bc056	38.937828
31	0x421b4c2e	38.824394
32	0x42233155	40.798176
33	0x42435143	48.829357
34	0x421064bb	36.09837
35	0x42193001	38.29688
36	0x423e8ad7	47.635586
37	0x4207fd4a	33.997353
38	0x4219baa9	38.432285
39	0x424dac22	51.4181
40	0x4230001c	44.000107
41	0x423d8665	47.381245
42	0x422a871a	42.631935
43	0x42114bc7	36.324
44	0x420e4891	35.570866
45	0x4221c048	40.437775
46	0x41e4aada	28.583424
47	0x42119b48	36.40164
48	0x420ea400	35.660156
49	0x421345bb	36.818096
50	0x4233e9fa	44.978493
51	0x422a7eec	42.623947
52	0x42298b94	42.386307
53	0x42360f86	45.51516
54	0x42289e72	42.15473
55	0x421ea237	39.658413
56	0x4239673f	46.350826
57	0x4231801a	44.3751
58	0x4233c1b9	44.939182
59	0x4217860e	37.880913
60	0x426773a5	57.862934
61	0x422d6709	43.35062
62	0x42258b8e	41.386284
63	0x422219f8	40.52536
64	0x423583c7	45.37869
65	0x422346fa	40.819313
66	0x423a3f12	46.561592
67	0x426e42ad	59.565113
68	0x421f945d	39.894886
69	0x42408ef2	48.139595
70	0x4251a6ff	52.413082
71	0x420c18e7	35.02432
72	0x423b1e34	46.779495
73	0x42289d96	42.153893
74	0x42091ce7	34.278225

sequential_8/batch_normalization_9/batchnorm/mul f4 [8]
0	0x3e4bd4c5	0.19905384
1	0x3eb4a7d5	0.35284296
2	0x3ec6b3fd	0.38809195
3	0x3ee1c383	0.44094476
4	0x3fb69532	1.4264281
5	0x3f5fbd23	0.87397975
6	0x3f5f5a62	0.8724729
7	0x3ee8af07	0.45446035

sequential_8/dense_28/MatMul f4 [75, 8]
0	0x3d86ef4c	0.06588611
1	0xbd643968	-0.05571881
2	0xbc251633	-0.0100760935
3	0x3d55f246	0.052233003
4	0xbc0184bc	-0.0079051815
5	0xbd07ee86	-0.033186458
6	0xbdc0e4cc	-0.094186395
7	0x3e3ea9f7	0.18619524
8	0x3ade052b	0.0016938796
9	0xbc134b72	-0.0089901555
10	0x3deb458a	0.11487873
11	0xbd210d3a	-0.039319254
12	0xbcb0743d	-0.021539802
13	0x3c9b84b8	0.018984184
14	0xbc8591c1	-0.016304852
15	0x3de2e607	0.110790305
16	0xbd677a01	-0.056512836
17	0x3da14c91	0.07875932
18	0xbdd594ee	-0.10428797
19	0xbd94ffd6	-0.07275359
20	0xbb1b9cc3	-0.002374456
21	0xbc1596ea	-0.009130219
22	0x3d9b6eae	0.0758947
23	0xbdab2e6c	-0.08358464
24	0xbd902e45	-0.07040075
25	0xbda7fba3	-0.08202293
26	0x3df50307	0.11963468
27	0xbdb80636	-0.0898556
28	0x3cd51f50	0.026015908
29	0xbce5cd5b	-0.028052023
30	0xbb9ee53c	-0.004849104
31	0x3d9128d4	0.070878655
32	0xbcd3ab4e	-0.02583852
33	0x3d92c6b4	0.07166806
34	0xbd0df4e1	-0.034657363
35	0x3a81bb44	0.0009897728
36	0x3cc27fe4	0.023742624
37	0xbe1ea6f6	-0.15493378
38	0x3e335b92	0.175154
39	0xbdad9eae	-0.084775314
40	0x3c93006c	0.017944537
41	0x3d0261f8	0.03183171
42	0xbd89464b	-0.067028604
43	0xbe45a1ce	-0.19300005
44	0x3da55379	0.08072562
45	0xbce3870f	-0.027774362
46	0x3d3f03a7	0.046634343
47	0xbd0c90e1	-0.034317855
48	0x3cc84702	0.024447922
49	0xbc7617cc	-0.015020322
50	0xbe27646d	-0.16346903
51	0x3dd021e6	0.101627156
52	0x3d0d1b9d	0.034450162
53	0xbde7745e	-0.11301492
54	0x3d0189c2	0.031625517
55	0xbb653e1a	-0.0034979642
56	0xbd4ea416	-0.050449453
57	0x3e5c7eb3	0.21532707
58	0xbcff6f56	-0.031181019
59	0xbd12e874	-0.035866216
60	0x3ceeaca2	0.029135052
61	0x3d06d2eb	0.03291599
62	0x3af10dfe	0.0018391011
63	0xbd574ecb	-0.052565377
64	0x3cb4eea1	0.022086443
65	0x3df5e642	0.12006809
66	0xbd2bebb2	-0.041972823
67	0xbcb12545	-0.021624217
68	0x3cd12ab7	0.025533063
69	0xbd7bd3a4	-0.061481133
70	0x3d302419	0.043003175
71	0x3c3339fe	0.010939119
72	0xbdb32493	-0.0874721
73	0x3e623225	0.22089441
74	0xbda1f499	-0.079079814
75	0x3c32aab0	0.010904953
76	0x3d04eb0d	0.032450724
77	0xbd7e97a2	-0.062156327
78	0xbce007a7	-0.027347399
79	0x3cce42dc	0.025178365
80	0xbd26d2e0	-0.04072845
81	0x3de251e4	0.11050776
82	0xbdda74d7	-0.10666817
83	0x3d44ec52	0.048076935
84	0x3e0c6fd6	0.13714537
85	0xbdd96b8a	-0.106162146
86	0xbc641662	-0.013921352
87	0xbd09037e	-0.033450596
88	0xbd03666b	-0.032080095
89	0x3dce00bc	0.10058734
90	0xbe17ed79	-0.14836682
91	0x3d45fc5f	0.048336383
92	0xbbb8f077	-0.0056439
93	0x3dd46ee4	0.10372713
94	0x3b8ca497	0.0042920816
95	0xbe18acbb	-0.14909641
96	0x3d90b9ee	0.07066713
97	0xbc0ed74d	-0.008718324
98	0x3dc9fde8	0.09862882
99	0xbd0b00ca	-0.0339363
100	0xbc782271	-0.01514493
101	0x3cc1bc53	0.02364937
102	0xbd629523	-0.05531801
103	0xbdb3081b	-0.0874178
104	0xbdbb7b88	-0.09154421
105	0x3e67e95c	0.22647613
106	0xbc75ba42	-0.014998021
107	0xbc0379b1	-0.008024619
108	0xbd5a7996	-0.05333861
109	0x3d1400ed	0.036133695
110	0xbcac3722	-0.021022383
111	0xbc3629c1	-0.011118353
112	0x3e4ccad6	0.19999251
113	0xbd9c75c3	-0.07639649
114	0xbc25c348	-0.010117359
115	0xbc386d3a	-0.01125651
116	0xbb6b6413	-0.0035917803
117	0xbc5f8ac2	-0.013643922
118	0xbd12baaf	-0.035822567
119	0xbc0bf9ec	-0.008543473
120	0x3e54f976	0.20798287
121	0xbdbcb86a	-0.09214862
122	0xbd70e533	-0.05881233
123	0x3d278e13	0.040906977
124	0xbb5d0952	-0.003372748
125	0xbcbe4c47	-0.023229731
126	0xbd094676	-0.033514462
127	0xbc178e15	-0.009250184
128	0xbd5d0d5e	-0.053967826
129	0xbd7248d9	-0.059151504
130	0x3d9376fe	0.0720043
131	0x3ce164d3	0.027513897
132	0x3d7564ac	0.05991046
133	0xbddeb2ba	-0.10873933
134	0xbd9b61ff	-0.07587051
135	0x3bfa98a8	0.0076475926
136	0x3d4d0fb9	0.050063822
137	0xbd82ce7e	-0.063870415
138	0xbd0dc535	-0.0346119
139	0xbdba1701	-0.09086419
140	0x3d0c4453	0.034244847
141	0xbcaea696	-0.021319669
142	0x3d2674dc	0.04063879
143	0x3dcea9cc	0.1009098
144	0xbba2d7cc	-0.0049695726
145	0x3c27ae0c	0.010234367
146	0xbc417ed0	-0.01181002
147	0xbe2e7919	-0.17038383
148	0xb94980d2	-0.00019216843
149	0x3d245607	0.040121105
150	0xbd4726d0	-0.048621
151	0x3dc74ac5	0.09731058
152	0x3bc24c4d	0.005929506
153	0xbbd1837a	-0.006393847
154	0x3c0375f6	0.00802373
155	0xbdfb04eb	-0.122567974
156	0x3d7a735b	0.061145168
157	0x3e076cd5	0.1322511
158	0xbd8f2968	-0.069903195
159	0xbd97f38d	-0.074195005
160	0x3d4c7058	0.049911827
161	0xbd173c4f	-0.03692275
162	0x3c25d30a	0.010121116
163	0x3ca97b08	0.020688549
164	0x3df0d736	0.11759798
165	0xbd4d2317	-0.050082292
166	0xbe0afec1	-0.13573743
167	0xbd499627	-0.049215462
168	0xbc651712	-0.013982551
169	0xbb642724	-0.0034813369
170	0xbbde6687	-0.0067871246
171	0xbd54f5ca	-0.051992215
172	0x3ccc4ca9	0.024938898
173	0x3da903ac	0.082526535
174	0xbb09bbc6	-0.0021016463
175	0xbe22fad5	-0.15915997
176	0xbe0b8acd	-0.13627167
177	0x3dce8b56	0.1008517
178	0xbddd221f	-0.10797524
179	0x3d75038f	0.059817847
180	0x3c89a268	0.016801074
181	0xbd7283c6	-0.0592077
182	0xbc67a83b	-0.01413923
183	0x3d0615c3	0.032735597
184	0x3cf57a4d	0.029965544
185	0xbd0ae01d	-0.033905137
186	0x3e061837	0.13095175
187	0xbca1d925	-0.019756863
188	0xbe19c2ce	-0.15015718
189	0x3e10627c	0.14100069
190	0xbcca107b	-0.024666062
191	0xbb7e6e28	-0.0038822982
192	0xbd0b7dbf	-0.034055468
193	0xbcc80ff4	-0.02442167
194	0x3d4dc984	0.05024101
195	0x3c04ffb2	0.008117603
196	0xbd5d8970	-0.05408615
197	0xbc346c22	-0.011012109
198	0xbc10907b	-0.008823509
199	0xbdd2a688	-0.102856696
200	0x3d89f62a	0.06736405
201	0xbdb8f56c	-0.090311855
202	0x3d84c23c	0.0648236
203	0xbd2a19bb	-0.041528445
204	0x3db08d43	0.086206935
205	0x3d92c5b3	0.071666144
206	0xbe18f2c0	-0.14936352
207	0xbd40dfc2	-0.047088392
208	0x3e625716	0.22103533
209	0xbdd1ebc4	-0.10250047
210	0x3b2f0901	0.0026708248
211	0x3d02b41a	0.03191004
212	0xbd9756c8	-0.07389599
213	0xbc367590	-0.0111364275
214	0x3dde2394	0.1084663
215	0xbdbed788	-0.09318453
216	0xbc388164	-0.011261318
217	0x3d07aa65	0.033121485
218	0xbc41d4ef	-0.0118305525
219	0xbc85fbc4	-0.016355403
220	0x3df23cfc	0.11828038
221	0x3e019649	0.12654985
222	0xbe7de521	-0.24794437
223	0x3d5806e3	0.052740943
224	0xbd25157f	-0.040303703
225	0x3d8544f2	0.06507291
226	0x3cd4e8f2	0.025989983
227	0xbd7da106	-0.061921142
228	0x3e00c756	0.1257604
229	0x3d7043a4	0.058658257
230	0x3c114009	0.008865365
231	0xbd855509	-0.0651036
232	0x3d57f6f6	0.052725755
233	0x3d8e6b39	0.06954045
234	0x3d561063	0.05226172
235	0xbdc00fa9	-0.09377987
236	0xbdb646c8	-0.08900219
237	0x3d167f6b	0.03674261
238	0xbd009f3c	-0.031401858
239	0x3d88fb27	0.066885285
240	0xbdab7882	-0.083725944
241	0xbdb672ca	-0.08908613
242	0x3dfb3b5f	0.122671835
243	0x3bab2ecd	0.005224085
244	0x3bd8b713	0.006613621
245	0xbe09f4f1	-0.13472344
246	0x3cfdab1f	0.030965386
247	0x3daabb14	0.083364636
248	0x3d17616b	0.03695814
249	0xbd9b0723	-0.075697206
250	0xba1c70c9	-0.0005967734
251	0xbd2aaaff	-0.04166698
252	0xbbff3fb4	-0.0077895764
253	0x3df2c9fe	0.11854933
254	0x3d51b868	0.051201254
255	0xbe193095	-0.14959939

sequential_8/dense_29/MatMul f4 [150, 75]
0	0x3e48d89e	0.19613883
1	0x3e066704	0.13125235
2	0x3c48311e	0.012218742
3	0x3e03fad3	0.1288865
4	0xbd19d002	-0.037551887
5	0xbd174042	-0.036926515
6	0x3d9fa473	0.07795038
7	0xbdd20b9a	-0.10256119
8	0x3bb3a69c	0.005482508
9	0xbd9cba80	-0.076527596
10	0xbd54cd19	-0.05195341
11	0xbcdb0fc9	-0.026740925
12	0xbd700325	-0.05859675
13	0xbd9b430c	-0.075811476
14	0x3d19b0d1	0.03752214
15	0x3d58a8ff	0.052895542
16	0x3b399160	0.002831541
17	0x3e11de14	0.14244872
18	0x3df5090a	0.11964615
19	0xbd327225	-0.043565888
20	0xbda0eb1a	-0.07857342
21	0x3c01e0e5	0.007927154
22	0x3d80d2a0	0.062901735
23	0xbb5c5907	-0.00336224
24	0x3d1a1fc7	0.03762796
25	0xbd5af4ff	-0.053456303
26	0x3c9ce777	0.01915334
27	0xbd06c0ff	-0.0328989
28	0xbd80a0bb	-0.06280657
29	0x3c987fdb	0.018615654
30	0x3df2e179	0.11859412
31	0x3d1e46be	0.038641684
32	0x3d0c61d5	0.034272987
33	0xbda771a2	-0.081759706
34	0x3bd0aeac	0.0063684788
35	0xbd893ddf	-0.06701254
36	0xbc94e002	-0.018173221
37	0xbcfbf417	-0.03075604
38	0x3d039a9f	0.03212988
39	0xbca19ebd	-0.019729013
40	0xbc9c2829	-0.019062119
41	0x3b813d4b	0.0039440743
42	0x3c16db3a	0.009207541
43	0x3db0b500	0.08628273
44	0x3e27a195	0.16370232
45	0x3d1803ab	0.037112873
46	0x3de2e400	0.11078644
47	0xbd587d92	-0.05285413
48	0x3d9bf130	0.07614362
49	0x3cb5bd92	0.02218512
50	0xbd2c588d	-0.042076636
51	0x3d771a72	0.060327955
52	0x3cb674b6	0.022272449
53	0x3c249bea	0.010046938
54	0xbda27154	-0.07931772
55	0x3c81188e	0.015758779
56	0xbd53a184	-0.051667705
57	0xbc782ffe	-0.015148161
58	0xbd970295	-0.07373539
59	0xbcac710a	-0.021049995
60	0x3d09bcb5	0.03362723
61	0x3d354a6d	0.04426043
62	0x3cf8c0b1	0.03036532
63	0xbd51b492	-0.051197596
64	0x3d612d33	0.054974746
65	0x3c155462	0.009114357
66	0x3ca48795	0.020084182
67	0xbd05bf83	-0.032653343
68	0x3e140687	0.14455615
69	0x3d32fdd0	0.043699086
70	0xbd9244e0	-0.07142043
71	0x3d0e0f3f	0.03468251
72	0x3c9a010f	0.018799333
73	0xbd9aeba6	-0.075644776
74	0xbcbac8a4	-0.022800751
75	0xbcb9dea1	-0.022689166
76	0x3cdb2aa6	0.026753735
77	0xbc91f032	-0.01781473
78	0xbc29da32	-0.010366963
79	0x3cabca43	0.02097047
80	0xbbc13ccb	-0.0058971397
81	0xbc8f3a12	-0.017483745
82	0xbd145d34	-0.036221698
83	0xb92a122d	-0.00016219234
84	0x3b7e0a3b	0.0038763422
85	0x3d03ab1b	0.0321456
86	0xbcffbcfe	-0.031218048
87	0xbd176489	-0.036961112
88	0xbce4f59a	-0.027949143
89	0xbd419b30	-0.04726714
90	0xbcdb38f7	-0.026760561
91	0xbc6c7600	-0.01443243
92	0xbb9ba2e6	-0.0047496436
93	0xbc0fe1f7	-0.008781902
94	0x3c2fa03f	0.010719358
95	0xbd20896b	-0.039193552
96	0x3b25b825	0.002528676
97	0x3cb97c47	0.022642268
98	0xbc324a55	-0.01088198
99	0xbc4258de	-0.011862008
100	0xbc5c9410	-0.013463035
101	0xbcb92112	-0.022598777
102	0x3cb2bfa9	0.021819906
103	0x3d309aee	0.043116502
104	0xbce08fe0	-0.027412355
105	0xbc0531c0	-0.008129537
106	0xbd1473e9	-0.036243353
107	0x3cd39beb	0.025831183
108	0xbc71ac0b	-0.014750491
109	0xbd0a53bd	-0.033771265
110	0x3ca2417e	0.01980662
111	0xbd918fcb	-0.071075045
112	0x3c96e59a	0.01842003
113	0xbd5d9f47	-0.054106977
114	0xbcc96028	-0.024581984
115	0x3ca290b5	0.019844392
116	0xbc96db22	-0.018415038
117	0xbc766514	-0.015038747
118	0xbcfc8dc8	-0.030829325
119	0x3b951750	0.004549898
120	0xbc2c898c	-0.010530841
121	0xbcc763c5	-0.024339566
122	0xbc226e8c	-0.009914052
123	0x3cb08249	0.0215465
124	0xbd0cdf09	-0.03439239
125	0xbce3c9d0	-0.027806193
126	0xbca0092c	-0.019535623
127	0x3c88aefd	0.016685003
128	0xbcbb9b13	-0.022901094
129	0x3d1f8997	0.038949575
130	0xbccf95c8	-0.025339976
131	0x3ca7b107	0.020470155
132	0xbcba3f5f	-0.022735296
133	0xbd8d2ec6	-0.06893687
134	0x3c4275d0	0.011868909
135	0xbbc75999	-0.006083679
136	0x3d91b367	0.071142964
137	0xbc89439e	-0.016755875
138	0xbcfaaf68	-0.030601218
139	0xbce7d4ef	-0.028299777
140	0x3b323150	0.0027190037
141	0xbd1a0923	-0.03760637
142	0xbc94ab44	-0.018148072
143	0x3ac110e8	0.001472977
144	0xbc1e7025	-0.009670292
145	0xbc9ca65d	-0.019122297
146	0xbce74db4	-0.028235294
147	0xbd207ef9	-0.03918359
148	0xbd73b25d	-0.059496272
149	0x3caf47c2	0.021396521
150	0x3dd83eec	0.105588764
151	0x3d598f1f	0.053115007
152	0xbd3e12b8	-0.04640457
153	0xbd240b73	-0.04004998
154	0xbcf56ee9	-0.029960113
155	0xbd0b301b	-0.033981424
156	0xbd28f795	-0.041251738
157	0x3b0f8307	0.0021898167
158	0x3d754cc7	0.059887674
159	0xbda446e5	-0.080213346
160	0xbcad939c	-0.02118855
161	0xbda436b5	-0.08018247
162	0xbb0245c5	-0.0019878012
163	0xbd2a8c2f	-0.041637596
164	0xba88a763	-0.0010425862
165	0xbc6d1119	-0.014469408
166	0xbd82b50f	-0.063821904
167	0xbd059d4a	-0.032620706
168	0xbd98dd15	-0.07464043
169	0xbcb36727	-0.021899773
170	0xbd0f5870	-0.03499645
171	0xbb7ef05e	-0.0038900594
172	0xbd63abec	-0.05558388
173	0xbbad9377	-0.00529712
174	0xbd16d7ed	-0.036827017
175	0xbc709336	-0.014683535
176	0x3d190fde	0.037368648
177	0x3dd11649	0.10209329
178	0x3dbaf122	0.09128024
179	0x3d23a68c	0.039953753
180	0xbd2c31e1	-0.042039756
181	0xbcaf8b5f	-0.021428762
182	0x3e0c1b25	0.1368223
183	0xbd236418	-0.03989038
184	0x3c3b3fdb	0.011428799
185	0xbd290942	-0.041268595
186	0x3c49a211	0.012306706
187	0x3d97a58c	0.074046224
188	0x3c684853	0.0141774
189	0x3d0e6481	0.034763817
190	0x3d983f1e	0.07433914
191	0xbd88d37b	-0.06680962
192	0xbd509bcd	-0.050929833
193	0xbc1ac056	-0.0094452705
194	0x3d40b15f	0.047044154
195	0x3d0defa2	0.03465236
196	0xbd4ed82b	-0.050499123
197	0xbcdaa9e4	-0.026692338
198	0xbd852dec	-0.065028995
199	0xbd35e278	-0.04440543
200	0x3c380793	0.011232275
201	0xbc83099d	-0.015995795
202	0x3caf9966	0.02143545
203	0x3cd06868	0.02544041
204	0x3d39cfd3	0.045364212
205	0xbd8f7aff	-0.070058815
206	0x3db54b78	0.08852285
207	0x3d96abb2	0.07356967
208	0x3c9af2ce	0.018914606
209	0x3dc3eac3	0.095662616
210	0x3e0d9e3b	0.13829891
211	0xbd5d3a16	-0.054010473
212	0x3a91003e	0.0011062694
213	0xbda20484	-0.079110175
214	0xbd12bcf5	-0.035824735
215	0xbce82ca4	-0.028341599
216	0x3d366dcf	0.044538315
217	0x3d842fff	0.06454467
218	0xbd4f87a1	-0.050666455
219	0x3cb39d10	0.02192548
220	0x3c462f9d	0.012096313
221	0xbd55e8e8	-0.05222407
222	0x3cbc3f9f	0.022979556
223	0x3aff0b1b	0.0019458266
224	0xbd9f56f6	-0.07780258
225	0x3a809a18	0.0009811549
226	0x3d0c1bfe	0.034206383
227	0x3c987787	0.018611683
228	0x3c571930	0.013128564
229	0xbd85141f	-0.064979784
230	0x3cbf1f14	0.023330249
231	0x3d406db4	0.04697962
232	0xbd914f38	-0.07095188
233	0xbcf748b3	-0.030186033
234	0xbd04b215	-0.032396395
235	0xbd361af9	-0.044459317
236	0x3d47d539	0.04878733
237	0xbd4c1dca	-0.049833097
238	0xbdcd70c9	-0.10031278
239	0xbd99d97f	-0.07512187
240	0xbd8aa2cb	-0.067693315
241	0xbca83863	-0.0205347
242	0x3d40e1cd	0.04709034
243	0x3c0cafdd	0.008586851
244	0x3cd234c4	0.025659926
245	0xbd7a1fc4	-0.06106545
246	0xbbf10596	-0.007355402
247	0x3cfeb8c0	0.031093955
248	0x3d2b2d1e	0.041791074
249	0xbc2f0d45	-0.010684316
250	0xbceaf547	-0.02868141
251	0xbc0317ed	-0.00800131
252	0xbe07cf04	-0.13262564
253	0xbd5f1f4a	-0.0544732
254	0xbccce309	-0.025010603
255	0x3c10c690	0.0088364035

sequential_8/dense_30/MatMul f4 [91, 150]
0	0xb9528b75	-0.00020079112
1	0xbacf2998	-0.0015805243
2	0xbb380735	-0.0028080468
3	0xbb0b0cbc	-0.0021217307
4	0xbad93c78	-0.0016573807
5	0xbb42ebb8	-0.002974255
6	0xbb19d0af	-0.0023470332
7	0xba75086a	-0.0009347262
8	0xbb00d3e7	-0.0019657554
9	0xbaaeda96	-0.001334029
10	0xb8988cb8	-7.274136e-05
11	0x3a223e84	0.0006189125
12	0xbaddb4d7	-0.0016914856
13	0xba92299c	-0.0011151317
14	0xbae06146	-0.0017118833
15	0xba88f21d	-0.0010448132
16	0xbaf3005c	-0.0018539536
17	0xbaa9de2d	-0.001295989
18	0xbb2da5ef	-0.002649661
19	0xbab2f921	-0.0013654568
20	0xb940e9d1	-0.0001839765
21	0xbb316cff	-0.0027073023
22	0xbb256592	-0.0025237543
23	0xb9bb0837	-0.0003567354
24	0xb9cfc1a8	-0.00039626402
25	0xba70a2cb	-0.00091795315
26	0xbae1290f	-0.0017178374
27	0xbb23444c	-0.0024912534
28	0xbb08cb8f	-0.0020873284
29	0xbab4a050	-0.0013780687
30	0xbad27268	-0.0016055824
31	0xbb3232f1	-0.0027191008
32	0xba6b631f	-0.0008979309
33	0xba1648a5	-0.0005732871
34	0xba8995b3	-0.0010496884
35	0xbb13ca9d	-0.0022551187
36	0xba653dd2	-0.00087448687
37	0xbb5f33a2	-0.0034057875
38	0xbaa05a94	-0.0012234026
39	0xba75c2cf	-0.0009375037
40	0xbb1981d3	-0.0023423329
41	0xb933c8fa	-0.0001714564
42	0xbba20db8	-0.004945483
43	0xbb717ff2	-0.0036849943
44	0xbab23de5	-0.0013598768
45	0xbad65696	-0.0016352709
46	0xbb30b9ef	-0.0026966294
47	0xbaa24644	-0.001238056
48	0xb9323539	-0.0001699523
49	0xb980c961	-0.00024564101
50	0xbaa6a016	-0.0012712504
51	0xba72c588	-0.0009261002
52	0xba8fa575	-0.0010959344
53	0xbb22bdf9	-0.002483247
54	0xbb6bcac8	-0.0035979021
55	0xbb92025e	-0.0044558486
56	0x3719ab67	9.159418e-06
57	0xbaac389e	-0.0013139432
58	0xba5c3663	-0.0008400438
59	0xbaff3650	-0.0019471142
60	0xbac4d2ea	-0.001501647
61	0xb9b60a13	-0.0003472125
62	0xba885267	-0.0010400534
63	0xbb9eef92	-0.0048503364
64	0xbaa36577	-0.0012466152
65	0xbb8b6237	-0.0042536515
66	0xba09f225	-0.00052622176
67	0xba9cd302	-0.0011964741
68	0xbb842b21	-0.0040334617
69	0xba900790	-0.0010988582
70	0xbae814c7	-0.0017706387
71	0xbb640d6e	-0.0034798044
72	0xbafaa1d8	-0.001912172
73	0xb98129b4	-0.0002463587
74	0xbb26e6a2	-0.0025467058
75	0xba8faeb9	-0.0010962106
76	0x38e2c492	0.00010813134
77	0xba29799b	-0.0006464959
78	0xba4f1e7a	-0.00079009647
79	0xbb459439	-0.0030148162
80	0xbb00d998	-0.0019660946
81	0xbabcb789	-0.001439796
82	0xbaa9fb62	-0.0012968595
83	0xba69c021	-0.0008916874
84	0xbae4ee4d	-0.0017466039
85	0x39cda6b8	0.00039224862
86	0xbabedd82	-0.0014561864
87	0xbacf013b	-0.0015793213
88	0xba602a50	-0.0008551227
89	0xb9f2ce07	-0.0004631134
90	0xbb54696d	-0.0032411471
91	0xbb35831f	-0.0027696562
92	0xbb0c5c05	-0.0021417153
93	0xbb4e2430	-0.0031454675
94	0xbb218c36	-0.0024650223
95	0xbad833cd	-0.001649493
96	0xbad6258d	-0.0016338095
97	0xbb1935ff	-0.0023378131
98	0xba3f341b	-0.0007293836
99	0xbb2aec11	-0.0026080648
100	0xbb0b97a2	-0.0021300097
101	0xbae15408	-0.0017191181
102	0xbb2816c2	-0.002564833
103	0xb989bc70	-0.00026271073
104	0xb9cde748	-0.00039272965
105	0xb8afd3b2	-8.3840816e-05
106	0xb988d8d4	-0.0002610149
107	0xbbe440b6	-0.006965722
108	0xbb5dceb0	-0.003384512
109	0xbb20ae7e	-0.0024518068
110	0x3959e9ea	0.00020781872
111	0xbb005232	-0.0019580242
112	0xbb2504ae	-0.0025179791
113	0xba5b95cb	-0.0008376508
114	0xbb499ec3	-0.0030764795
115	0xb9db8412	-0.00041869335
116	0xba74fed5	-0.0009345834
117	0xba965f0e	-0.001147242
118	0xbae68b4c	-0.0017589121
119	0xbb42ce80	-0.0029725134
120	0xbaeb6f71	-0.0017962289
121	0xbb0e85d3	-0.0021747246
122	0xbb8bcfc2	-0.00426671
123	0xbb58d1d0	-0.0033084042
124	0xba7e0ecb	-0.00096915354
125	0xbb3a82fa	-0.0028459416
126	0xba9ef7ab	-0.0012128254
127	0xbaa8e1fa	-0.0012884729
128	0xbb44e506	-0.0030043735
129	0xbadbc509	-0.0016767095
130	0xbba2340c	-0.004950052
131	0xbbbaf6bc	-0.0057056826
132	0x39eacf46	0.0004478639
133	0xbaf1170c	-0.0018393709
134	0xbb378122	-0.0028000553
135	0xba8f2b3f	-0.0010922923
136	0xbb213e2b	-0.0024603705
137	0xbb118333	-0.0022203445
138	0xbb2b1fb8	-0.0026111435
139	0xba4dc419	-0.000784935
140	0xbb370dd5	-0.0027931829
141	0x3774cbfc	1.4591027e-05
142	0xba9bc664	-0.0011884687
143	0xbac22096	-0.0014810737
144	0xbaea8eec	-0.0017895377
145	0xba9116a3	-0.0011069368
146	0xba13ae50	-0.00056335796
147	0xbb33720c	-0.002738121
148	0xb97b248b	-0.00023950839
149	0xbb356b31	-0.00276823
150	0xb958fe46	-0.0002069409
151	0xbad5f4e6	-0.0016323596
152	0xbb3dbda4	-0.0028952146
153	0xbb0fa9e2	-0.0021921326
154	0xbae08c54	-0.0017131665
155	0xbb494fab	-0.0030717652
156	0xbb1eb9cf	-0.0024219637
157	0xba7c71a4	-0.0009629971
158	0xbb052da6	-0.0020321398
159	0xbab48705	-0.0013773149
160	0xb89ce457	-7.481191e-05
161	0x3a2616ac	0.0006335776
162	0xbae52986	-0.0017483688
163	0xba97378d	-0.0011536941
164	0xbae85e04	-0.0017728214
165	0xba8d7bfd	-0.0010794398
166	0xbafab3b3	-0.0019127041
167	0xbaaf1fbe	-0.00133609
168	0xbb33735e	-0.0027381997
169	0xbab8a97b	-0.0014088595
170	0xb94816d9	-0.00019081998
171	0xbb3793da	-0.002801171
172	0xbb2a9d01	-0.0026033523
173	0xb9c160a2	-0.00036883826
174	0xb9d9993d	-0.00041503637
175	0xba784f03	-0.0009472223
176	0xbae86b88	-0.0017732242
177	0xbb289877	-0.0025725642
178	0xbb0d0b9b	-0.002152181
179	0xbabaf447	-0.0014263474
180	0xbad9881d	-0.0016596351
181	0xbb382d51	-0.0028103183
182	0xba72ae13	-0.00092575065
183	0xba1b7db9	-0.0005931515
184	0xba8e1607	-0.0010840305
185	0xbb18ee65	-0.0023335454
186	0xba6d57ec	-0.0009053934
187	0xbb65e876	-0.0035081184
188	0xbaa5676f	-0.0012619327
189	0xba7e4df3	-0.00097009464
190	0xbb1e68a1	-0.002417125
191	0xb9398fd1	-0.0001769655
192	0xbba79243	-0.0051138713
193	0xbb79186d	-0.0038008944
194	0xbab7e501	-0.001403004
195	0xbadceb43	-0.0016854781
196	0xbb362792	-0.0027794582
197	0xbaa7ade0	-0.0012792908
198	0xb93a865a	-0.00017788392
199	0xb9851cbf	-0.00025389154
200	0xbaac7103	-0.0013156239
201	0xba7aac08	-0.0009562378
202	0xba94ac59	-0.0011342868
203	0xbb2812fe	-0.0025646086
204	0xbb732137	-0.0037098655
205	0xbb968e74	-0.0045946185
206	0x371d8aaf	9.390219e-06
207	0xbab17b1b	-0.0013540717
208	0xba6305ae	-0.0008660209
209	0xbb03ffb0	-0.0020141415
210	0xbacbfbfe	-0.001556277
211	0xb9bca984	-0.00035984453
212	0xba8c5021	-0.0010705033
213	0xbba3fbdb	-0.0050043887
214	0xbaa95e13	-0.0012921713
215	0xbb8ffb6a	-0.0043939846
216	0xba0e887f	-0.00054372096
217	0xbaa2482a	-0.0012381126
218	0xbb886071	-0.0041618873
219	0xba94fa4f	-0.0011366102
220	0xbaef7c62	-0.0018271322
221	0xbb6b35d4	-0.0035890238
222	0xbb017f2e	-0.0019759643
223	0xb98548fb	-0.00025422112
224	0xbb2c737b	-0.002631395
225	0xba94ff47	-0.0011367582
226	0x38e76976	0.00011034582
227	0xba2f62c3	-0.0006690437
228	0xba56395c	-0.00081719994
229	0xbb4c1f6f	-0.0031146666
230	0xbb04bd96	-0.0020254604
231	0xbac2ee7e	-0.0014872102
232	0xbab00de2	-0.0013431872
233	0xba719a53	-0.00092164165
234	0xbaec844c	-0.0018044799
235	0x39d2e6dd	0.00040226328
236	0xbac4c407	-0.0015012034
237	0xbad544fd	-0.001627117
238	0xba670977	-0.0008813361
239	0xb9fd45f7	-0.00048308048
240	0xbb5b74f6	-0.0033486462
241	0xbb3b2113	-0.002855365
242	0xbb10bf49	-0.002208667
243	0xbb54dd4c	-0.0032480536
244	0xbb26805c	-0.0025406098
245	0xbadf81da	-0.0017052249
246	0xbadd7c02	-0.0016897919
247	0xbb1e8c95	-0.002419268
248	0xba467b88	-0.0007571508
249	0xbb30864d	-0.0026935518
250	0xbb0fa963	-0.002192103
251	0xbae8ec88	-0.0017770687
252	0xbb2da587	-0.0026496367
253	0xb98f75fa	-0.00027362985
254	0xb9d4b463	-0.0004057019
255	0xb8b8d5c6	-8.813622e-05
