app/src/main/assets/model_0624_cla_good.tflite (tflite, 106260 bytes, 13 tensors)

sequential_4/dense_20/MatMul;sequential_4/dense_20/BiasAdd f4 [128]
0	0xbef99f6c	-0.48754442
1	0xbe95e66d	-0.29277363
2	0xbea0c029	-0.31396607
3	0x3ed9bced	0.4252695
4	0xbfb5089c	-1.4143252
5	0xbdf3ab68	-0.118979275
6	0x3f0cd656	0.5501455
7	0xc000643b	-2.0061176
8	0xbf8678e4	-1.0505643
9	0x3f14bdf6	0.5810236
10	0xbf0cd3d5	-0.5501073
11	0xbe530591	-0.20607592
12	0xbe048427	-0.12941037
13	0xbebe4cad	-0.37167874
14	0xbee8a5d9	-0.45439032
15	0xbefa3d72	-0.48875004
16	0xbfcf6f2a	-1.62058
17	0x3f0487e6	0.51769865
18	0x3f0d31b9	0.55153996
19	0x3ee51336	0.4474122
20	0x3eb1ba48	0.34712434
21	0xbe83a091	-0.2570844
22	0x3f1c0610	0.6094675
23	0xbec805a1	-0.39066795
24	0xbe736073	-0.23767261
25	0x3cf08f66	0.029365253
26	0x3f2d5920	0.6771412
27	0xbf2f2476	-0.6841501
28	0xbf93b7a3	-1.1540416
29	0x3ea42aa7	0.3206379
30	0x3e9dd690	0.3082776
31	0x3eca9911	0.39569905
32	0xbf17e9d5	-0.59341174
33	0xbf72ddd8	-0.94869757
34	0x3da72ad2	0.08162464
35	0x3f1fcabd	0.6241873
36	0xbfac14e4	-1.3443875
37	0xbdb424d2	-0.087960854
38	0xbf8571f8	-1.0425406
39	0xbe106811	-0.14102198
40	0x3e43ccb3	0.19121055
41	0xbd8bb7d7	-0.06822174
42	0x3ef1736b	0.4715837
43	0xbf2d9d74	-0.6781838
44	0x3e8ecca0	0.2789049
45	0xbf5c6ae7	-0.8610062
46	0x3ef8ce1c	0.4859475
47	0x3fa4905c	1.2856555
48	0x3ecad7d9	0.39617804
49	0xbe8c38f1	-0.27387193
50	0x3f265049	0.64966255
51	0x3f51216e	0.81691635
52	0x3f03a1c8	0.51418734
53	0x3f6d806d	0.9277409
54	0xbf42ccde	-0.7609385
55	0xbf3161f6	-0.692901
56	0xbe4d2cb0	-0.20036578
57	0x3f470a37	0.7774996
58	0xbf9d4834	-1.228766
59	0xbfb7938c	-1.4341903
60	0xbea818b7	-0.32831356
61	0xbed90e59	-0.4239376
62	0x3f4eda90	0.8080225
63	0xbf3ed73f	-0.7454719
64	0xbf05d75e	-0.5228175
65	0xbf10ba53	-0.5653431
66	0x3e2f99f6	0.17148575
67	0x3f1572a1	0.58378035
68	0x3d356bbf	0.044292208
69	0x3f8ca2a8	1.0987139
70	0xbf1234d3	-0.57111853
71	0xbe8bf24f	-0.27333304
72	0x3f532814	0.8248303
73	0xbf40918e	-0.752221
74	0xbf46decb	-0.77683705
75	0xbf42e26f	-0.7612676
76	0x3f5e72d3	0.8689396
77	0xbfe6718f	-1.8003405
78	0x3e4e2bd8	0.20133913
79	0x3f363e2a	0.71188605
80	0x3f439550	0.7639971
81	0x3e81dd61	0.2536421
82	0xbf8474c4	-1.0348134
83	0xbd25b77a	-0.04045818
84	0x3d9fd240	0.07803774
85	0x3f9e89c2	1.238579
86	0x3f1d349a	0.6140839
87	0xbe42c267	-0.19019471
88	0x3e437375	0.19087012
89	0x3cc30d76	0.02381013
90	0xbf02bc81	-0.51068884
91	0x3e073b42	0.13206199
92	0x3dcd646f	0.10028922
93	0x3f1449dd	0.57925206
94	0xbebe5bd7	-0.37179443
95	0xbf645b17	-0.8920149
96	0x3ee84d44	0.4537145
97	0xbfa01b3c	-1.2508311
98	0x3f868e7f	1.0512236
99	0xbe675147	-0.22589599
100	0xbebf9c92	-0.3742414
101	0xbcd46eb5	-0.025931695
102	0xbcf4b516	-0.029871505
103	0xbf453da9	-0.7704721
104	0xbd06d15b	-0.0329145
105	0x3f2e6d2e	0.68135345
106	0xbd376efb	-0.044783574
107	0x3e8ebbea	0.27877742
108	0xbf6eed56	-0.93330896
109	0xbefca39c	-0.49343574
110	0xbe8e3f6e	-0.27782768
111	0xbc338e45	-0.010959213
112	0xbf924079	-1.1425925
113	0xbe90cd25	-0.28281513
114	0xbf32825c	-0.6973016
115	0xbedf8170	-0.4365344
116	0xbf5e2860	-0.8678036
117	0x3f0053d1	0.50127894
118	0xbf0c113f	-0.54713815
119	0xbe1ddbba	-0.1541585
120	0xbf81ad3f	-1.0130996
121	0xbf99ba3f	-1.2009963
122	0x3eaaea16	0.33381718
123	0xbeabf697	-0.3358657
124	0x3f6f4f35	0.93480235
125	0x3ec8d890	0.39227724
126	0xbc652891	-0.013986723
127	0xbecccd9f	-0.40000626

sequential_4/dense_18/MatMul;sequential_4/dense_18/BiasAdd f4 [48]
0	0xbf4d3b1a	-0.80168307
1	0xbfc107cc	-1.5080504
2	0xbfd93e0a	-1.6972058
3	0x3e72b0c3	0.23700242
4	0xbf4ef2fd	-0.8083952
5	0x401bc6f4	2.4340181
6	0x403f7bde	2.9919353
7	0x3ed0421e	0.40675443
8	0xbfb4b659	-1.4118148
9	0x3f1be7d8	0.6090064
10	0x3c051eb8	0.008125
11	0x3d3a4c21	0.04548276
12	0x3dc6c6e4	0.09705904
13	0x3d407788	0.046988994
14	0xbfaf4d9c	-1.369556
15	0xbeb90d45	-0.36142936
16	0xbf8f2eb0	-1.1186123
17	0xbf501110	-0.81276035
18	0xbfce8d81	-1.6136934
19	0x3d3ecbe4	0.046581164
20	0x3bbcc253	0.00576047
21	0xbf0cefcb	-0.55053395
22	0xbbbba4b0	-0.0057264194
23	0xbed6fa02	-0.41987616
24	0xbf95a8b6	-1.1692111
25	0x3ffcae0a	1.9740613
26	0x3f966d41	1.1752092
27	0x3f958cff	1.1683654
28	0xbfa1184e	-1.2585542
29	0xbe8e6d71	-0.27817872
30	0xbf8e38e2	-1.1111109
31	0xc020e17f	-2.5137632
32	0xbf857f97	-1.0429562
33	0x3fd9ae76	1.7006366
34	0xbf0d8ce2	-0.55293095
35	0xbfa39005	-1.2778326
36	0xc00dd7b3	-2.2162902
37	0x3ef0f078	0.47058463
38	0x3f4b8a6a	0.7950808
39	0x3fb5753a	1.41764
40	0xbf3620d8	-0.71143866
41	0x3effccea	0.49961025
42	0xbf56ccbe	-0.8390616
43	0xbef1ee10	-0.4725194
44	0x3e27247f	0.16322516
45	0x3d0e78a1	0.03478301
46	0x3f9d521d	1.2290684
47	0xbf143516	-0.578935

sequential_4/dense_17/MatMul;sequential_4/dense_17/BiasAdd f4 [16]
0	0x412ccd91	10.800187
1	0x3f49c40a	0.78814757
2	0xc1968fee	-18.820278
3	0x413148d9	11.080285
4	0xc01262dc	-2.287284
5	0x415629b5	13.385182
6	0x41344acd	11.268262
7	0x40b5daba	5.68295
8	0xc12e93b2	-10.911058
9	0xc00124b5	-2.0178654
10	0x4099c7d2	4.805642
11	0x403b7ba6	2.929422
12	0xc0cd76c4	-6.4207478
13	0xc0a1b76c	-5.0536404
14	0xc0ef0316	-7.4691267
15	0x40b8acb9	5.7710843

sequential_4/dense_19/BiasAdd/ReadVariableOp/resource f4 [64]
0	0xbe1102aa	-0.14161173
1	0xbde2b94f	-0.11070501
2	0xba5f90bf	-0.0008528344
3	0xbdbc4d7c	-0.091944665
4	0xbe61c71d	-0.22048612
5	0xbde24251	-0.11047805
6	0xbd89cc25	-0.067283906
7	0x3d0c60f3	0.034272145
8	0xbe8b3afe	-0.27193445
9	0xbe9e8f6a	-0.3096879
10	0xbe9b2458	-0.30301166
11	0xbec880c4	-0.3916074
12	0xbe91df09	-0.28490475
13	0xbe35288e	-0.17691252
14	0x3c20d763	0.009816977
15	0xbe642581	-0.22279932
16	0xbde5fc11	-0.112297185
17	0xbe6a4059	-0.22876109
18	0xbc936971	-0.017994614
19	0xbe93f98d	-0.2890133
20	0xbe22bc46	-0.15892133
21	0xbe80d1a9	-0.25159958
22	0xbd6d4eec	-0.057936594
23	0xbd85db04	-0.065359145
24	0xbdc02ff3	-0.093841456
25	0xbdf476f7	-0.11936753
26	0xbe83ed49	-0.25766972
27	0xbdae1cb6	-0.0850157
28	0xbe307d0a	-0.17235199
29	0xbdd5ecc2	-0.104455486
30	0xbe80eb7d	-0.25179663
31	0xbe8cd685	-0.27507415
32	0xbde3f775	-0.11131183
33	0xbe7b48e0	-0.24539518
34	0xbea6caa4	-0.32576478
35	0xbe40fe11	-0.18846919
36	0xbe5212ad	-0.20514937
37	0xbd94e82d	-0.072708465
38	0xbe906757	-0.28203842
39	0xbe8e3c77	-0.27780506
40	0xbe97e267	-0.2966492
41	0xbe198f19	-0.14995994
42	0xbe88d9de	-0.2672872
43	0xbcb6ba06	-0.0223055
44	0x3c513568	0.012769081
45	0xbd8a5bae	-0.06755768
46	0xbde3702b	-0.11105379
47	0xbea8a4f2	-0.32938343
48	0xbe8765d1	-0.26444867
49	0xbe8f69f7	-0.28010532
50	0xbed7955f	-0.4210615
51	0xbe18018c	-0.1484434
52	0xbe955113	-0.29163417
53	0xbdf6832b	-0.12036737
54	0xbea6104f	-0.32434317
55	0xbdd275c6	-0.1027637
56	0xbdd687c5	-0.10475115
57	0x3da622ef	0.08112132
58	0x3dfb12df	0.12259459
59	0xbe52d72c	-0.20589894
60	0x3bc802c9	0.0061038476
61	0xbe6b3407	-0.22969066
62	0x3db87f63	0.09008672
63	0xbe3a5cfb	-0.18199532

sequential_4/dense_21/BiasAdd/ReadVariableOp/resource f4 [101]
0	0xbdfd97ff	-0.123825066
1	0xbdfcbf56	-0.12341182
2	0xbdfeb99c	-0.12437746
3	0xbdfe8aeb	-0.1242884
4	0xbdfa3105	-0.12216381
5	0xbe012714	-0.12612563
6	0xbe007b7a	-0.12547103
7	0xbe019a20	-0.1265645
8	0xbdfd0e38	-0.12356228
9	0xbdfa7636	-0.12229578
10	0xbe001f05	-0.12511833
11	0xbe06c585	-0.13161285
12	0xbdf9db05	-0.12199978
13	0xbe04e522	-0.12978032
14	0xbdff166f	-0.12455451
15	0xbdf85844	-0.1212621
16	0xbd281f6d	-0.041045595
17	0xbdfe8aab	-0.124287926
18	0xbe00cad3	-0.12577371
19	0xbdffcabd	-0.12489841
20	0xbe1ab0c4	-0.15106493
21	0xbefe8e76	-0.49718064
22	0xbdfec22c	-0.12439379
23	0xbe8b5d9f	-0.27219865
24	0xbe02c262	-0.12769464
25	0xbdfdce99	-0.12392921
26	0xbd3027cb	-0.0430067
27	0xbdfd4dbf	-0.123683445
28	0xbdfc2799	-0.1231224
29	0x3dd7db3f	0.10539865
30	0x3e5b5ef5	0.21422942
31	0x3e3c8fdf	0.18414257
32	0xbdfd127b	-0.123570405
33	0x3e7ba68d	0.24575253
34	0x3d85e033	0.06536903
35	0x3e413884	0.18869215
36	0x3e8cc0e2	0.27490908
37	0xbe00b2a4	-0.12568146
38	0x3e5bf55d	0.21480317
39	0xbdab0896	-0.08351247
40	0xbe952f6e	-0.29137748
41	0x3e153da2	0.14574292
42	0xbe0022b3	-0.12513237
43	0x3db29459	0.08719701
44	0xbe00a1d0	-0.12561727
45	0x3d9536c6	0.07285838
46	0x3e922965	0.28547207
47	0xbdfcf11e	-0.12350677
48	0xbeba2d3e	-0.36362642
49	0x3b40fe38	0.0029448401
50	0xbdc7f6ea	-0.09763892
51	0x3e5802d3	0.21094827
52	0xbdfdf87c	-0.1240091
53	0x3d20539f	0.039142247
54	0x3e719632	0.23592451
55	0x3e8b6c1a	0.27230912
56	0x3e76b4a5	0.24092348
57	0xbdfa6c4d	-0.12227688
58	0xbbe7b4e0	-0.0070711225
59	0xbe1ad138	-0.15118873
60	0x3d6e0a64	0.058115378
61	0xbded3311	-0.11582006
62	0xbdfa9489	-0.12235362
63	0xbf2f4f26	-0.68480146
64	0xbdff07fb	-0.12452694
65	0xbe007fc2	-0.12548736
66	0xbe000e9c	-0.12505573
67	0xbe52e219	-0.20594062
68	0xbf00e85d	-0.5035456
69	0xbdfeb53d	-0.12436912
70	0x3e5fc3fc	0.21852106
71	0xbdfb8c86	-0.12282662
72	0xbdfddc6a	-0.12395556
73	0xbe02019b	-0.12695925
74	0xbdcda849	-0.100418635
75	0xbe0136be	-0.12618539
76	0xbe03aa33	-0.12857895
77	0xbdff8ae3	-0.124776624
78	0xbf284546	-0.657307
79	0xbdfcbb0b	-0.12340363
80	0xbdf51641	-0.11967135
81	0xbe00fee4	-0.12597233
82	0xbdfdf60c	-0.12400445
83	0xbdfd6f80	-0.123747826
84	0xbdf7a096	-0.12091176
85	0xbe6b4849	-0.22976793
86	0xbdfb0978	-0.122576654
87	0xbdfdb68b	-0.12388333
88	0xbdfe2495	-0.12409321
89	0xbe00c80f	-0.12576316
90	0xbdfde041	-0.12396289
91	0xbdf8a692	-0.12141146
92	0xbdfea2a8	-0.12433368
93	0xbdfec457	-0.124397926
94	0xbdfb1306	-0.12259488
95	0xbdf70082	-0.12060644
96	0xbdf9be2f	-0.12194478
97	0xbdfa5694	-0.12223545
98	0xbe012642	-0.1261225
99	0xbdf256d7	-0.1183297
100	0xbdfd97dd	-0.12382481

sequential_4/batch_normalization_14/batchnorm/mul f4 [7]
0	0x417a6089	15.648568
1	0x4176bf7c	15.421749
2	0x41e9b1d9	29.21184
3	0x41d1a0e4	26.20356
4	0x41fbe4f5	31.486795
5	0x41f6434c	30.78286
6	0x41f61b03	30.76319

sequential_4/batch_normalization_15/batchnorm/mul f4 [16]
0	0x40b2ecbb	5.591398
1	0x40dab18c	6.834173
2	0x409bf00d	4.873053
3	0x40c6a39e	6.207473
4	0x413f8d9d	11.972074
5	0x40af6872	5.4814997
6	0x4097ed2a	4.7477007
7	0x408413f0	4.127434
8	0x40aa4c49	5.321812
9	0x40876ada	4.2317934
10	0x40fb11f6	7.8459425
11	0x41858c38	16.693466
12	0x41148625	9.28275
13	0x40d951d1	6.7912374
14	0x416e8d60	14.909515
15	0x40f925e3	7.785875

sequential_4/batch_normalization_16/batchnorm/mul f4 [64]
0	0x3f90e185	1.1318823
1	0x3f3fe43e	0.74957645
2	0x3fb16a78	1.3860617
3	0x3f676011	0.9038096
4	0x3f3ad7cf	0.7298555
5	0x3f6525f4	0.89511037
6	0x3f52b160	0.823019
7	0x3f602377	0.87554115
8	0x3f66e372	0.90190804
9	0x3f852f83	1.0405124
10	0x3fb75c7f	1.4325103
11	0x3f58aec1	0.84641653
12	0x3fbf596e	1.4949167
13	0x3fb0e6a9	1.3820392
14	0x3f86360a	1.0485241
15	0x3f857f18	1.0429411
16	0x3f894289	1.072343
17	0x3f4515ff	0.7698669
18	0x3f991001	1.1958009
19	0x3f87c9cc	1.0608459
20	0x3f5b8999	0.8575683
21	0x3f85c2b3	1.0450042
22	0x3f643268	0.89139414
23	0x3f7b727c	0.98221564
24	0x3fad22bd	1.3526226
25	0x3fb00ef0	1.3754559
26	0x3f23e411	0.64019877
27	0x3f99935b	1.1998094
28	0x3f81c7cf	1.0139102
29	0x3f962ecd	1.1733032
30	0x3f8fbee6	1.1230133
31	0x3f40c812	0.75305283
32	0x3f9abeb4	1.2089448
33	0x3f8b68d3	1.0891365
34	0x3fa3ff5c	1.2812304
35	0x3f80e0ef	1.0068644
36	0x3f20bc5c	0.62787414
37	0x3f607fe8	0.8769517
38	0x3f4dbed8	0.8036933
39	0x3fa6f533	1.3043579
40	0x3f954939	1.1662971
41	0x3f79305b	0.9733941
42	0x3f97cb05	1.1858832
43	0x3fb34e57	1.4008282
44	0x3fb93aa5	1.4471022
45	0x3fb6d7bc	1.4284587
46	0x3f55aecc	0.83469844
47	0x3f51c352	0.8193866
48	0x3f7f9f27	0.9985222
49	0x3f536d77	0.82588905
50	0x3fb0279e	1.376209
51	0x3fad2191	1.3525869
52	0x3f690d04	0.91035485
53	0x3fdfdfc9	1.7490169
54	0x3f577735	0.8416627
55	0x3f6f1a3c	0.93399405
56	0x3f836f4c	1.026834
57	0x3fc3a31c	1.5284152
58	0x3f83cc3a	1.02967
59	0x3f451afc	0.769943
60	0x3f9ca3be	1.223747
61	0x3f8e4875	1.1115862
62	0x3f83e155	1.0303141
63	0x3f9dd476	1.2330463

sequential_4/dense_17/MatMul f4 [16, 7]
0	0x3e6e8f9c	0.2329697
1	0xbdd3f2cc	-0.10349044
2	0xbe9b8421	-0.30374244
3	0xbec58d00	-0.38584137
4	0xbe65858b	-0.22414224
5	0x3d4f27c9	0.05057505
6	0x3eb3b4f9	0.3509901
7	0xbe1dca7e	-0.15409276
8	0x3e9d6a6a	0.3074525
9	0x3c9b3291	0.01894501
10	0xbdb7c7d1	-0.08973659
11	0xbe766a73	-0.24064045
12	0xbdf867ea	-0.12129195
13	0x3eb2485b	0.34820828
14	0xbed68bb1	-0.4190345
15	0xbd9890b7	-0.07449477
16	0x3e78e56f	0.24306272
17	0x3dc076a5	0.0939763
18	0x3e220bd6	0.15824828
19	0x3e0a2442	0.13490394
20	0x3e9b1306	0.3028795
21	0xbe13c9bd	-0.14432426
22	0x3e0adfc7	0.13561927
23	0xba9597c7	-0.0011413031
24	0xbf472f40	-0.7780647
25	0x3db9cb2c	0.09071955
26	0x3e706f97	0.23480068
27	0xbcfd22e9	-0.030900436
28	0x3e5b138b	0.21394174
29	0xbe748dc0	-0.23882198
30	0x3df14970	0.11781585
31	0xbb66d4ea	-0.0035222122
32	0xbe1aa51d	-0.15102048
33	0xbdd67124	-0.104707986
34	0x3e73d777	0.23812662
35	0xbd584fc4	-0.052810445
36	0x3e0df629	0.13863434
37	0x3e341ab1	0.17588307
38	0xbed83ace	-0.42232364
39	0xbebea502	-0.37235266
40	0xbd7a755f	-0.06114709
41	0x3e0a9279	0.13532437
42	0x3db4f8d4	0.08836523
43	0xbea8dc48	-0.3298056
44	0xbe9d93ef	-0.30776927
45	0xbc918eb6	-0.017768245
46	0x3e402d20	0.18767214
47	0xbe43afa2	-0.19109967
48	0x3b17e6f1	0.0023178423
49	0x3e7c10da	0.24615803
50	0x3e8d553d	0.27604094
51	0x3c85759c	0.016291432
52	0x3d9baecc	0.07601699
53	0xbdc8c127	-0.09802466
54	0xbe7c4cbd	-0.24638648
55	0xbe358941	-0.1772814
56	0x3ebb0556	0.36527508
57	0xbe375647	-0.17904006
58	0x3dba3235	0.090916075
59	0x3ed5ea6f	0.4178042
60	0x3db50cd9	0.08840341
61	0xbd266147	-0.040620115
62	0xbe63966a	-0.22225347
63	0x3eb3ac0d	0.35092202
64	0x3ec6fd46	0.38865107
65	0xbdc45983	-0.095873855
66	0xbd956d7f	-0.07296275
67	0xbe31d417	-0.17366062
68	0xbca3df22	-0.020003859
69	0x3d87f85c	0.06639168
70	0xbddc03ce	-0.10742913
71	0x3e0886ca	0.13332668
72	0xbe67856f	-0.22609495
73	0xbda6bfe9	-0.08142073
74	0x3ef622e4	0.48073494
75	0xbea8cc01	-0.32968143
76	0xbd585397	-0.052814092
77	0x3cb4d453	0.0220739
78	0x3d8be13c	0.068300694
79	0xbe51e369	-0.20496906
80	0x3ecda702	0.4016648
81	0xbe164546	-0.14674863
82	0xbe77c950	-0.24197888
83	0x3da628ba	0.08113237
84	0xbab397f4	-0.0013701902
85	0x3e058a3b	0.13041012
86	0xbeb0567c	-0.34440982
87	0xbd33a6f8	-0.043860406
88	0x3eb1a50f	0.34696242
89	0xbd7d702a	-0.061874546
90	0x3e7af387	0.24506961
91	0xbd36f279	-0.044664834
92	0xbe45ba10	-0.19309258
93	0x3f3968d1	0.7242556
94	0xbe03e0be	-0.12878701
95	0x3d2f74b0	0.04283589
96	0xbe9c2417	-0.30496284
97	0xbc90142c	-0.017587744
98	0x3e0e5518	0.13899648
99	0xbe81dd69	-0.25364235
100	0x3ce30d4d	0.027716303
101	0xbcbb418f	-0.02285841
102	0xbdcd9901	-0.10038949
103	0x3f23457a	0.6377789
104	0xbe70b7e5	-0.2350765
105	0xbe2e4c31	-0.17021252
106	0x3d26e25c	0.040743217
107	0x3e09d580	0.1346035
108	0x3d759d05	0.0599642
109	0xbe90fb03	-0.28316507
110	0xbebedb7f	-0.37276837
111	0x3eb26929	0.34845856

sequential_4/dense_18/MatMul f4 [48, 16]
0	0xbe223259	-0.15839519
1	0x3d9c9742	0.07646038
2	0xbdd832c3	-0.10556557
3	0xbe4a05ed	-0.19728823
4	0x3e47a0de	0.1949496
5	0x3d897e7c	0.06713578
6	0x3d4d9bf6	0.050197564
7	0x3eb08d4b	0.34482798
8	0xbe907355	-0.2821299
9	0x3e877470	0.26456022
10	0x3e01f47b	0.12690918
11	0x3d594af0	0.05304998
12	0xbe8baaaf	-0.2727866
13	0x3d907aaa	0.07054646
14	0xbebff920	-0.37494755
15	0x3d056e0f	0.032575663
16	0x3e9e03dc	0.3086232
17	0x3d3c89df	0.04602992
18	0x3db03f88	0.086058676
19	0x3b8693d2	0.004106977
20	0x3e8b2fee	0.27185005
21	0x3e56439c	0.20924228
22	0x3cf22190	0.02955702
23	0x3e8eef35	0.27916875
24	0x3e0e41a5	0.13892229
25	0x3ea9bb9c	0.33150947
26	0xbe300ed3	-0.17193155
27	0x3b54b9db	0.0032459411
28	0xbdcfa4c0	-0.101388454
29	0xbe7d4240	-0.24732304
30	0xbcca7e6f	-0.024718491
31	0x3e5dd072	0.21661547
32	0x3e8b7aa6	0.2724201
33	0x3c84c2f6	0.016206246
34	0x3e129728	0.14315474
35	0xbe47600a	-0.1947023
36	0x3d5170ff	0.051133152
37	0xbe351f53	-0.1768773
38	0x3ee3c12a	0.4448331
39	0x3bf9d7b0	0.007624589
40	0x3cedd5ef	0.029032676
41	0x3d63138b	0.05543856
42	0x3e85916f	0.2608752
43	0x3ecb265c	0.39677703
44	0x3eaa1ddc	0.33225906
45	0xbd892652	-0.06696762
46	0xbe006bed	-0.1254117
47	0x3e4ab74b	0.19796483
48	0x3db86fc6	0.09005694
49	0xbe6198d8	-0.22030962
50	0xbe1e1b53	-0.15440111
51	0xbbee5d73	-0.0072743236
52	0xbd5de95c	-0.054177627
53	0xbe1dfe91	-0.1542914
54	0xbcc105ea	-0.02356239
55	0xbd83fcd6	-0.06444709
56	0x3dd01ebb	0.10162111
57	0xbea3a28e	-0.31959957
58	0x3e0e6504	0.13905722
59	0x3e6bfd80	0.23045921
60	0x3f025816	0.5091566
61	0xbe39d02f	-0.18145822
62	0xbe22dbec	-0.15904206
63	0xbe274521	-0.16334964
64	0x3e260e33	0.16216354
65	0xbd264b91	-0.04059941
66	0x3dd25803	0.10270693
67	0xbdf2a4f3	-0.11847868
68	0x3e98dbcc	0.29855192
69	0x3d9d7c46	0.07689719
70	0x39d3aa45	0.00040371917
71	0x3e607a1c	0.21921581
72	0xbe78e310	-0.24305367
73	0x3eb01610	0.34391832
74	0xbe1650c0	-0.14679241
75	0x3ce74871	0.028232785
76	0xbe0a3acc	-0.13498992
77	0xbd88a9f0	-0.06673038
78	0xbd656596	-0.056005083
79	0xbd627ba7	-0.055293705
80	0x3c9d4d8b	0.019202014
81	0xbe960b72	-0.29305607
82	0xbed5a3a6	-0.41726416
83	0xbeb98b87	-0.36239263
84	0x3d88a145	0.06671385
85	0xbdc70008	-0.09716803
86	0xbd4a6acd	-0.04941826
87	0xbe9747de	-0.29547018
88	0xbe28aef8	-0.16472995
89	0xbe99d08d	-0.30041924
90	0x39e2330b	0.0004314411
91	0x3e407e72	0.18798235
92	0xbea6d472	-0.32583958
93	0x3d80baa9	0.062856026
94	0xbea3f29a	-0.32021028
95	0xbea31825	-0.31854358
96	0xbe3a048a	-0.18165794
97	0xbe08f0c3	-0.13373093
98	0x3de59376	0.112097666
99	0x3f01d182	0.5071031
100	0xbf052fdd	-0.5202616
101	0x3e9ac1b3	0.30225906
102	0xbd91ed54	-0.07125345
103	0xbe256f1b	-0.16155665
104	0xbc949e54	-0.018141903
105	0x3ab87139	0.0014071829
106	0xbe74ab0b	-0.23893373
107	0xbe335294	-0.1751197
108	0xbf306295	-0.68900424
109	0x3d720e5c	0.059095725
110	0x3edb0f67	0.4278519
111	0x3cae30a2	0.021263424
112	0x3dcca0be	0.09991597
113	0xbe191da7	-0.14952718
114	0x3be6010c	0.0070191678
115	0x3e3c15bc	0.18367666
116	0xbec77dc8	-0.3896315
117	0xbd9eccc2	-0.07753898
118	0x3dbb5eb8	0.091489255
119	0x3d38a23e	0.0450766
120	0x3dae0c53	0.084984444
121	0x3da5b8ca	0.08091886
122	0x3e615613	0.22005491
123	0x3cac1550	0.021006256
124	0x3ead2005	0.3381349
125	0xbe2a5054	-0.16632205
126	0x3de6a58f	0.112620465
127	0xbe7cfa09	-0.24704756
128	0xbe912186	-0.2834589
129	0x3e4eb154	0.20184833
130	0x3d4c346c	0.04985468
131	0xbe4eee1e	-0.20208022
132	0x3d984310	0.07434666
133	0xbe4c0b62	-0.19926217
134	0xbd2097e2	-0.039207347
135	0xbca1add3	-0.019736206
136	0x3de8b936	0.11363451
137	0xbe5f783f	-0.21823214
138	0xbd8e8ac0	-0.06960058
139	0x3e626627	0.2210928
140	0x3ec0c345	0.3764898
141	0xbd30a613	-0.04312713
142	0xbe577ff3	-0.21044903
143	0x3ea2d9c9	0.31806782
144	0xbc71e560	-0.01476416
145	0x3e096dc5	0.1342078
146	0x3e091601	0.133873
147	0x3cb44d6f	0.02200958
148	0xbe4fc002	-0.20288089
149	0xbe968841	-0.29400828
150	0xbd4e6289	-0.05038694
151	0xbcdfe9f2	-0.027333234
152	0x3c5340ec	0.012893897
153	0x3e0a0b4b	0.1348087
154	0xbe5d0d4d	-0.21587105
155	0xbd82119c	-0.06351015
156	0x3e53be58	0.20678079
157	0xbe9123f4	-0.28347743
158	0x3edf6538	0.4363191
159	0x3c47fc8f	0.012206211
160	0xbd1958f9	-0.037438367
161	0x3b8810bc	0.0041523855
162	0xbe971364	-0.2950698
163	0xbe2d8bcb	-0.16947858
164	0x3e240eef	0.16021322
165	0xbe23251a	-0.15932122
166	0x3da9d457	0.08292454
167	0x3d90133c	0.07034919
168	0x3cbdb1ab	0.023156008
169	0x3bb730d7	0.005590539
170	0x3dacc301	0.084356315
171	0x3c1bf5e0	0.00951907
172	0xbdf3be8d	-0.11901579
173	0xbe84ad01	-0.25913242
174	0xbe184879	-0.14871396
175	0x3e52cb34	0.20585328
176	0xbe8b73c4	-0.2723676
177	0x3df14ffe	0.117828354
178	0xbea6499c	-0.32478034
179	0xbdd42eaa	-0.10360463
180	0x3e7b71fc	0.245552
181	0xbea08e87	-0.3135874
182	0xbe08d8c2	-0.13363937
183	0x3e1954dd	0.14973779
184	0xbe2168d2	-0.15762642
185	0xbcf9dcb3	-0.030500745
186	0xbdf51754	-0.1196734
187	0xbdc309c1	-0.09523345
188	0xbe41e153	-0.1893361
189	0x3de31225	0.11087445
190	0xbdb5106e	-0.08841024
191	0xbe5d1982	-0.21591762
192	0x3e85477f	0.2603111
193	0xbe4bab28	-0.1988951
194	0x3dbeab78	0.09310049
195	0xbd846d16	-0.06466119
196	0x3f3041a4	0.6885016
197	0x3d016167	0.03158703
198	0x3e880433	0.26565704
199	0xbe879690	-0.26482058
200	0x3e566b18	0.2093929
201	0x3a00f5e4	0.0004919453
202	0xbe7e7a2b	-0.24851291
203	0x3e050658	0.12990701
204	0xbe108599	-0.14113463
205	0x3df0149b	0.1172268
206	0x3e0d9d33	0.13829498
207	0x3ddca3db	0.107734405
208	0x3d808946	0.06276183
209	0xbe941c1b	-0.28927693
210	0xbdca8f6e	-0.09890638
211	0xbd614cd2	-0.055004902
212	0x3dc65b4a	0.09685381
213	0xbea81190	-0.328259
214	0x3eb76913	0.35822353
215	0x3e50f48b	0.20405786
216	0x3f193f9d	0.5986269
217	0xbd10f843	-0.03539301
218	0xbd83ddb1	-0.06438769
219	0xbd8ce489	-0.06879527
220	0xbe1e2b8a	-0.15446296
221	0x3ec6708a	0.38757735
222	0xbd7f81ed	-0.062379766
223	0xbc967c30	-0.018369764
224	0xbdcb8d1b	-0.09939023
225	0x3d8b975a	0.068159774
226	0x3e84a96b	0.25910506
227	0x3e0f62a7	0.14002477
228	0x3e48f39b	0.19624178
229	0x3d92da35	0.07170526
230	0x3ded2eda	0.11581202
231	0x3e54ce10	0.20781732
232	0xbb0dfed1	-0.0021666775
233	0x3e8c3fba	0.2739237
234	0xbc345a4d	-0.0110078575
235	0xbeb4ffce	-0.35351413
236	0xbe237717	-0.15963398
237	0x3f0ad192	0.5422603
238	0xbe0b652b	-0.13612811
239	0xbd1f1f90	-0.03884846
240	0xbe70c036	-0.23510823
241	0x3d0fc981	0.03510428
242	0x3e099f2b	0.13439624
243	0xbe302686	-0.17202196
244	0x3ca2371f	0.019801674
245	0xbc53d567	-0.012929297
246	0x3c329552	0.010899859
247	0x3df9ad15	0.12191216
248	0x3d11448d	0.035465766
249	0xbe2dd9cd	-0.16977616
250	0xbde2945b	-0.11063453
251	0x3e86e93a	0.26349813
252	0x3cb9be81	0.022673847
253	0x3d6452eb	0.05574314
254	0xbde49639	-0.11161465
255	0x3ee330d5	0.44373193

sequential_4/dense_19/MatMul f4 [64, 48]
0	0x3cfd02bf	0.030885099
1	0xbe918004	-0.2841798
2	0x3e06fe02	0.13182834
3	0xbed92b91	-0.4241605
4	0xbebbafcb	-0.36657557
5	0xbea958f1	-0.3307567
6	0x3d036f1d	0.032088388
7	0xbe9cf002	-0.3065186
8	0x3e201d2f	0.15636133
9	0xbd3e7122	-0.04649461
10	0x3cab3375	0.02089856
11	0x3e650a2b	0.2236716
12	0xbe9e4411	-0.30911306
13	0x3e4d568b	0.20052545
14	0x3c867520	0.016413271
15	0xbce2337c	-0.02761244
16	0x3ebe0323	0.37111768
17	0xbd3d390e	-0.04619699
18	0xbe89d44b	-0.2691978
19	0xbd099194	-0.0335861
20	0xbe1ffd16	-0.15623888
21	0xbe1095a5	-0.14119585
22	0xbdb913f8	-0.09037012
23	0x3e86046b	0.26175246
24	0x3da6f5aa	0.081523255
25	0x3d35c144	0.044373766
26	0x3d5ee3d4	0.054416493
27	0xbe60e6f5	-0.21963103
28	0x3d1f4b1e	0.038889997
29	0x3d387c52	0.045040436
30	0xbe0cfd26	-0.13768443
31	0xbe8817d9	-0.26580694
32	0x3bd1c802	0.0064020166
33	0x3cda7493	0.026666915
34	0xbefd9b57	-0.49532577
35	0xbdf8bc90	-0.121453404
36	0x3c46e8cd	0.012140465
37	0x3e19a1ca	0.15003124
38	0x3e3333ab	0.17500179
39	0xbd934eac	-0.0719274
40	0xbe25f3f0	-0.16206336
41	0xbefbb719	-0.4916313
42	0xbebf04a4	-0.37308228
43	0xbf0737bd	-0.52819425
44	0x3b8aa236	0.004230763
45	0x3db878a7	0.090073876
46	0xbe5d49cf	-0.21610187
47	0xbe32c826	-0.17459163
48	0x3dfbf50e	0.123026
49	0xbe499863	-0.19687037
50	0x3e12f10e	0.14349768
51	0x3d24e5d7	0.040258255
52	0xbe13e8a3	-0.14444213
53	0xbeb8b3c4	-0.3607465
54	0xbecda76d	-0.40166798
55	0xbd795bea	-0.06087867
56	0xbd971d8a	-0.07378681
57	0x3c276a97	0.010218284
58	0x3d85793e	0.06517266
59	0x3c0231a5	0.0079464065
60	0xbf594b02	-0.8488008
61	0xbe66367b	-0.2248172
62	0xbdf1e668	-0.11811525
63	0xbd8d5ca3	-0.06902435
64	0x3e60ee51	0.2196591
65	0x3d65ebbd	0.05613302
66	0xbe2b2c41	-0.167161
67	0x3c1947df	0.009355514
68	0xbe7964d4	-0.24354869
69	0x3e63c3d2	0.22242668
70	0x3a36130d	0.0006945588
71	0x3ecee2c7	0.40407392
72	0x3d978d09	0.07399947
73	0xbdf815d1	-0.12113536
74	0x3de08a44	0.10963872
75	0xbdd7749a	-0.10520287
76	0x3db1d6d9	0.08683557
77	0xbd8e60e6	-0.06952076
78	0xbdb6e062	-0.089295164
79	0xbd4141a6	-0.047181748
80	0xbe27ec74	-0.16398793
81	0x3e24e16b	0.16101615
82	0x3c7889ab	0.015169541
83	0xbe9f4d14	-0.31113493
84	0x3e1b86b4	0.15188104
85	0x3e6d33a7	0.23164235
86	0x3e347070	0.17621017
87	0xbe3fde35	-0.18737109
88	0xbe269f3e	-0.16271684
89	0xbe104dd3	-0.14092188
90	0xbf0849d2	-0.5323764
91	0x3da1eca2	0.07906462
92	0x3f3d2110	0.73878574
93	0xbdf559a5	-0.11979989
94	0xbe387a55	-0.18015416
95	0xbed4efdb	-0.41589245
96	0xbdcd9d8c	-0.10039815
97	0xbeb14aff	-0.3462753
98	0x3e5b4810	0.21414208
99	0xbe4b9a7c	-0.1988315
100	0xbe84c04a	-0.25927955
101	0x3ece2def	0.4026942
102	0xbeb09bd3	-0.34493884
103	0xbeccfe65	-0.40037838
104	0xbdd0c22a	-0.10193284
105	0xbe8b8ce4	-0.2725593
106	0xbde6887f	-0.11256503
107	0xbdf7972e	-0.12089382
108	0x3e07e394	0.13270408
109	0x3d9efd14	0.077631146
110	0x3e3a5639	0.18196954
111	0xbda01dbe	-0.07818173
112	0xbe2588fd	-0.16165538
113	0x3d2b2eb9	0.041792605
114	0xbca124de	-0.0196709
115	0x3de34550	0.11097205
116	0x3d131087	0.035904434
117	0x3eb03d8f	0.34421965
118	0x3b800b39	0.003907588
119	0xbedfa2c2	-0.43678862
120	0xbea15899	-0.31512907
121	0x3e7cf09d	0.24701162
122	0xbeb0a04d	-0.344973
123	0xbaa1f9f4	-0.0012357817
124	0xbe5d1914	-0.21591598
125	0x3baaa8c3	0.0052081062
126	0x3dc57941	0.09642268
127	0xbe5c31bd	-0.21503349
128	0xbec361f1	-0.3816066
129	0xbdc0269a	-0.09382363
130	0xbe048735	-0.12942202
131	0xbe7cb11e	-0.2467694
132	0xbea1c420	-0.31594944
133	0x3dafeff8	0.08590692
134	0xbdfaf6d9	-0.12254114
135	0xbe8b7dd7	-0.27244446
136	0xbd69cc37	-0.05707952
137	0xbe17ecb0	-0.14836383
138	0x3dad592a	0.08464272
139	0xbe4998d5	-0.19687207
140	0xbec52bb4	-0.38509905
141	0x3e1ccb93	0.15312032
142	0xbea986b9	-0.33110598
143	0xbe973be1	-0.2953787
144	0xbd235e17	-0.039884653
145	0xbe94edc1	-0.29087642
146	0x3e1f3461	0.15547325
147	0x3deb1e95	0.114804424
148	0xbd4900f8	-0.04907319
149	0x3c7b1c61	0.01532659
150	0xbdbd25b0	-0.09235704
151	0x3ecb2307	0.3967516
152	0xbe81267a	-0.25224668
153	0x3a8b8601	0.0010644795
154	0x3cf22e97	0.029563231
155	0x3e40b113	0.18817548
156	0xbf69c87a	-0.9132153
157	0xbe3705db	-0.17873327
158	0xbe9b0d5a	-0.30283624
159	0xbe4fd89e	-0.20297477
160	0x3e3e4383	0.18580441
161	0xbd97b702	-0.07407953
162	0xbea40799	-0.32037047
163	0xbe152a59	-0.14566936
164	0xbe954f57	-0.29162094
165	0x3de5121c	0.11185095
166	0xbc373b10	-0.011183515
167	0x3e518f2b	0.2046477
168	0xbe1cad5a	-0.15300503
169	0x3dcf900d	0.101348974
170	0x3ce33610	0.02773574
171	0xbba27630	-0.0049579367
172	0xbe0172ef	-0.126415
173	0xbe86ab3d	-0.2630252
174	0xbe4315a6	-0.19051227
175	0xbd9372f9	-0.07199664
176	0xbeaadd52	-0.3337198
177	0x3e80ea42	0.25178725
178	0xbba0ee1a	-0.0049111964
179	0xbe846d6e	-0.25864738
180	0xbd55761c	-0.05211459
181	0x3d1c405c	0.038147315
182	0x3dd8c6ec	0.10584816
183	0xbe2fdf81	-0.17175104
184	0xbe19ca0b	-0.1501848
185	0xbe917c07	-0.28414938
186	0xbe887588	-0.2665217
187	0x3e1fb190	0.15595078
188	0x3f0adb77	0.54241127
189	0x3c3d7576	0.011563649
190	0xbda59f7e	-0.08087061
191	0xbee2fd0f	-0.44333693
192	0x3e125439	0.14289941
193	0x3e4a3723	0.19747595
194	0x3e872661	0.26396468
195	0x3e378476	0.17921624
196	0x3edc244e	0.42996448
197	0x3ea279c6	0.3173353
198	0x3dc58bcc	0.09645805
199	0x3e5ab730	0.21358943
200	0xbe5abef3	-0.21361904
201	0xbe830356	-0.25588483
202	0x3ebfa301	0.3742905
203	0xbb4393fe	-0.002984285
204	0xbe60696d	-0.21915217
205	0x3e3fa4de	0.18715236
206	0xbea7c250	-0.32765436
207	0xbddbea59	-0.10738058
208	0xbced3d60	-0.02895993
209	0x3e886dfe	0.26646417
210	0xbe668d9d	-0.22514959
211	0xbe53e57a	-0.20693007
212	0x3e8df73b	0.27727684
213	0xbebcb627	-0.3685772
214	0xbe426ebe	-0.18987557
215	0x3dc713dd	0.097205855
216	0x3a993680	0.0011689216
217	0x3ef13cdf	0.47116753
218	0x3e2bc858	0.16775644
219	0x3ed6fce7	0.41989824
220	0x3d969f98	0.07354659
221	0x3da9ca34	0.0829052
222	0x3d41f8d6	0.04735645
223	0x3dbead43	0.09310391
224	0x3e2e0a4b	0.16996114
225	0xbdee264d	-0.11628399
226	0x3ce957b0	0.028484195
227	0xbe5fa533	-0.21840362
228	0xbefa6eea	-0.48912746
229	0x3e6190f8	0.22027957
230	0x3bf0df1b	0.007350815
231	0x3e10cdac	0.14140958
232	0xbb8ca880	-0.0042925477
233	0xbd86e4bd	-0.06586597
234	0xbcc899cf	-0.024487404
235	0x3d344bd4	0.044017628
236	0xbd5a09e8	-0.053232104
237	0xbe069230	-0.13141704
238	0x3ed1503b	0.40881523
239	0x3e1c7949	0.15280642
240	0x3db688c4	0.08912805
241	0x3e66f0c0	0.22552776
242	0x3ed95956	0.4245097
243	0x3e832a8d	0.256184
244	0x3e98b3ce	0.2982468
245	0x3ea7426e	0.3266787
246	0xbea18aaf	-0.3155112
247	0xbdedfce1	-0.116204984
248	0xbe185eaa	-0.14879861
249	0xbe4a1a71	-0.19736649
250	0x3c8b7840	0.017025113
251	0xbe5633fc	-0.20918268
252	0x3e801436	0.2501542
253	0x3e63f657	0.2226194
254	0xbe08d1e4	-0.13361317
255	0xbe361480	-0.17781258

sequential_4/dense_20/MatMul f4 [128, 64]
0	0x3e7d7bdd	0.24754281
1	0x3ce4528a	0.027871389
2	0x3cdb88dd	0.02679866
3	0x3e2ac174	0.16675359
4	0x3e34543f	0.17610262
5	0x3e32d648	0.17464554
6	0xbe5897b5	-0.21151622
7	0xbbfbc168	-0.007682968
8	0xbd113654	-0.035452202
9	0x3e8aa72a	0.2708066
10	0x3e557eb0	0.20849109
11	0xbdbb587a	-0.09147735
12	0xbcb829f8	-0.02248095
13	0xbe852474	-0.26004374
14	0xbeb36375	-0.35036817
15	0xbe12d111	-0.14337565
16	0xbf20fa5b	-0.6288201
17	0x3e9d536a	0.30727702
18	0xbd281baf	-0.041042026
19	0xbec67189	-0.38758495
20	0x3dbaa26c	0.09113011
21	0xbd918e31	-0.07107199
22	0xbeb62e1c	-0.35582054
23	0x3ea46541	0.321085
24	0xbd77d1e0	-0.060502887
25	0x3db80e9e	0.08987163
26	0xbe025946	-0.12729368
27	0xbd4b315b	-0.049607616
28	0xbe4fb456	-0.20283636
29	0xbdd9e782	-0.1063986
30	0x3ed404c4	0.41409886
31	0x3e6f395a	0.23361722
32	0xbda3b342	-0.07993175
33	0xbf046c97	-0.51728195
34	0xbf092bd8	-0.53582525
35	0x3d4447a3	0.04791988
36	0x3cc2e193	0.023789203
37	0xbe897b73	-0.26851997
38	0xbe04eed0	-0.12981725
39	0xbbcb885e	-0.0062113246
40	0xbe9fcc1f	-0.3121042
41	0xbc83c28a	-0.016083974
42	0xbea91832	-0.33026272
43	0x3e5c1434	0.21492082
44	0x3f3c5851	0.7357226
45	0x3e583891	0.21115328
46	0x3d9c1277	0.076207094
47	0x3f10a11d	0.5649584
48	0xbd428f09	-0.04749969
49	0x3eb00c3a	0.34384328
50	0xbf0e5598	-0.55599356
51	0xbe470490	-0.19435334
52	0xbecb681a	-0.3972786
53	0xbcc37e8c	-0.023864053
54	0xbdb6d3f6	-0.08927147
55	0x3e984e27	0.29747126
56	0xbe15cf9f	-0.14629982
57	0x3e14caf9	0.14530553
58	0x3bfd9d20	0.007739678
59	0xbecc6e05	-0.39927688
60	0x3e109e1e	0.14122817
61	0xbe531a00	-0.20615387
62	0xbd61c05d	-0.055115093
63	0xbdf4d5a5	-0.11954812
64	0x3f2312dd	0.6370066
65	0x3e9bc649	0.30424717
66	0xbd81ffff	-0.063476555
67	0x3d6f0813	0.05835731
68	0x3d1a0102	0.037598617
69	0xbe8409e6	-0.25788802
70	0x3d3b4a82	0.045725353
71	0x3cb718d6	0.02235071
72	0x3f46b33f	0.7761726
73	0x3f14acc6	0.5807613
74	0xbcf7d9a6	-0.03025515
75	0xbeeb879e	-0.46001905
76	0xbdbcfe77	-0.09228223
77	0x38240e38	3.911389e-05
78	0xbe9b31e0	-0.3031149
79	0xbafa1f7a	-0.0019082867
80	0xbdb53d75	-0.088496126
81	0x3ee27b65	0.44234768
82	0xbe2634d9	-0.16231097
83	0xbee4e499	-0.44705656
84	0xbe3fdce1	-0.18736602
85	0xbea3f73a	-0.32024556
86	0xbe513380	-0.20429802
87	0x3d5010c8	0.050797254
88	0xbd6035f5	-0.054738957
89	0x3e19e385	0.15028198
90	0xbe396820	-0.18106127
91	0xbe8dac20	-0.27670383
92	0xbe3e74a8	-0.18599188
93	0xbdded3c4	-0.10880235
94	0xbddc5e0f	-0.10760128
95	0x3c509ec9	0.01273317
96	0xbdf154bf	-0.11783742
97	0xbe9a4352	-0.30129486
98	0xbe7557a7	-0.23959218
99	0x3ecbef8c	0.39831197
100	0xbe3a6d0f	-0.18205665
101	0x3e1bf11b	0.15228693
102	0xbeaff06d	-0.34363118
103	0x3d17da93	0.037073683
104	0xbd94c85a	-0.072647765
105	0xbe85d32b	-0.2613767
106	0xbe91f4e3	-0.28507146
107	0x3e794675	0.24343283
108	0x3dfff1c6	0.124972865
109	0x3b3a5bdb	0.0028436098
110	0x3e6913e4	0.22761494
111	0x3b610d92	0.0034340364
112	0x3d409d92	0.04702527
113	0x3caad68f	0.020854263
114	0xbe7d83db	-0.2475733
115	0xbdf2d279	-0.11856551
116	0xbee56709	-0.44805172
117	0xbc8e7af6	-0.017392617
118	0x3cbce107	0.02305652
119	0xbdc0f498	-0.094216526
120	0xbe9de1c2	-0.30836302
121	0xbe20da26	-0.15708217
122	0x3d445ce4	0.04794015
123	0xbd9b6c26	-0.07588987
124	0xbde88d79	-0.11355109
125	0xbd140dd3	-0.036145996
126	0xbabea93c	-0.0014546285
127	0xbeba27ce	-0.36358494
128	0x3de793ee	0.11307512
129	0xbde5c9e3	-0.112201475
130	0x3df2c868	0.11854631
131	0xbdc2277b	-0.094801866
132	0xbc8e4e23	-0.017371243
133	0x3e2f3e47	0.171136
134	0xbef49517	-0.47769997
135	0xbe310c00	-0.17289734
136	0x3e0fcf7b	0.14043991
137	0xbd09ca4b	-0.033640187
138	0x3e04d625	0.12972315
139	0x3e03c40f	0.12867759
140	0xbd91e4fb	-0.07123753
141	0xbe3692a1	-0.17829372
142	0xbde25253	-0.11050858
143	0xbe7491ab	-0.23883693
144	0xbe1bb908	-0.15207303
145	0x3e521d10	0.20518899
146	0x3e057a0c	0.13034838
147	0xbb41c1fc	-0.0029565087
148	0x3e723a34	0.23655015
149	0x3d9b5ea5	0.075864114
150	0xbd2ee65c	-0.042700157
151	0x3e857544	0.2606603
152	0xbe5d5831	-0.21615674
153	0xbe7719ac	-0.24130887
154	0x3e21849f	0.15773247
155	0xbd25f58b	-0.04051737
156	0x3d114e06	0.0354748
157	0x3d9ee9b2	0.077594176
158	0x3e55b519	0.20869865
159	0x3f084c80	0.5324173
160	0xbe95c8e7	-0.2925484
161	0xbe7b7855	-0.24557622
162	0xbc4f6231	-0.012657688
163	0x3e6e8052	0.23291138
164	0x3e0f9a61	0.14023735
165	0xbe5d18cd	-0.21591492
166	0xbe3e91f4	-0.18610364
167	0xbd7ab4f3	-0.061207723
168	0xbd776540	-0.060399294
169	0x3ad2dd20	0.0016087629
170	0xbda4d980	-0.08049297
171	0xbd3cddcc	-0.04610996
172	0x3e50d158	0.20392358
173	0xbdc6c1df	-0.09704947
174	0xbd657068	-0.056015402
175	0x3e2fc379	0.1716441
176	0xbd3f50d8	-0.046707958
177	0x3ef127ad	0.47100583
178	0x3d56830a	0.052371062
179	0xbe2a6ada	-0.16642323
180	0x3d064d4c	0.03278856
181	0xbe3836a1	-0.1798959
182	0xbd93b5cc	-0.072124094
183	0x3d953207	0.072849326
184	0x3c8d13e8	0.017221406
185	0xbac8a5f7	-0.001530825
186	0xbeb3d37b	-0.35122284
187	0xbea7103a	-0.32629567
188	0xbe711592	-0.23543385
189	0xbe5c293f	-0.21500109
190	0xbe7b607d	-0.24548526
191	0x3dea1b3b	0.11430975
192	0xbe1e021b	-0.1543049
193	0xbe5987ed	-0.21243258
194	0xbda8f6e4	-0.08250216
195	0x3bbcd551	0.005762734
196	0x3bae3171	0.0053159525
197	0xbe316f0b	-0.17327516
198	0xbded0cc6	-0.11574702
199	0x3de47a63	0.11156156
200	0xbe34d315	-0.17658646
201	0xbda7e9e7	-0.0819891
202	0xbe6a4b39	-0.22880258
203	0xbd464b5c	-0.048411712
204	0xbdb58de0	-0.08864951
205	0x3e12506a	0.14288488
206	0x3e608758	0.2192663
207	0xbe2c82f3	-0.16846828
208	0xbcd51498	-0.026010796
209	0xbe577fbd	-0.21044822
210	0xbd23a969	-0.039956484
211	0xbe808cda	-0.2510746
212	0xbe92b903	-0.28656778
213	0xbdfdb5c2	-0.12388183
214	0xbbe84597	-0.007088374
215	0x3ebb3878	0.3656652
216	0xbd729930	-0.059228122
217	0x3c53f974	0.012937892
218	0xbe078134	-0.13232881
219	0xbc7b65a1	-0.015344054
220	0xbd8d0e47	-0.06887489
221	0xbdfc8c09	-0.12331397
222	0xbe1061ad	-0.1409976
223	0xbc8688a5	-0.016422579
224	0xbdd22fc6	-0.10263018
225	0xbda9630e	-0.08270846
226	0xbe2e5473	-0.17024402
227	0xbe4009c3	-0.18753724
228	0xbc972dd2	-0.018454466
229	0x3e48f990	0.1962645
230	0xbe9a31aa	-0.30116016
231	0xbdd2c66a	-0.10291751
232	0x3d53cf20	0.0517112
233	0x3e4771f9	0.19477071
234	0x3cd18d4f	0.025580077
235	0xbd868239	-0.06567807
236	0x3e46bfbc	0.19409078
237	0x3d19dcaa	0.037563957
238	0xbd1791fa	-0.03700445
239	0xbe86d95d	-0.2633771
240	0xbd3266bf	-0.043555018
241	0xbde16cf5	-0.1100711
242	0xbdc5bcc2	-0.09655143
243	0xbd1252da	-0.035723545
244	0xbdab9ba0	-0.083792925
245	0x3e0bbcd8	0.13646257
246	0xbe056cec	-0.13029832
247	0x3b30d154	0.0026980238
248	0xbc5a69da	-0.013330901
249	0xbe0a13bb	-0.13484089
250	0xbe878087	-0.26465246
251	0xbbfe4f17	-0.007760893
252	0x3ce291ba	0.027657378
253	0x3d94b549	0.0726114
254	0x3def92ca	0.1169792
255	0xbd08faaf	-0.033442196

sequential_4/dense_21/MatMul f4 [101, 128]
0	0xbdfec5ba	-0.12440057
1	0xbe449840	-0.19198704
2	0xbe251436	-0.16120991
3	0xbe37b022	-0.17938283
4	0xbe1b1e48	-0.1514827
5	0xbe01d40a	-0.12678543
6	0xbe96224c	-0.2932304
7	0xbe092387	-0.13392459
8	0xbd95fae3	-0.073232435
9	0xbe66c2c2	-0.22535232
10	0xbe287fe5	-0.16455038
11	0xbda07342	-0.07834484
12	0xbe08df57	-0.13366447
13	0xbe0cd4f9	-0.13753118
14	0xbde50a5d	-0.11183617
15	0xbdc3f1e6	-0.09567623
16	0xbdfcff38	-0.123533666
17	0xbe0a8d98	-0.13530576
18	0xbe47961c	-0.19490856
19	0xbe634d9c	-0.22197574
20	0xbe8bdab6	-0.273153
21	0xbe112f96	-0.14178309
22	0xbe0f87f3	-0.14016704
23	0xbdf02679	-0.11726088
24	0xbe85d45e	-0.26138586
25	0xbe86d796	-0.26336354
26	0xbe5b54b1	-0.21419026
27	0xbe06c825	-0.13162287
28	0xbdeec935	-0.11659471
29	0xbe19f34f	-0.15034221
30	0xbe36eba1	-0.17863323
31	0xbe8518c1	-0.25995448
32	0xbeaf1f7c	-0.34203708
33	0xbdc6f36e	-0.09714399
34	0xbe1676b2	-0.14693716
35	0xbe3eee7c	-0.18645662
36	0xbdfb17de	-0.12260412
37	0xbe45eb2f	-0.19327997
38	0xbdb9c3ea	-0.09070571
39	0xbe54952b	-0.20760028
40	0xbe4bb33b	-0.1989259
41	0xbdfcc407	-0.12342077
42	0xbe5c5f5e	-0.21520755
43	0xbd526b1d	-0.051371682
44	0xbe528d5e	-0.2056174
45	0xbe606cd8	-0.2191652
46	0xbe3cb6ce	-0.1842911
47	0xbe849b5e	-0.25899786
48	0xbdff1d79	-0.12456793
49	0xbe5d0b19	-0.21586265
50	0xbe403309	-0.18769468
51	0xbe6dce4c	-0.23223227
52	0xbe548509	-0.20753874
53	0xbe9fc45f	-0.31204507
54	0xbe6cc991	-0.23123766
55	0xbdd055e6	-0.10172634
56	0xbec56839	-0.38556078
57	0xbe0832da	-0.13300648
58	0xbe4fcda0	-0.20293283
59	0xbe183a3f	-0.14865969
60	0xbe3e48cc	-0.18582457
61	0xbe1356c6	-0.1438857
62	0xbe2b0299	-0.1670021
63	0xbe69ff21	-0.2285123
64	0xbe2dda04	-0.16977698
65	0xbe095853	-0.134126
66	0xbea185a2	-0.31547266
67	0xbe23d1c5	-0.1599799
68	0xbe2a24c6	-0.1661559
69	0xbe881d1f	-0.26584718
70	0xbe2168df	-0.15762661
71	0xbdf33387	-0.118750624
72	0xbe8751ac	-0.26429498
73	0xbe11d2e9	-0.14240612
74	0xbe1c85f3	-0.15285473
75	0xbe03d906	-0.12875757
76	0xbe72af92	-0.23699787
77	0xbe0a305f	-0.13495015
78	0xbdf543fe	-0.11975859
79	0xbe3de1fe	-0.1854324
80	0xbe8ccf51	-0.2750192
81	0xbe42221e	-0.18958327
82	0xbe309373	-0.17243747
83	0xbe301bfc	-0.17198175
84	0xbdc93abf	-0.09825658
85	0xbe3ee118	-0.18640554
86	0xbe836e43	-0.2567006
87	0xbe96b3f2	-0.29434162
88	0xbe90b8dd	-0.2826604
89	0xbe162cb5	-0.14665492
90	0xbe213664	-0.15743405
91	0xbe1c91db	-0.15290014
92	0xbe000471	-0.12501694
93	0xbe358cbe	-0.1772947
94	0xbe35d007	-0.17755137
95	0xbe2680c9	-0.16260065
96	0xbe18f901	-0.14938737
97	0xbe054026	-0.13012752
98	0xbebdc555	-0.37064615
99	0xbe463c6e	-0.1935899
100	0xbdaaffb1	-0.083495505
101	0xbdd8f3cc	-0.105933756
102	0xbe358db6	-0.1772984
103	0xbe1f66a0	-0.15566492
104	0xbe4c639d	-0.19959874
105	0xbe6192bd	-0.22028632
106	0xbe250a91	-0.16117312
107	0xbea54155	-0.32276407
108	0xbe1fade0	-0.15593672
109	0xbe0a27d6	-0.13491759
110	0xbdf8f087	-0.12155252
111	0xbe53f728	-0.20699751
112	0xbdb4c2df	-0.08826231
113	0xbe1de152	-0.15417984
114	0xbe0bb424	-0.13642937
115	0xbe78de34	-0.24303514
116	0xbe4bd235	-0.19904406
117	0xbe5804cf	-0.21095584
118	0xbe851408	-0.25991845
119	0xbe10687e	-0.1410236
120	0xbe218a7a	-0.15775481
121	0xbe37593a	-0.17905131
122	0xbe3fb7b9	-0.18722428
123	0xbe866286	-0.26247042
124	0xbec37ca7	-0.3818104
125	0xbdefcdd7	-0.11709183
126	0xbe565197	-0.20929562
127	0xbdd3f847	-0.103500895
128	0xbe3a4fdc	-0.18194526
129	0xbe4b1e5a	-0.19835797
130	0xbe21af0b	-0.1578943
131	0xbe601eb4	-0.21886712
132	0xbe131be5	-0.1436611
133	0xbe40767b	-0.18795197
134	0xbe88e946	-0.26740474
135	0xbe123969	-0.14279713
136	0xbda11f28	-0.07867271
137	0xbe202386	-0.15638551
138	0xbe3dea2b	-0.18546359
139	0xbda0061d	-0.07813666
140	0xbe10ce27	-0.14141141
141	0xbda7d211	-0.08194364
142	0xbdd469e6	-0.10371761
143	0xbdb23152	-0.08700813
144	0xbdd1fa43	-0.10252812
145	0xbe1e105a	-0.15435925
146	0xbe710837	-0.2353829
147	0xbe30c742	-0.17263511
148	0xbe8a8366	-0.27053374
149	0xbd8f9c19	-0.07012195
150	0xbe531207	-0.20612346
151	0xbe284d20	-0.16435671
152	0xbe42b09d	-0.19012685
153	0xbe8aac63	-0.27084646
154	0xbe307b6e	-0.17234585
155	0xbe05fb35	-0.13084109
156	0xbe3eadc5	-0.18620975
157	0xbe4def75	-0.20110877
158	0xbe36c41f	-0.17848252
159	0xbe8c4138	-0.27393508
160	0xbe94005a	-0.28906518
161	0xbdaa500f	-0.08316051
162	0xbe50cd52	-0.20390823
163	0xbe57a159	-0.21057643
164	0xbe0c1efc	-0.13683695
165	0xbe5503b4	-0.20802194
166	0xbd77140e	-0.06032186
167	0xbe528e0e	-0.20562002
168	0xbe351b86	-0.1768628
169	0xbdf5f12b	-0.1200889
170	0xbe7c7e33	-0.24657516
171	0xbded78fb	-0.11595341
172	0xbe0e060b	-0.13869493
173	0xbe0a4636	-0.13503346
174	0xbe57541a	-0.21028176
175	0xbe816f02	-0.25280005
176	0xbe0fe9aa	-0.1405398
177	0xbe788a2c	-0.24271458
178	0xbe4df48e	-0.20112821
179	0xbe434594	-0.1906951
180	0xbe2be838	-0.16787803
181	0xbe71973e	-0.2359285
182	0xbe72a265	-0.23694761
183	0xbdf8fc9c	-0.121575564
184	0xbec5889a	-0.3858078
185	0xbe11e2e1	-0.14246704
186	0xbe412190	-0.1886046
187	0xbda083f5	-0.07837669
188	0xbe15f4cf	-0.14644168
189	0xbe08d644	-0.13362986
190	0xbe596ffc	-0.21234125
191	0xbe58f4b5	-0.21187098
192	0xbe12a87c	-0.14322084
193	0xbe137bd7	-0.1440271
194	0xbe8a8796	-0.2705657
195	0xbe49f4f6	-0.19722351
196	0xbe15a6ae	-0.14614365
197	0xbe8b7a23	-0.2724162
198	0xbe5183a1	-0.20460369
199	0xbe487a81	-0.19577982
200	0xbe45d33e	-0.19318864
201	0xbdcbbd02	-0.0994816
202	0xbe12caeb	-0.1433522
203	0xbda6054c	-0.08106479
204	0xbe878c6c	-0.2647432
205	0xbdf15746	-0.11784224
206	0xbe3696a9	-0.1783091
207	0xbe597c79	-0.21238889
208	0xbeb0ba3f	-0.34517094
209	0xbe4bbfb2	-0.19897345
210	0xbe1555d2	-0.14583519
211	0xbe1804c9	-0.14845575
212	0xbdd80866	-0.10548477
213	0xbe1e21ad	-0.15442534
214	0xbe70e173	-0.23523502
215	0xbe883fd5	-0.266112
216	0xbe8e41eb	-0.27784666
217	0xbdb8de15	-0.09026734
218	0xbe36d53f	-0.17854784
219	0xbe41f7d5	-0.18942197
220	0xbe005de1	-0.12535812
221	0xbe50718e	-0.20355818
222	0xbe13e68a	-0.14443412
223	0xbe1590e4	-0.14606053
224	0xbe1f46af	-0.15554307
225	0xbe15a46a	-0.146135
226	0xbecce95a	-0.40021783
227	0xbe134531	-0.14381863
228	0xbd963b0a	-0.073354796
229	0xbdd9ebcc	-0.10640678
230	0xbe5d8f7e	-0.21636769
231	0xbd9abb38	-0.075552404
232	0xbe1e96aa	-0.15487161
233	0xbe7563b1	-0.2396381
234	0xbe371b13	-0.17881422
235	0xbe8a8729	-0.27056244
236	0xbe3d30b4	-0.1847561
237	0xbe20a029	-0.15686096
238	0xbe05fddb	-0.1308512
239	0xbe3481d3	-0.17627649
240	0xbdd9e251	-0.106388696
241	0xbe0611f0	-0.1309278
242	0xbe48033f	-0.19532488
243	0xbe916825	-0.28399768
244	0xbe4f03cc	-0.20216292
245	0xbe11ee04	-0.14250952
246	0xbe8fe7d3	-0.28106555
247	0xbe00929a	-0.12555924
248	0xbe4c85ed	-0.19972964
249	0xbe263a15	-0.16233094
250	0xbe17d7fe	-0.14828488
251	0xbe54da7c	-0.2078647
252	0xbeba5879	-0.36395624
253	0xbe11bf8e	-0.14233229
254	0xbe407141	-0.18793203
255	0xbe301ef4	-0.17199308
